model_save/beat_tracker_0.1068.pt (torch, 153742 bytes, 71 tensors)

frontend.conv1.0.weight f4 [16, 1, 3, 3]
0.50514203 0.7254427 0.056597307 0.4910424 0.30418786 0.08214607 0.11650462 0.5937133
0.30875528 -0.2352515 0.8541562 0.69822216 0.058186397 0.3455411 0.42180836 0.04915624
0.6732448 0.2733351 -0.12037228 0.12558408 -0.044463713 0.0445028 -0.07030074 0.3179254
-0.25250807 -0.1257591 -0.017674882 -0.20930436 0.017459279 -0.29202121 0.36098477 -0.21067883
0.36410433 0.091998905 -0.11166412 0.20832416 0.22165115 0.70101345 0.3531096 -0.09425288
0.30992532 -0.08071414 0.31267115 0.5597292 0.22074996 -0.06809533 0.2563941 0.19118911
0.03567403 -0.2687099 -0.31744948 -0.09480204 -0.20232312 0.36137533 0.42892972 0.46112347
0.23541741 0.26793188 0.4732047 -0.25646755 0.17582728 -0.15774626 -0.12751237 -0.10018173
0.08090725 -0.099690706 0.10214917 -0.31132388 -0.29542622 -0.008818155 0.43682173 0.25553733
0.35079864 -0.23987173 -0.28546688 -0.22199106 -0.19142905 0.18092135 0.17294705 0.32261837
-0.10078823 -0.2837743 0.12706104 -0.09899665 0.30511874 0.014348244 0.32448235 -0.2776868
-0.19392139 0.076167405 0.2296025 -0.012794034 0.18930769 0.27736452 -0.23187022 -0.22333308
0.34001625 -0.10063068 -0.1202593 -0.28017822 -0.17104492 0.14562269 -0.0024443853 -0.22163235
0.056408912 -0.17846917 -0.24839483 -0.1147707 -0.2701449 -0.17584118 0.39204955 0.048580218
0.11763447 -0.24640074 -0.23856439 -0.11129187 0.0896027 -0.26869836 -0.11904155 -0.16767865
0.030742723 -0.09608146 0.008808406 -0.19806461 -0.20577815 -0.16837607 -0.2634428 -0.23778895
0.5046939 -0.3121187 0.19282433 0.1225801 -0.29032677 0.3079443 0.015797213 -0.13969816
-0.3013025 -0.3679158 0.108939335 -0.07014247 0.1371748 -0.24728438 0.23703876 -0.23832817
00000000: fd50 013f 9db6 393f 94d2 673d e969 fb3e
00000010: 83be 9b3e 333c a83d f999 ee3d 98fd 173f
00000020: 2c15 9e3e c5e5 70be fba9 5a3f b0be 323f
00000030: dc54 6e3d c3ea b03e 44f7 d73e 0e58 493d
00000040: c559 2c3f 94f2 8b3e be85 f6bd 1d99 003e
00000050: 951f 36bd 9148 363d d6f9 8fbd 1ec7 a23e
00000060: bd48 81be fec6 00be eaca 90bc e253 56be
00000070: c306 8f3c ce83 95be ffd2 b83e 31bc 57be
00000080: e26b ba3e ec69 bc3d 28b0 e4bd ee52 553e
00000090: 85f8 623e 9e75 333f c8ca b43e a707 c1bd
000000a0: 88ae 9e3e 744d a5bd 6f16 a03e 6a4a 0f3f
000000b0: 470c 623e 9075 8bbd 1646 833e 14c7 433e
000000c0: ef1e 123d 5894 89be bd88 a2be 9227 c2bd
000000d0: cb2d 4fbe 3006 b93e ad9c db3e 6018 ec3e
000000e0: 4311 713e 5e2e 893e e347 f23e b74f 83be
000000f0: 110c 343e 3c88 21be 9a92 02be 142c cdbd
00000100: b3b2 a53d a42a ccbd 9633 d13d d865 9fbe
00000110: 1b42 97be 067a 10bc 19a7 df3e cad5 823e
00000120: e19b b33e efa0 75be b728 92be a051 63be
00000130: fa05 44be 7243 393e 0819 313e 3c2e a53e
00000140: 0f6a cebd dd4a 91be 4a1c 023e c1be cabd
00000150: 8638 9c3e e614 6b3c 8d22 a63e f72c 8ebe
00000160: 5493 46be a8fd 9b3d eb1c 6b3e 119e 51bc
00000170: e0d9 413e b902 8e3e 636f 6dbe 6db1 64be
00000180: 9c16 ae3e 7517 cebd 824a f6bd 8573 8fbe
00000190: 6626 2fbe 1d1e 153e fb31 20bb 97f3 62be
000001a0: 080d 673d 9fc0 36be 375b 7ebe e70c ebbd
000001b0: 6f50 8abe b60f 34be b8ba c83e 0dfc 463d
000001c0: 57ea f03d 7a50 7cbe 394a 74be feec e3bd
000001d0: 9f81 b73d d592 89be 0ecc f3bd f4b3 2bbe
000001e0: 2ad8 fb3c 5bc6 c4bd 2251 103c 73d1 4abe
000001f0: 82b7 52be c76a 2cbe fae1 86be f27e 73be
00000200: 9f33 013f 06ce 9fbe be73 453e 470b fb3d
00000210: b6a5 94be e0aa 9d3e 2869 813c 090d 0fbe
00000220: 5244 9abe 765f bcbe 961b df3d dba6 8fbd
00000230: 8d77 0c3e 1e38 7dbe 4aba 723e 4d0c 74be

frontend.conv1.0.bias f4 [16]
-0.27527687 -0.17534137 0.15355633 0.3098414 0.45984814 -0.20966008 0.27154472 -0.051298868
-0.037702892 -0.14795586 0.33552605 -0.27022877 0.1254639 0.12184234 0.03283195 -0.14788137
00000000: 17f1 8cbe b08c 33be df3d 1d3e 88a3 9e3e
00000010: 3771 eb3e 22b1 56be e907 8b3e c31e 52bd
00000020: 596e 1abd be81 17be 12ca ab3e 6d5b 8abe
00000030: 9c79 003e 7a88 f93d cb7a 063d 376e 17be

frontend.conv2.0.weight f4 [16, 16, 3, 3]
-0.13911644 -9.106578e-06 0.18264553 -0.091748126 0.01733447 0.07199472 0.03392214 0.052169614
0.0032756394 -0.19178173 0.013026666 0.27105558 -0.025548594 0.026524901 0.10592795 -0.0006272033
-0.036896598 0.006077681 0.108771905 -0.05113512 -0.016499182 0.057283964 0.030807512 -0.04137471
0.018881414 0.030648643 -0.0011346191 0.03831749 -0.028274374 -0.052151997 -0.026033064 -0.13886642
-0.14351507 0.08455891 -0.07010678 -0.15268676 -0.20259959 -0.022427948 0.22849469 -0.08693832
-0.08517372 0.058769308 0.018564217 -0.004507252 -0.032016866 0.055023335 -0.009594012 -0.11901893
0.009161321 0.03939853 0.03761214 0.094071224 -0.035526585 -0.051283557 -0.21851504 -0.0836001
0.014967962 -0.12564026 -0.050171543 0.033216003 0.018004928 0.049162734 -0.020867553 -0.11913588
-0.18119071 0.110130884 0.08532146 -0.031473164 -0.03921509 0.0022725775 -0.04829509 0.052616775
0.122071035 0.06904288 0.045408253 0.105262674 -0.01704406 -0.0996251 0.027382517 -0.039787915
0.042410318 0.09618409 0.08106954 -0.13185348 0.09184619 0.052241534 -0.049578648 0.055661287
0.015678193 -0.032427777 -0.03224972 -0.2460652 -0.17210566 -0.081889905 -0.17878689 -0.18938057
0.11113711 -0.12524493 -0.004268918 0.080590084 0.05962295 -0.10727553 0.08790287 -0.023194281
0.013032887 0.08339507 -0.0062441113 -0.008990546 0.05568063 -0.016051978 0.03472275 -0.03472518
0.09618562 0.06983933 0.08177472 5.0751238e-05 -0.05810771 0.047190066 0.028592303 -0.12700655
-0.010278674 -0.058926743 -0.036323607 -0.042871077 -0.043717068 -0.03937881 0.23240575 0.71903145
0.72860193 0.21697979 0.5072601 0.3929184 -0.11469904 0.09070687 0.076863274 -0.0071622813
-0.069468744 -0.048490085 -0.011494685 -0.0485722 -0.028436983 -0.008967683 -0.03772299 -0.052551594
-0.098010264 0.14277466 0.04435276 -0.013297947 0.020641278 0.054188892 0.099190146 0.07045097
-0.06511903 0.07052114 0.17961167 0.07125029 0.08481278 0.13910949 -0.024912154 0.04424244
-0.043576725 -0.06547715 0.09498786 0.011092014 -0.11539431 -0.04728145 -0.07606388 -0.10918025
-0.048047684 -0.034162596 0.032091636 -0.041608304 -0.121199876 -0.096095964 0.0052607534 -0.119670585
-0.06511636 0.029597288 -0.061953608 -0.028296305 -0.038382985 0.030247625 -0.014858362 -0.110805854
-0.04810696 -0.060614724 0.0705741 -0.04512019 -0.11170925 0.020398505 -0.06867759 -0.049720943
0.025695242 -0.03592406 -0.14606956 -0.03895065 -0.032911602 -0.06765358 -0.15950562 0.07523247
0.013870867 -0.13930365 -0.055494267 0.04367165 0.02296042 0.03212601 0.01652283 -0.14288911
-0.03245418 0.08341993 0.04601845 0.031993568 -0.06846343 0.040169638 -0.051721003 -0.06654019
-0.005761906 0.046411693 0.12223618 -0.09233293 0.035342645 -0.034710668 0.025715277 0.04681168
0.0030892298 0.17291139 -0.23227525 -0.38685492 0.090861104 -0.19865324 -0.2983051 0.16771257
0.0628008 -0.028570803 -0.1328481 -0.13892466 -0.010723203 -0.091369845 -0.029315287 -0.018045403
-0.073061116 0.012659227 0.0045272503 0.0011365301 -0.04931582 -0.088772506 -0.067070425 -0.054650966
-0.042856906 0.021454288 -0.053256456 -0.050228346 0.117234446 -0.00063588965 0.019467408 0.015843
00000000: 8a74 0ebe 74c8 18b7 6e07 3b3e 71e6 bbbd
00000010: 0501 8e3c f871 933d f1f1 0a3d ceaf 553d
00000020: 1cac 563b 6e62 44be cc6d 553c ccc7 8a3e
00000030: 494b d1bc c04a d93c c1f0 d83d e76a 24ba
00000040: e320 17bd 4927 c73b cec3 de3d 0f73 51bd
00000050: 4b29 87bc 97a2 6a3d 0960 fc3c 8778 29bd
00000060: 32ad 9a3c dd12 fb3c 80b7 94ba cdf2 1c3d
00000070: a99f e7bc 559d 55bd 4b43 d5bc 0033 0ebe
00000080: 9df5 12be 392d ad3d 2594 8fbd eb59 1cbe
00000090: 4476 4fbe d1ba b7bc 83fa 693e b80c b2bd
000000a0: 8f6f aebd 16b8 703d fc13 983c 92b1 93bb
000000b0: 1e24 03bd 2660 613d 3430 1dbc 32c0 f3bd
000000c0: 5e19 163c 5a60 213d 300f 1a3d 6aa8 c03d
000000d0: 5384 11bd b50e 52bd 68c2 5fbe 8736 abbd
000000e0: 2f3c 753c d7a7 00be ad80 4dbd 810d 083d
000000f0: 127f 933c dd5e 493d 6ef2 aabc 83fd f3bd
00000100: 0f8a 39be 4d8c e13d 05bd ae3d 01ea 00bd
00000110: 01a0 20bd 86ef 143b 13d1 45bd b084 573d
00000120: 6100 fa3d 5a66 8d3d 01fe 393d f593 d73d
00000130: fc9f 8bbc 3f08 ccbd 4d51 e03c a7f8 22bd
00000140: 71b6 2d3d 2afc c43d c907 a63d 9904 07be
00000150: db19 bc3d 38fb 553d fb12 4bbd 17fd 633d
00000160: 8e6f 803c fdd2 04bd 4818 04bd 84f8 7bbe
00000170: 773c 30be e5b5 a7bd e913 37be fbec 41be
00000180: da9b e33d 3540 00be 48e2 8bbb 6a0c a53d
00000190: 3237 743d 46b3 dbbd 6b06 b43d ef01 bebc
000001a0: e487 553c 09cb aa3d 679b ccbb 154d 13bc
000001b0: 5f11 643d 707f 83bc 7139 0e3d fe3b 0ebd
000001c0: f7fc c43d ec07 8f3d 8179 a73d badd 5438
000001d0: 5a02 6ebd 5f4a 413d 683a ea3c 010e 02be
000001e0: e267 28bc 2b5d 71bd 10c8 14bd 9599 2fbd
000001f0: ab10 33bd ad4b 21bd c6fb 6d3e 7212 383f
00000200: a885 3a3f f32f 5e3e ccdb 013f 9a2c c93e
00000210: 55e7 eabd 86c4 b93d 7e6a 9d3d 92b1 eabb
00000220: a145 8ebd 8a9d 46bd 3454 3cbc a5f3 46bd
00000230: adf4 e8bc 30ed 12bc 6c83 1abd 5740 57bd
00000240: 9bb9 c8bd 8533 123e 3dab 353d a2df 59bc
00000250: e617 a93c 2cf5 5d3d 3424 cb3d 9948 903d
00000260: 205d 85bd 636d 903d 1fec 373e aceb 913d
00000270: 53b2 ad3d b872 0e3e 9314 ccbc 9037 353d
00000280: 827d 32bd e218 86bd ff88 c23d 47bb 353c
00000290: da53 ecbd 32aa 41bd 61c7 9bbd e599 dfbd
000002a0: a6cd 44bd 14ee 0bbd 8572 033d 786d 2abd
000002b0: a437 f8bd f6cd c4bd 6662 ac3b da15 f5bd
000002c0: ba5b 85bd 0376 f23c 11c3 7dbd a7cd e7bc
000002d0: 7a37 1dbd dec9 f73c 7d70 73bc 2eee e2bd
000002e0: ce0b 45bd 2547 78bd 2789 903d f3cf 38bd
000002f0: d2c7 e4bd c41a a73c d6a6 8cbd 30a8 4bbd
00000300: d47e d23c 1b25 13bd 4293 15be b78a 1fbd
00000310: 51ce 06bd f68d 8abd 7155 23be 7b13 9a3d
00000320: a242 633c 9ea5 0ebe f54d 63bd 0be1 323d
00000330: 7e17 bc3c 9096 033d e35a 873c 8651 12be
00000340: adee 04bd 11d8 aa3d d87d 3c3d b00b 033d
00000350: 8e36 8cbd eb88 243d 67d9 53bd 3946 88bd
00000360: 5fce bcbb 301a 3e3d f656 fa3d 0c19 bdbd
00000370: 73c3 103d c62c 0ebd d8a8 d23c 9bbd 3f3d
00000380: ad74 4a3b af0f 313e 90d9 6dbe d911 c6be
00000390: 6315 ba3d c16b 4bbe 72bb 98be d8bc 2b3e
000003a0: b59d 803d 510d eabc 5509 08be 4442 0ebe
000003b0: 60b0 2fbc 1d20 bbbd 9d26 f0bc f4d3 93bc
000003c0: 11a1 95bd a568 4f3c 5459 943b 9ff7 943a
000003d0: 63ff 49bd 5cce b5bd 385c 89bd b1d9 5fbd
000003e0: b98a 2fbd e7c0 af3c 7123 5abd 3dbc 4dbd
000003f0: 9d18 f03d d5b1 26ba 1d7a 9f3c 2ec9 813c

frontend.conv2.0.bias f4 [16]
-0.07800957 -0.061613195 0.043125533 -0.03700471 0.028323386 -0.11408405 -0.027285323 -0.11319344
-0.059711218 0.06612364 -0.07847478 -0.08877026 0.049715783 -0.0040675085 -0.05007933 -0.10444054
00000000: 7bc3 9fbd 1e5e 7cbd 66a4 303d 4092 17bd
00000010: 7206 e83c e6a4 e9bd 7885 dfbc f6d1 e7bd
00000020: c093 74bd d56b 873d 63b7 a0bd 2fcd b5bd
00000030: c7a2 4b3d bc48 85bb fc1f 4dbd ece4 d5bd

tcn.layers.0.conv1.bias f4 [16]
-0.09010659 -0.1682431 -0.042029675 0.07592985 0.03731038 -0.0212535 0.12232836 -0.045000464
0.10460372 -0.0044400785 -0.15194644 0.057283398 0.005779382 0.038985573 -0.03727722 0.14948972
00000000: ce89 b8bd eb47 2cbe 4f27 2cbd 1c81 9b3d
00000010: c5d2 183d d21b aebc 4b87 fa3d 6852 38bd
00000020: 7a3a d63d 147e 91bb d997 1bbe ffa1 6a3d
00000030: f860 bd3b 56af 1f3d 00b0 18bd d513 193e

tcn.layers.0.conv1.weight_g f4 [16, 1, 1]
0.8100952 0.69932646 0.66967916 0.62559116 0.68708 0.56455654 0.962305 0.90948844
0.76089257 0.9137339 0.70354265 0.85059255 1.0445986 0.7975513 0.5492169 0.8209202
00000000: 6662 4f3f 0f07 333f 1870 2b3f be26 203f
00000010: 7ae4 2f3f c786 103f 9f59 763f 3cd4 683f
00000020: dbc9 423f 77ea 693f 5f1b 343f 6fc0 593f
00000030: 68b5 853f 522c 4c3f 7b99 0c3f d427 523f

tcn.layers.0.conv1.weight_v f4 [16, 16, 5]
-0.08697134 -0.03877383 -0.0050716344 -0.037733946 -0.07635285 -0.028274247 -0.010864471 0.03322437
0.055374026 -0.018201139 -0.122339174 -0.098511875 -0.1585014 -0.15082867 -0.21197143 -0.021920552
0.037956893 0.030336943 0.06672939 -0.0009152784 0.044232864 -0.02888214 -0.05038772 -0.024975969
-0.101983726 -0.016515575 -0.03653364 0.031514145 0.02225928 0.0017976972 -0.05498374 0.072031915
-0.024473894 0.023127787 0.06308991 -0.09034762 -0.0415503 0.013127197 0.04725134 -0.037031766
0.008509599 -0.066347465 -0.061390113 0.044308577 -0.022050982 0.0839452 -0.00396644 -0.046472177
0.039713193 0.032302342 0.021073528 -0.053085767 0.019757256 -0.036696497 0.10058115 0.073229626
0.049033552 0.045950808 -0.01745877 -0.12391583 0.23025548 0.2189713 0.1167799 0.17135948
0.05671162 -0.059452135 -0.10258927 -0.046015937 -0.098832905 0.023251776 0.09297764 -0.008887773
0.0666665 -0.06226135 0.0050377063 -0.10320925 -0.06275745 -0.02621563 -0.00790103 -0.047350444
-0.057912596 0.07244036 0.028886002 0.006429452 -0.11675457 -0.02386245 -0.03891206 0.037097502
0.06607718 0.05888813 -0.05206312 -0.04829453 -0.046186082 0.12594375 0.05636108 -0.08285321
0.0099647585 -0.04199962 0.0014174466 0.079589434 -0.04266151 -0.03152882 0.06919521 0.01951853
-0.015560398 0.08064799 0.08457425 0.06482876 0.09233285 0.004955832 -0.0043077096 0.0541316
0.116241485 0.018075429 0.061244655 -0.020405404 0.07161342 0.07230775 0.099883005 -0.0055332016
-0.111649625 -0.028016929 0.06733993 0.109758526 -0.012242074 0.11891973 0.048145805 0.011683224
-0.013639868 -0.0024423562 0.066302404 -0.0328253 0.039861728 -0.12267939 -0.06798018 -0.06724026
-0.022528807 -0.062377483 -0.029310731 -0.07080205 -0.1217233 -0.116391815 -0.13230136 0.025077276
0.006869661 0.008178063 -0.1189578 -0.05292159 -0.025670264 -0.096390456 0.122119315 0.066333346
0.110945545 0.095158 0.015972085 -0.13463111 0.008455681 0.01492644 0.06580173 0.06246911
-0.08702418 -0.02678654 0.13026613 0.11629402 -0.04987284 0.061004702 -0.07057797 -0.05864936
0.09417476 0.04335482 -0.05409093 -0.15910211 -0.0774665 0.0025257461 0.013378614 -0.08089974
0.032563396 -0.04504837 0.036306523 0.00446513 -0.047426995 -0.0657852 -0.054728072 0.032282572
0.051752016 -0.09038467 -0.06510867 0.066488735 0.023519907 -0.036871437 -0.02565784 0.066370636
-0.07227054 -0.06335186 -0.08377737 -0.014676815 -0.016373 -0.037047863 0.11275867 -0.04847032
0.07573209 -0.044872813 0.036284152 0.051351354 -0.03403025 -0.011312523 -0.104103595 -0.09650257
-0.15408306 -0.085222885 0.055518642 0.08265343 0.016264906 -0.053584896 0.09521832 0.027411498
0.04938944 -0.0700911 -0.10036317 -0.091199584 0.15848665 0.026751861 -0.05348339 -0.04766471
-0.056129605 -0.0005866933 0.021199953 -0.065478675 -0.008408391 -0.072051324 -0.011613488 -0.072324246
-0.00110816 0.07460957 0.067212075 0.0250955 0.039208 0.12075115 0.110248186 0.06767182
0.014921849 0.13639183 0.06277713 -0.13509907 -0.08426031 0.012538981 0.11326858 0.007971061
0.05781177 -0.081047915 0.07090768 0.107416816 -0.004154784 0.063818626 -0.041526325 -0.05722379
00000000: 081e b2bd 4fd1 1ebd f42f a6bb e98e 1abd
00000010: e25e 9cbd 659f e7bc e500 32bc 4716 083d
00000020: e0cf 623d 8e1a 95bc f68c fabd 98c0 c9bd
00000030: 314e 22be d572 1abe 0a0f 59be bb92 b3bc
00000040: b078 1b3d 2e85 f83c 6ba9 883d 4bef 6fba
00000050: 852d 353d 3d9a ecbc 5b63 4ebd 679a ccbc
00000060: d8dc d0bd ac4b 87bc 4ca4 15bd fa14 013d
00000070: 1859 b63c b5a0 eb3a a136 61bd 7885 933d
00000080: 7a7d c8bc 7c76 bd3c 4835 813d 2c08 b9bd
00000090: a630 2abd 7413 573c 9f8a 413d 9fae 17bd
000000a0: d86b 0b3c 2ee1 87bd 3374 7bbd e97c 353d
000000b0: 43a4 b4bc 76eb ab3d e9f8 81bb 9c59 3ebd
000000c0: 4daa 223d 764f 043d 64a2 ac3c 7670 59bd
000000d0: f8d9 a13c 114f 16bd 7dfd cd3d 6af9 953d
000000e0: 68d7 483d ea36 3c3d b205 8fbc 95c7 fdbd
000000f0: 18c8 6b3e 033a 603e 4d2a ef3d dc78 2f3e
00000100: 724a 683d 1584 73bd 531a d2bd 357b 3cbd
00000110: e868 cabd 827a be3c 106b be3d 069e 11bc
00000120: 7288 883d c205 7fbd 5813 a53b 5f5f d3bd
00000130: fa86 80bd 29c2 d6bc 5273 01bc 8af2 41bd
00000140: c235 6dbd 9d5b 943d 56a2 ec3c 27ae d23b
00000150: 051d efbd 2f7b c3bc 4162 1fbd 8df3 173d
00000160: 7953 873d ae34 713d 2340 55bd 7cd0 45bd
00000170: 9e2d 3dbd 66f7 003e e0da 663d f2ae a9bd
00000180: 3a43 233c cb07 2cbd 9ec9 b93a c9ff a23d
00000190: d6bd 2ebd 5d24 01bd 38b6 8d3d 53e5 9f3c
000001a0: 0af1 7ebc c62a a53d 4435 ad3d f1c4 843d
000001b0: 0119 bd3d 8864 a23b b027 8dbb 19b9 5d3d
000001c0: 0410 ee3d ec12 943c addb 7a3d 3c29 a7bc
000001d0: 0faa 923d 1616 943d 768f cc3d dc4f b5bb
000001e0: 8fa8 e4bd c283 e5bc 84e9 893d 14c9 e03d
000001f0: fb92 48bc 308c f33d 8934 453d fe6a 3f3c
00000200: c179 5fbc f00f 20bb 8ec9 873d d273 06bd
00000210: 0d46 233d 553f fbbd 3139 8bbd 43b5 89bd
00000220: 558e b8bc 887f 7fbd 0f1d f0bc aa00 91bd
00000230: 114a f9bd d55e eebd 027a 07be dc6e cd3c
00000240: e51a e13b 48fd 053c 26a0 f3bd 4fc4 58bd
00000250: 724a d2bc 5c68 c5bd b119 fa3d c7d9 873d
00000260: 6b37 e33d 33e2 c23d e4d7 823c bddc 09be
00000270: b289 0a3c 078e 743c 0fc3 863d 9cdf 7f3d
00000280: bc39 b2bd 726f dbbc 7c64 053e 8f2b ee3d
00000290: 7747 4cbd 11e0 793d 2f8b 90bd 503a 70bd
000002a0: b2de c03d d394 313d 738e 5dbd aaeb 22be
000002b0: c2a6 9ebd fd86 253b f931 5b3c c3ae a5bd
000002c0: 3261 053d a484 38bd 26b6 143d 3a50 923b
000002d0: cf42 42bd 64ba 86bd 8b2a 60bd bb3a 043d
000002e0: ecf9 533d 991b b9bd b257 85bd 3f2b 883d
000002f0: d2ac c03c 8106 17bd 6430 d2bc 54ed 873d
00000300: 9402 94bd 9fbe 81bd 7893 abbd 0677 70bc
00000310: ab20 86bc 80bf 17bd 04ee e63d d088 46bd
00000320: 6d19 9b3d 8ecc 37bd b19e 143d cc55 523d
00000330: 4e63 0bbd 2958 39bc 4434 d5bd 24a3 c5bd
00000340: f3c7 1dbe 5689 aebd 8467 633d 3446 a93d
00000350: fb3d 853c d67b 5bbd d301 c33d 148e e03c
00000360: 954c 4a3d ec8b 8fbd 358b cdbd d9c6 babd
00000370: 534a 223e b826 db3c 6611 5bbd 123c 43bd
00000380: 28e8 65bd 52cc 19ba 86ab ad3c af19 86bd
00000390: 59c3 09bc a58f 93bd 8046 3ebc bc1e 94bd
000003a0: ae3f 91ba e7cc 983d 7ca6 893d 1495 cd3c
000003b0: 9198 203d 614c f73d cdc9 e13d 8697 8a3d
000003c0: c57a 743c 4daa 0b3e 4c91 803d 6957 0abe
000003d0: ab90 acbd 4c70 4d3c 5bf9 e73d 0e99 023c
000003e0: 09cc 6c3d 73fc a5bd 0c38 913d 59fd db3d
000003f0: db24 88bb 57b3 823d 8217 2abd 7e63 6abd

tcn.layers.0.conv2.bias f4 [16]
-0.07392859 -0.036370467 -0.101578884 -0.045511045 -0.088896394 0.072688185 -0.017538236 0.123497695
-0.0010915741 0.07005094 0.07994188 -0.07469235 0.12770116 0.058949172 -0.03159313 -0.07409576
00000000: df67 97bd 33f9 14bd 9708 d0bd ca69 3abd
00000010: 500f b6bd 8bdd 943d 59ac 8fbc 5cec fc3d
00000020: 2613 8fba de76 8f3d 92b8 a33d 4ef8 98bd
00000030: 18c4 023e b074 713d cc67 01bd 85bf 97bd

tcn.layers.0.conv2.weight_g f4 [16, 1, 1]
0.9951065 0.6233752 0.8447352 0.60570216 0.8146933 0.68880457 0.7665729 0.68476754
0.77380234 0.6195314 0.59583193 0.9305548 0.66064656 0.64606273 0.7682102 0.7633632
00000000: 4dbf 7e3f 8495 1f3f 9140 583f 4c0f 1b3f
00000010: bd8f 503f 7f55 303f 1f3e 443f ed4c 2f3f
00000020: e917 463f 9c99 1e3f 7188 183f d738 6e3f
00000030: 2220 293f 5e64 253f 6ca9 443f c56b 433f

tcn.layers.0.conv2.weight_v f4 [16, 16, 5]
0.11134835 0.0322783 0.010584698 -0.06283572 -0.076459564 0.060214907 0.09555275 0.031480715
0.017997395 0.030058775 0.042643677 0.05168118 0.03923353 0.039013024 0.0851282 -0.09935412
-0.08062658 -0.033060614 -0.048459895 0.019466594 0.0082116155 -0.021207567 0.011452133 0.05175238
0.040250342 -0.0104882745 -0.011177341 -0.057336994 -0.03458192 -0.062860735 0.09961688 0.04255832
0.045852534 0.03700319 -0.04833464 0.026920106 -0.14599591 -0.13341437 -0.16955236 -0.08262943
-0.11078631 -0.08884159 -0.05316337 0.073791966 0.080995366 -0.10142056 -0.19577935 -0.15185463
-0.10727091 0.017037265 0.012603379 0.06550452 0.088057004 0.076700255 0.08320076 0.016397111
0.10770666 0.047017876 0.10216854 0.038810387 0.0074116574 -0.009866169 -0.08557354 -0.17867386
-0.14903697 -0.11669017 -0.057177294 0.018445574 0.04070948 0.11269711 -0.08280184 -0.0047133006
0.029995058 0.071788006 0.11151854 0.09188937 0.03652743 -0.0029776625 -0.054606527 -0.10635058
0.0698115 0.014749483 0.05154646 0.09910757 0.048483394 0.08391571 0.06122958 0.08179474
0.013022186 0.0229492 -0.044676818 -0.010670696 -0.0892725 -0.005701334 -0.12702508 -0.0868899
-0.088813536 0.06982313 -0.051153433 -0.010547902 -0.009558571 0.072158225 -0.0014176236 -0.023076499
0.072931066 -0.072292924 0.026341436 0.106570646 0.088813275 0.0031937154 -0.012244449 -0.01245271
0.06413048 -0.16887969 -0.14410062 -0.037265148 0.015294388 0.0694626 0.052905332 0.01821916
-0.08802287 -0.05551372 -0.05176921 -0.017454162 0.033014443 -0.039760645 0.016346196 -0.019111885
0.011595664 0.0035079396 0.019291151 0.01137865 0.0636932 0.10899024 0.12945828 0.016410181
0.05761971 -0.048155196 0.12201993 -0.09747065 0.07010068 -0.067867644 -0.04350707 0.0073672514
-0.05596802 -0.016423976 0.12473514 0.06114438 0.11256607 -0.0066285348 -0.049370103 -0.033283345
-0.0067475517 -0.06305102 -0.00801667 0.10355625 -0.061082494 0.049510323 -0.013285351 0.01214146
-0.01870113 -0.05852451 -0.03506776 -0.040225044 -0.005599745 0.060364906 0.078373656 -0.00916885
-0.09141833 -0.07493467 0.034549326 0.066578425 -0.044475947 -0.07149267 -0.016084606 -0.058273
-0.018000335 0.046317663 0.07183694 -0.022058703 -0.064315654 0.0006438718 0.029319512 0.0011294045
-0.0640567 0.021324906 0.02436202 0.035129182 0.017828912 0.101976626 0.108647905 0.0047955317
-0.13837898 -0.11226427 -0.047811784 -0.066920355 -0.08118433 -0.030020455 -0.0041855476 0.05176878
-0.033167318 0.061277132 0.11055357 0.11300174 -0.039340425 -0.16698617 -0.101740085 0.009097779
0.12314677 0.04667919 0.06808097 0.06544985 0.059452686 -0.040300332 -0.047468133 0.16875671
0.19123924 -0.030621873 -0.10767804 -0.03756043 -0.100553274 -0.13072251 -0.08147763 -0.06140766
0.06191871 0.010207019 0.082070746 0.1779648 0.01249356 -0.090057254 -0.01700516 -0.034440957
0.02724869 -0.06832871 -0.013951009 0.06572199 -0.068860926 -0.14729339 -0.050590094 0.022533065
0.14201148 -0.0003604315 0.06450523 0.04516851 0.060988735 0.03254204 -0.10385503 -0.012266942
-0.06449536 0.00993828 0.012048877 0.017833158 -0.025598777 0.06026992 -0.08401579 0.0056062215
00000000: 9b0a e43d 4036 043d 716b 2d3c 04b0 80bd
00000010: d596 9cbd e8a3 763d 29b1 c33d ecf1 003d
00000020: 466f 933c d23d f63c 23ab 2e3d a5af 533d
00000030: 57b3 203d 1fcc 1f3d b257 ae3d 2c7a cbbd
00000040: 8c1f a5bd 916a 07bd e27d 46bd 6878 9f3c
00000050: 038a 063c 7ebb adbc baa1 3b3c 4efa 533d
00000060: 8bdd 243d 03d7 2bbc 2b21 37bc 32da 6abd
00000070: c5a5 0dbd 21bd 80bd ef03 cc3d a251 2e3d
00000080: decf 3b3d a890 173d 8bfa 45bd 8e87 dc3c
00000090: f47f 15be c79d 08be 229f 2dbe 9e39 a9bd
000000a0: efe3 e2bd 94f2 b5bd d5c1 59bd 3e20 973d
000000b0: e6e0 a53d 95b5 cfbd 627a 48be c87f 1bbe
000000c0: dab0 dbbd bc91 8b3c 677e 4e3c 3c27 863d
000000d0: 3b57 b43d 0615 9d3d 2965 aa3d 3c53 863c
000000e0: 4f95 dc3d d195 403d bd3d d13d a4f7 1e3d
000000f0: 7ddd f23b b6a5 21bc 2e41 afbd 48f6 36be
00000100: 269d 18be 41fb eebd bd32 6abd 2c1b 973c
00000110: fcbe 263d becd e63d 0394 a9bd 0872 9abb
00000120: 32b8 f53c 9705 933d d563 e43d 7e30 bc3d
00000130: c99d 153d e324 43bb 18ab 5fbd 55ce d9bd
00000140: 55f9 8e3d d1a7 713c 6122 533d e9f8 ca3d
00000150: 8696 463d 00dc ab3d decb 7a3d 0084 a73d
00000160: 025b 553c f6ff bb3c 0aff 36bd 25d4 2ebc
00000170: 80d4 b6bd 42d2 babb dd12 02be 55f3 b1bd
00000180: dfe3 b5bd 6eff 8e3d 4386 51bd 1cd1 2cbc
00000190: 8d9b 1cbc b1c7 933d 8ecf b9ba ed0a bdbc
000001a0: e25c 953d 500e 94bd ffc9 d73c b641 da3d
000001b0: bce3 b53d a74d 513b f19c 48bc 7406 4cbc
000001c0: d756 833d ccee 2cbe 1d8f 13be 57a3 18bd
000001d0: 5095 7a3c 6842 8e3d 43b3 583d 5940 953c
000001e0: 5645 b4bd 5b62 63bd f30b 54bd 08fc 8ebc
000001f0: 273a 073d 0fdc 22bd 75e8 853c 8790 9cbc
00000200: bdfb 3d3c 76e5 653b 7a08 9e3c 846d 3a3c
00000210: 9571 823d 4636 df3d b690 043e a56e 863c
00000220: a502 6c3d 623e 45bd 96e5 f93d b19e c7bd
00000230: f290 8f3d 31fe 8abd 7834 32bd fc68 f13b
00000240: b93e 65bd 938b 86bc 2375 ff3d 8872 7a3d
00000250: 0a89 e63d 2e34 d9bb 4e38 4abd 1e54 08bd
00000260: 911a ddbb e520 81bd 5a58 03bc 4d15 d43d
00000270: a331 7abd 56cb 4a3d cdaa 59bc f9ec 463c
00000280: 1d33 99bc 66b7 6fbd 36a3 0fbd 04c3 24bd
00000290: 117e b7bb 3141 773d 5e82 a03d f238 16bc
000002a0: 8939 bbbd 5977 99bd 9883 0d3d 455a 883d
000002b0: 692c 36bd c06a 92bd ddc3 83bc abaf 6ebd
000002c0: 7075 93bc 97b7 3d3d 3f1f 933d 74b4 b4bc
000002d0: edb7 83bd 81c9 283a 792f f03c 8708 943a
000002e0: 2930 83bd 92b1 ae3c dc92 c73c 9ee3 0f3d
000002f0: f00d 923c 1fd9 d03d cb82 de3d d623 9d3b
00000300: 38b3 0dbe cfea e5bd 4ad6 43bd 8a0d 89bd
00000310: f843 a6bd 75ed f5bc eb26 89bb 800b 543d
00000320: 74da 07bd bbfd 7a3d e969 e23d 756d e73d
00000330: 6d23 21bd 6cfe 2abe 1b5d d0bd da0e 153c
00000340: 6034 fc3d ae32 3f3d 096e 8b3d 920a 863d
00000350: a984 733d f611 25bd f26d 42bd 8fce 2c3e
00000360: 38d4 433e b9da fabc 4e86 dcbd f7d8 19bd
00000370: e0ee cdbd 1fdc 05be bedd a6bd 9986 7bbd
00000380: 799e 7d3d 573b 273c b514 a83d 683c 363e
00000390: cab1 4c3c f06f b8bd 684e 8bbc f611 0dbd
000003a0: a538 df3c ecef 8bbd c692 64bc 4099 863d
000003b0: f506 8dbd 14d4 16be 8f37 4fbd 4397 b83c
000003c0: 756b 113e 4cf8 bcb9 511b 843d 9e02 393d
000003d0: 53cf 793d cd4a 053d f2b1 d4bd 49fb 48bc
000003e0: 2516 84bd 2bd4 223c a768 453c d816 923c
000003f0: 87b4 d1bc 97dd 763d 7810 acbd 65b4 b73b

tcn.layers.1.conv1.bias f4 [16]
-0.12397064 -0.091512494 0.10672516 -0.03141096 -0.08772671 -0.0160821 -0.037119377 -0.09172517
-0.10397788 -0.06412619 -0.17160648 -0.1559047 0.035022903 0.091729455 0.065426625 -0.036809016
00000000: 52e4 fdbd e76a bbbd b892 da3d c7a8 00bd
00000010: 10aa b3bd 9cbe 83bc 7d0a 18bd 68da bbbd
00000020: 5bf2 d4bd 9854 83bd 9cb9 2fbe 7ba5 1fbe
00000030: 2d74 0f3d a7dc bb3d 65fe 853d 0dc5 16bd

tcn.layers.1.conv1.weight_g f4 [16, 1, 1]
0.5905105 0.7846791 0.6932933 0.6113331 0.8008972 0.59635454 0.5920068 0.9842116
0.9363883 0.6807168 0.700099 0.7270746 0.81482196 0.78432465 0.8266975 0.90433115
00000000: b22b 173f bbe0 483f ab7b 313f 5380 1c3f
00000010: 9907 4d3f b1aa 183f c28d 173f 4bf5 7b3f
00000020: 25b7 6f3f 7543 2e3f b039 333f 9021 3a3f
00000030: 2c98 503f 80c9 483f 73a2 533f 3f82 673f

tcn.layers.1.conv1.weight_v f4 [16, 16, 5]
-0.005655084 0.048390977 0.03126425 0.005366321 0.07094851 0.09355253 0.092294015 -0.0029564283
0.048106957 -0.060230266 -0.11540957 0.02927594 -0.08510826 0.01824692 -0.10805177 0.040667057
0.02902837 -0.07586123 0.066040546 -0.08372483 0.037339527 0.059356175 -0.066525295 0.13790824
-0.07141655 -0.03127932 0.13725652 0.011599299 -0.0036724387 0.043950383 -0.0036368067 0.09155137
0.10674838 0.04367477 0.028949594 0.004817092 -0.00033825447 -0.00065017 0.0020057003 0.060626954
0.03977244 -0.02227651 0.028518142 0.003128257 0.027672837 0.10207862 -0.03796294 0.040109232
-0.02653277 -0.052797224 -0.096148156 -0.01966487 0.08198427 -0.080554165 0.031893622 0.07887922
-0.082614474 0.06893295 0.019237334 -0.07491158 -0.025829393 -0.13209796 0.053609665 0.04884683
0.09297909 0.08562646 0.066985674 0.103892736 0.029179106 -0.07467279 0.11563488 0.06776296
0.025311377 -0.021819059 0.09913602 -0.0005822035 0.05790665 -0.019134404 0.09181829 -0.08066703
0.024312805 0.057578493 -0.02780161 0.025292939 -0.046816777 0.014880944 0.07029153 0.052095283
0.031012151 -0.050185177 -0.11916108 -0.10425326 0.08526141 0.07046619 -0.05941243 -0.0637337
0.10193601 -0.026009532 0.090805516 0.09457173 -0.07337534 -0.094129086 0.059772026 0.037048925
0.061754838 0.05519316 0.04475474 -0.105348095 -0.026029477 -0.022013512 0.06916365 -0.040731434
-0.05959842 -0.105712555 -0.10271443 0.040428203 0.023825172 0.032696277 -0.026654616 -0.03740829
-0.028003521 0.0641306 -0.057236403 -0.003935324 0.0008064234 0.041287843 -0.05719508 0.038537264
-0.028691389 0.060013063 0.06612374 -0.010732761 -0.0020337692 -0.116248794 -0.05811178 -0.06623356
-0.1632942 -0.038029548 0.10290483 0.040189657 -0.032835737 -0.18172209 0.0028300693 0.14906664
0.1186639 -0.05912626 -0.12713565 -0.06188887 0.07589067 0.01127955 0.10679149 -0.066321254
-0.09671173 0.001097716 0.027559752 -0.12411276 0.06746123 -0.0213573 -0.055953324 0.048594642
-0.06384088 -0.06690155 -0.031952083 0.08784053 0.13357578 0.050724626 -0.05577087 -0.011114929
0.108657815 -0.038684715 0.014145446 -0.055982593 -0.1650668 -0.051403 0.0804185 0.00018641735
-0.007160329 0.04644786 0.08534093 0.09917508 0.09388682 -0.013252045 -0.022086969 0.07498634
0.0047715064 0.009252531 -0.032828733 -0.058592275 0.09620976 -0.032357987 -0.06148253 -0.079143986
-0.066638805 0.014870259 0.045341752 -0.05662133 0.017103147 -0.052043505 0.06448047 0.10075858
-0.02653824 -0.041761324 0.06926337 0.0025932365 0.051052406 -0.047920957 0.07260072 0.03500771
-0.042623542 0.062171403 0.097665206 0.053282592 -0.058098495 -0.026914433 0.08066607 0.098448336
0.03021326 0.10750439 0.0071874126 0.15118675 0.1111833 0.046553284 -0.02600051 0.14765663
0.22969857 0.087217614 -0.052542068 -0.019286202 -0.013807075 0.00083182525 -9.5665644e-05 -0.012235301
0.057991195 0.03871677 -0.024551861 0.051647898 -0.09786685 -0.080240004 0.014875388 0.01687979
0.0025287285 -0.078162596 -0.072910994 -0.12526724 -0.088507526 -0.08708457 -0.034633283 0.01947233
0.087493934 -0.07293134 -0.0014836553 0.14787298 -0.11204217 -0.0031390444 -0.013088418 -0.071642764
00000000: 484e b9bb 9e35 463d f10e 003d f7d7 af3b
00000010: 744d 913d 7898 bf3d a504 bd3d a3c0 41bb
00000020: cd0b 453d 03b4 76bd da5b ecbd 19d4 ef3c
00000030: 3d4d aebd 917a 953c 3f4a ddbd 8092 263d
00000040: e7cc ed3c 225d 9bbd 4440 873d ec77 abbd
00000050: 55f1 183d 761f 733d 6a3e 88bd d137 0d3e
00000060: d742 92bd bf1e 00bd f98c 0c3e fc0a 3e3c
00000070: 4cad 70bb 5105 343d 7e57 6ebb 497f bb3d
00000080: e59e da3d 51e4 323d b327 ed3c b2d8 9d3b
00000090: bf57 b1b9 2c70 2aba 1172 033b f853 783d
000000a0: 6de8 223d 3a7d b6bc e19e e93c 7203 4d3b
000000b0: 25b2 e23c 980e d13d 077f 1bbd 9449 243d
000000c0: 405b d9bc e741 58bd 53e9 c4bd 3918 a1bc
000000d0: 5ee7 a73d 95f9 a4bd e3a2 023d 6e8b a13d
000000e0: c731 a9bd b82c 8d3d 9d97 9d3c 3e6b 99bd
000000f0: 2a98 d3bc b044 07be cf95 5b3d 9d13 483d
00000100: d26b be3d ed5c af3d c92f 893d b7c5 d43d
00000110: 0509 ef3c 0cee 98bd fbd1 ec3d 4fc7 8a3d
00000120: ce59 cf3c e2bd b2bc d307 cb3d 049f 18ba
00000130: 862f 6d3d c1bf 9cbc 3a0b bc3d c134 a5bd
00000140: a62b c73c 6dd7 6b3d 34c0 e3bc 2333 cf3c
00000150: f3c2 3fbd 34cf 733c 01f5 8f3d dd61 553d
00000160: 320d fe3c f98e 4dbd b90a f4bd bc82 d5bd
00000170: 899d ae3d 9450 903d 735a 73bd d086 82bd
00000180: d4c3 d03d f111 d5bc 3ef8 b93d d3ae c13d
00000190: cf45 96bd c0c6 c0bd 83d3 743d 9dc0 173d
000001a0: a4f2 7c3d 3912 623d bf50 373d bec0 d7bd
000001b0: c53b d5bc ae55 b4bc aca5 8d3d 01d6 26bd
000001c0: 791d 74bd d37f d8bd f15b d2bd 0b98 253d
000001d0: 022d c33c 88ec 053d c85a dabc 6f39 19bd
000001e0: a467 e5bc e756 833d b870 6abd e4f3 80bb
000001f0: 2966 533a 711d 293d 6345 6abd 40d9 1d3d
00000200: 340a ebbc 42d0 753d e26b 873d 76d8 2fbc
00000210: fc48 05bb d913 eebd 9e06 6ebd 76a5 87bd
00000220: 9836 27be dfc4 1bbd c4bf d23d e99d 243d
00000230: c47e 06bd 5b15 3abe af78 393b eda4 183e
00000240: 0f06 f33d 612e 72bd d92f 02be 2f7f 7dbd
00000250: 916c 9b3d ddcd 383c 7fb5 da3d 70d3 87bd
00000260: cd10 c6bd 3de1 8f3a fdc4 e13c d52e febd
00000270: 1d29 8a3d 81f5 aebc 502f 65bd 2d0b 473d
00000280: 02bf 82bd ae03 89bd 30e0 02bd bce5 b33d
00000290: 17c8 083e a0c4 4f3d ff6f 64bd 641b 36bc
000002a0: fd87 de3d dd73 1ebd 4dc2 673c 014e 65bd
000002b0: 4507 29be f48b 52bd 74b2 a43d 0779 4339
000002c0: 31a1 eabb 1c40 3e3d 3ac7 ae3d 4e1c cb3d
000002d0: bc47 c03d 1b1f 59bc bbef b4bc 7092 993d
000002e0: 4c5a 9c3b ee97 173c 6c77 06bd 74fe 6fbd
000002f0: 9f09 c53d cf89 04bd 1bd5 7bbd 3e16 a2bd
00000300: ed79 88bd 63a2 733c 46b8 393d c5eb 67bd
00000310: e61b 8c3c 922b 55bd 560e 843d 845a ce3d
00000320: b966 d9bc ec0d 2bbd f4d9 8d3d 4af3 293b
00000330: 541c 513d c448 44bd b0af 943d 3f64 0f3d
00000340: 0696 2ebd 71a7 7e3d b204 c83d d93e 5a3d
00000350: b0f8 6dbd a87b dcbc 4134 a53d 489f c93d
00000360: cc81 f73c 432b dc3d 6384 eb3b b3d0 1a3e
00000370: 12b4 e33d a8ae 3e3d 06ff d4bc 4d33 173e
00000380: 1a36 6b3e 269f b23d 5a36 57bd 19fe 9dbc
00000390: 1237 62bc d90e 5a3a 1aa0 c8b8 9276 48bc
000003a0: 2d88 6d3d 7a95 1e3d fc20 c9bc bf8c 533d
000003b0: 6a6e c8bd df54 a4bd e6b7 733c 7c47 8a3c
000003c0: 06b9 253b b613 a0bd 5c52 95bd 0e46 00be
000003d0: 6f43 b5bd 6559 b2bd a1db 0dbd 7084 9f3c
000003e0: 0530 b33d 075d 95bd 3677 c2ba 046c 173e
000003f0: 5d76 e5bd 6db8 4dbb ce70 56bc 71b9 92bd

tcn.layers.1.conv2.bias f4 [16]
0.0027049351 0.057611704 -0.0032883566 0.009945808 -0.052524034 0.096769966 0.045651637 0.059040077
-0.059598643 0.09309367 0.069669425 0.026397137 0.060484026 0.07953598 0.06643684 -0.000708503
00000000: 4845 313b 40fa 6b3d 7881 57bb bef3 223c
00000010: 7123 57bd 552f c63d 36fd 3a3d 02d4 713d
00000020: b51d 74bd e5a7 be3d d8ae 8e3d cf3e d83c
00000030: 19be 773d c3e3 a23d 0a10 883d d5ba 39ba

tcn.layers.1.conv2.weight_g f4 [16, 1, 1]
0.63579756 0.5654426 0.63320583 0.71272296 0.7685728 0.6740353 0.6729492 0.5615572
0.6421127 0.89730984 0.6218914 0.7109381 0.63266647 0.60153985 0.8204984 0.8100981
00000000: a1c3 223f d9c0 103f c719 223f 0375 363f
00000010: 30c1 443f 948d 2c3f 6646 2c3f 36c2 0f3f
00000020: 7f61 243f 19b6 653f 4634 1f3f 0a00 363f
00000030: 6ef6 213f 84fe 193f 2f0c 523f 9762 4f3f

tcn.layers.1.conv2.weight_v f4 [16, 16, 5]
0.11340662 0.094629996 -0.021572838 -0.06599294 -0.049100127 -0.09688511 -0.00512942 0.031808633
0.012998117 0.08639902 -0.05654521 0.030615253 0.097236425 0.017038865 0.04951854 -0.0332248
0.007963147 -0.097371034 0.0033347982 0.05625738 0.09047498 0.06420118 0.029827699 0.012451051
0.036108386 0.049353756 0.0037844214 0.01574976 -0.048600532 -0.0061110267 0.0549537 0.06367163
0.05581678 -0.053642135 0.089008726 -0.010051637 0.036403906 0.06461306 0.10971369 -0.021026257
-0.06907137 -0.032107968 -0.018334584 0.07231826 0.051906057 -0.10349745 -0.021379149 -0.04569286
-0.044714767 -0.027764358 -0.07300482 0.052391596 -0.060904037 -0.052525595 -0.005644119 0.056056395
0.16528119 0.09929793 0.04776347 0.022880064 0.0921672 -0.056085836 -0.080214985 0.0014727793
-0.05102424 -0.10687996 -0.0782098 -0.015543938 -0.00821523 -0.1479595 0.14021571 -0.008213272
0.15056866 0.08882766 -0.11569115 -0.02223463 -0.023552874 -0.013932828 0.118447065 0.02103089
0.0062405095 -0.0025615525 -0.06087137 0.060789637 0.0747925 -0.11392342 0.010259675 -0.05770986
0.07280419 -0.079541676 0.050990913 -0.03876382 0.07413497 -0.06431505 0.004412557 0.00082944165
0.026370145 0.022673484 0.0410921 -0.019788297 -0.042909108 0.0556643 0.14159292 0.107275404
-0.0194009 0.0038957265 -0.0069961175 -0.015413682 0.04882662 -0.04329955 0.010532333 -0.075936966
-0.02228953 0.11581422 0.06382089 -0.06501745 -0.04004012 -0.010205436 -0.14170437 -0.10947831
0.048964955 0.12954266 0.12146718 -0.03219477 -0.10400778 0.107162915 0.025259396 0.090199
0.1164247 -0.028503882 0.032309204 0.024793511 -0.02305594 0.0857779 0.022111807 -0.01405013
-0.05438944 0.113533415 -0.05748742 0.11008149 -0.08566093 -0.052932236 -0.03692091 0.052959953
-0.099953145 -0.027844371 0.07372628 -0.17751038 -0.08652587 0.0088037485 -0.036790296 0.084829435
-0.021642959 0.06835901 0.11173922 -0.0205588 -0.027048342 0.019469291 0.027434552 -0.09735463
0.10403602 -0.034026645 0.07541335 -0.024265159 -0.003086525 0.05331964 0.09516441 0.01424994
0.10385035 0.041132867 -0.10031501 0.05183694 0.014865021 -0.009432942 -0.038152058 -0.101837076
-0.099581905 -0.019798677 -0.101695016 0.0006000061 -0.02938182 -0.040714957 -0.025479818 0.04716183
0.0928546 -0.09302586 -0.09338235 0.078614935 -0.037050128 -0.089811765 0.032647844 -0.09352041
0.004091105 0.042800047 0.07954059 -0.044401187 -0.011044206 -0.055104412 -0.047315203 -0.0086449785
0.042506162 0.09443464 0.047562327 0.06338981 -0.07030743 0.10305495 0.07860452 0.07719852
0.12552463 0.07723223 -0.068636864 -0.059887998 -0.017114958 0.061897255 0.042153183 0.04481044
0.039750174 0.021845285 0.022789726 -0.054560505 -0.040057905 -0.13794743 -0.118412234 0.021038998
0.022791222 -0.06116555 -0.0025257603 -0.23173867 0.0039392104 -0.009521731 0.08952093 0.025119333
0.055427406 -0.12325376 -0.06827284 0.024562696 0.04160965 0.07315716 -0.0904004 -0.15471789
0.014898961 0.079842426 0.08803283 0.04739257 -0.02481265 -0.011866309 0.018598353 0.045220986
0.032257155 0.01588385 0.03715051 0.045858428 -0.115203045 0.010655493 -0.11587558 0.023269914
00000000: bb41 e83d 5fcd c13d 85b9 b0bc 4e27 87bd
00000010: 371d 49bd b36b c6bd b214 a8bb c549 023d
00000020: 0ef6 543c f8f1 b03d f39b 67bd d7cc fa3c
00000030: e423 c73d 1795 8b3c f4d3 4a3d ba16 08bd
00000040: dc77 023c 776a c7bd a18c 5a3b 236e 663d
00000050: f24a b93d e97b 833d 3859 f43c 7eff 4b3c
00000060: 63e6 133d 2a27 4a3d 0e04 783b a405 813c
00000070: 5a11 47bd 023f c8bb 2217 613d 4666 823d
00000080: 23a0 643d dbb7 5bbd 354a b63d 9faf 24bc
00000090: 431c 153d da53 843d 92b1 e03d 423f acbc
000000a0: 4a75 8dbd a583 03bd 6932 96bc 991b 943d
000000b0: 729b 543d 79f6 d3bd 5323 afbc 7028 3bbd
000000c0: d526 37bd 1472 e3bc 8d83 95bd 9298 563d
000000d0: 8376 79bd 1425 57bd 4df2 b8bb 649b 653d
000000e0: 793f 293e b75c cb3d a1a3 433d f96e bb3c
000000f0: 28c2 bc3d 43ba 65bd c147 a4bd 460a c13a
00000100: cbfe 50bd e1e3 dabd 762c a0bd 00ac 7ebc
00000110: 2c99 06bc b282 17be b594 0f3e f690 06bc
00000120: ac2e 1a3e 47eb b53d 7bef ecbd 6625 b6bc
00000130: f5f1 c0bc 8446 64bc 6094 f23d f948 ac3c
00000140: 307d cc3b b8df 27bb 4254 79bd 8efe 783d
00000150: cf2c 993d af50 e9bd 3218 283c 2d61 6cbd
00000160: 5d1a 953d bfe6 a2bd d9db 503d d0c6 1ebd
00000170: 13d4 973d 9cb7 83bd 3697 903b e36e 593a
00000180: 3406 d83c bebd b93c 3150 283d 111b a2bc
00000190: 76c1 2fbd 4000 643d bcfd 103e 35b3 db3d
000001a0: a3ee 9ebc 724f 7f3b b03f e5bb ab89 7cbc
000001b0: 6cfe 473d de5a 31bd ce8f 2c3c d784 9bbd
000001c0: 8898 b6bc 0130 ed3d 87b4 823d de27 85bd
000001d0: 1c01 24bd b334 27bc f31a 11be 2a36 e0bd
000001e0: 7a8f 483d d5a6 043e c9c3 f83d aade 03bd
000001f0: 0802 d5bd 3b78 db3d cbec ce3c 41ba b83d
00000200: 1370 ee3d f980 e9bc a856 043d c31b cb3c
00000210: d0df bcbc 53ac af3d d223 b53c 8432 66bc
00000220: 76c7 5ebd 3584 e83d ee77 6bbd 6772 e13d
00000230: ff6e afbd 79cf 58bd 613a 17bd 89ec 583d
00000240: 3cb4 ccbd e119 e4bc cefd 963d 48c5 35be
00000250: 7a34 b1bd 993d 103c 6cb1 16bd 0ebb ad3d
00000260: 934c b1bc cfff 8b3d 88d7 e43d ee6a a8bc
00000270: 7c94 ddbc 107e 9f3c 6dbe e03c dd61 c7bd
00000280: d610 d53d 865f 0bbd 5072 9a3d bac7 c6bc
00000290: 4c47 4abb b265 5a3d 8fe5 c23d 9578 693c
000002a0: 7eaf d43d f07a 283d f571 cdbd f952 543d
000002b0: 6b8c 733c a08c 1abc 5545 1cbd f58f d0bd
000002c0: 99f1 cbbd d630 a2bc 7a45 d0bd ba49 1d3a
000002d0: 24b2 f0bc bac4 26bd 0dbb d0bc c32c 413d
000002e0: 8d2a be3d 5884 bebd 3f3f bfbd de00 a13d
000002f0: e0c1 17bd 3bef b7bd bfb9 053d a187 bfbd
00000300: ad0e 863b 1a4f 2f3d 2de6 a23d 05de 35bd
00000310: c2f2 34bc 2ab5 61bd 96cd 41bd aba3 0dbc
00000320: f11a 2e3d f366 c13d b7d0 423d 84d2 813d
00000330: 58fd 8fbd 790e d33d 68fb a03d 421a 9e3d
00000340: 8789 003e ee2b 9e3d 7c91 8cbd 1e4d 75bd
00000350: ab34 8cbc fa87 7d3d d1a8 2c3d 278b 373d
00000360: 14d1 223d e2f4 b23c 85b1 ba3c d67a 5fbd
00000370: c213 24bd 1742 0dbe 1d82 f2bd fa59 ac3c
00000380: a8b4 ba3c ba88 7abd 3a87 25bb e74c 6dbe
00000390: 7e14 813b 0901 1cbc c056 b73d 0fc7 cd3c
000003a0: d907 633d 786c fcbd a1d2 8bbd b537 c93c
000003b0: e16e 2a3d 6cd3 953d d823 b9bd 5e6e 1ebe
000003c0: c61a 743c 6d84 a33d 8e4a b43d b61e 423d
000003d0: e643 cbbc e86a 42bc 935b 983c a439 393d
000003e0: 1420 043d d91e 823c 222b 183d 0cd6 3b3d
000003f0: 93ef ebbd 6094 2e3c 2d50 edbd 8ca0 be3c

tcn.layers.2.conv1.bias f4 [16]
-0.0649747 0.019439483 0.09255534 0.047186177 -0.03130192 -0.06145172 0.11579127 -0.048305813
-0.072118945 0.08852397 0.00038889854 -0.00311978 -0.09827017 0.09110786 -0.06562495 0.0041276496
00000000: 7511 85bd 8d3f 9f3c a78d bd3d 4b46 413d
00000010: 7136 00bd ccb4 7bbd f923 ed3d 51dc 45bd
00000020: 19b3 93bd 0e4c b53d 14e5 cb39 3975 4cbb
00000030: df41 c9bd c296 ba3d 6066 86bd 3c41 873b

tcn.layers.2.conv1.weight_g f4 [16, 1, 1]
0.72743744 0.64689994 0.7444566 0.8201255 0.82863826 0.8708315 0.9687871 0.8982281
0.60953295 0.65282804 0.5298466 0.5835686 0.65003407 0.84717816 0.6969845 0.80711263
00000000: 5739 3a3f 3c9b 253f b594 3e3f bff3 513f
00000010: a321 543f d0ee 5e3f 6e02 783f 47f2 653f
00000020: 5a0a 1c3f bd1f 273f 07a4 073f c064 153f
00000030: a268 263f abe0 583f 946d 323f ef9e 4e3f

tcn.layers.2.conv1.weight_v f4 [16, 16, 5]
0.047386806 -0.16653433 -0.05742257 -0.1018239 -0.05885557 0.06051761 0.05852195 -0.012800284
0.052604057 -0.03384206 -0.0060745347 0.055885702 -0.099020354 -0.032394893 -0.11838106 0.032596298
-0.072011404 -0.09134313 -0.037843075 0.069252625 -0.00014320266 0.041179363 -0.06581269 -0.017426109
-0.08865091 0.0013621915 -0.07664179 -0.023237849 -0.021666165 -0.10504465 0.11708609 0.033442505
0.08322653 -0.036852166 -0.00094626413 -0.040667355 0.03272157 -0.07809279 0.029620618 -0.08679049
0.08629871 -0.13291347 -0.06290799 -0.06619509 -0.029432949 0.067881435 0.091903485 0.076667935
0.07239445 -0.028484846 0.064964406 -0.028432162 -0.060140062 0.020995881 -0.035818614 0.12207924
0.11181636 0.026696285 -0.022016972 -0.07479862 0.011009631 -0.009272909 -0.07007915 -0.100709155
-0.0951679 0.046812203 0.089822315 -0.10859721 0.048068084 -0.088565476 -0.11127364 0.089679405
0.044837426 -0.03591577 0.09147532 0.009375345 -0.050199345 0.04444379 -0.017200157 -0.039990112
-0.07775798 0.043118235 0.065641254 -0.047194757 0.033986315 -0.05701645 -0.020949543 -0.04538328
-0.111322984 -0.018395808 -0.09452343 0.01793165 -0.02482249 -0.037606936 -0.05484871 -0.031275857
0.033879522 0.09995473 -0.05734117 -0.07996019 -0.038409896 -0.08349139 -0.0385245 -0.11432884
0.05035144 0.058658548 -0.06419987 0.063364364 0.03355296 -0.09675012 -6.4172586e-05 -0.124589264
-0.10168312 -0.066036 -0.14501326 -0.036130827 0.015788468 0.014247039 -0.09342945 -0.105593495
-0.020561833 0.08057291 0.015193917 0.07499986 -0.08589613 -0.022360045 -0.111970834 -0.039709345
-0.09673957 -0.065462135 -0.06482333 -0.09284355 -0.047504794 0.00012533706 -0.033990156 0.08663587
0.0057879225 0.002342917 -0.14375234 -0.03955657 -0.041962076 -0.06509135 -0.02787753 -0.08216507
-0.04944497 0.06016024 0.064254835 -0.098724365 -0.0065747146 -0.08510599 0.13024756 0.074409835
0.034339856 -0.10347577 -0.123680025 -0.027156884 -0.0816028 -0.06848011 0.020853644 -0.044526353
0.033900008 -0.038443707 -0.10516096 -0.08404946 -0.09257882 -0.07295748 -0.03195865 0.021095242
0.0052047637 0.06897693 0.00986682 -0.04531876 0.005738155 -0.1431084 -0.089174144 0.0578507
-0.021700976 0.07058676 -0.014632563 0.0656916 -0.015203888 -0.023804 -0.10613091 -0.1291597
-0.063397884 0.045521464 -0.018689333 -0.030154264 -0.014014144 0.110888824 0.03389915 -0.012927854
-0.06979815 -0.03253364 0.07297618 0.1073122 -0.052976076 0.012811161 -0.048345543 0.04523707
-0.023837416 -0.08157364 -0.14243647 -0.03638703 -0.0008309874 -0.14546528 0.033473756 -0.025511157
0.048377812 0.03865662 -0.09054377 -0.046263 0.02807835 0.025067318 -0.08399581 -0.09968966
-0.0008446468 -0.12963016 0.019459756 -0.004131342 -0.017093865 0.011375524 -0.03280361 -0.09081208
0.028245442 -0.14235923 -0.08318449 -0.046604298 -0.025788356 0.06518754 -0.04063408 0.036468826
0.050072998 0.026712932 0.07636662 -0.07174882 -0.055318657 0.010747662 0.041479703 0.039899915
-0.0026490993 0.048443884 0.059808217 0.1325036 0.018788185 -0.016135896 -0.03292921 -0.027823566
0.03923932 0.0059344713 -0.042498738 0.017217899 -0.019957349 0.17006999 0.08328408 0.0027834135
00000000: ab18 423d fa87 2abe ee33 6bbd 0d89 d0bd
00000010: 8a12 71bd 50e1 773d b6b4 6f3d 48b8 51bc
00000020: 5a77 573d f99d 0abd e40c c7bb 68e8 643d
00000030: 2fcb cabd 82b0 04bd c571 f2bd b283 053d
00000040: b77a 93bd 1b12 bbbd 5701 1bbd 52d4 8d3d
00000050: ac28 16b9 b1ab 283d cec8 86bd 33c1 8ebc
00000060: 9c8e b5bd 908b b23a 5ff6 9cbd 4d5d bebc
00000070: 3e7d b1bc a621 d7bd d5ca ef3d 02fb 083d
00000080: ac72 aa3d 4cf2 16bd b60e 78ba d092 26bd
00000090: 0e07 063d 1def 9fbd f0a6 f23c 36bf b1bd
000000a0: 61bd b03d 781a 08be e7d5 80bd 4b91 87bd
000000b0: 5e1d f1bc 6c05 8b3d e537 bc3d 1404 9d3d
000000c0: 8b43 943d 0d59 e9bc 0f0c 853d 91ea e8bc
000000d0: 6d55 76bd 8eff ab3c 8ab6 12bd ae04 fa3d
000000e0: faff e43d 2bb2 da3c f05c b4bc 0530 99bd
000000f0: bd61 343c 66ed 17bc a885 8fbd 9a40 cebd
00000100: 63e7 c2bd 27be 3f3d c3f4 b73d 3768 debd
00000110: 0ae3 443d d161 b5bd 6fe3 e3bd d6a9 b73d
00000120: 73a7 373d 6a1c 13bd 6a57 bb3d 0c9b 193c
00000130: d49d 4dbd b10a 363d 58e7 8cbc accc 23bd
00000140: 933f 9fbd bf9c 303d ec6e 863d 4a4f 41bd
00000150: 3c35 0b3d 158a 69bd 609e abbc d1e3 39bd
00000160: 4efd e3bd ceb2 96bc 8095 c1bd 65e5 923c
00000170: 8958 cbbc bb09 1abd 0aa9 60bd 1d1b 00bd
00000180: 41c5 0a3d 11b5 cc3d 93de 6abd 2bc2 a3bd
00000190: b253 1dbd 89fd aabd decb 1dbd 3d25 eabd
000001a0: 503d 4e3d f243 703d 397b 83bd 2dc5 813d
000001b0: d46e 093d ed24 c6bd 6594 86b8 a828 ffbd
000001c0: 3d3f d0bd e23d 87bd 5b7e 14be ebfd 13bd
000001d0: d156 813c 6a6c 693c f157 bfbd 6741 d8bd
000001e0: 4a71 a8bc 6903 a53d e8ef 783c 8799 993d
000001f0: 4fea afbd 6a2c b7bc f750 e5bd 44a6 22bd
00000200: 651f c6bd 0311 86bd 18c2 84bd c224 bebd
00000210: 6394 42bd e96c 0339 4339 0bbd 266e b13d
00000220: 9da8 bd3b a08b 193b d033 13be 1206 22bd
00000230: 6de0 2bbd 9d4e 85bd 6b5f e4bc 2946 a8bd
00000240: cf86 4abd 956a 763d 0a98 833d 0030 cabd
00000250: b470 d7bb 0d4c aebd 9e5f 053e 2f64 983d
00000260: f3a7 0c3d 1beb d3bd f44b fdbd 1d78 debc
00000270: 5e1f a7bd 4d3f 8cbd 43d5 aa3c 4461 36bd
00000280: bcda 0a3d 2677 1dbd a15e d7bd 2022 acbd
00000290: f799 bdbd bb6a 95bd 13e7 02bd eecf ac3c
000002a0: b98c aa3b c743 8d3d 71a8 213c 2aa0 39bd
000002b0: 2207 bc3b 028b 12be efa0 b6bd dbf4 6c3d
000002c0: 3fc6 b1bc cb8f 903d 6bbd 6fbc 5189 863d
000002d0: ba19 79bc 9b00 c3bc 2a5b d9bd 7142 04be
000002e0: c0d6 81bd b774 3a3d 5f1a 99bc 1306 f7bc
000002f0: 959b 65bc ae19 e33d d6d9 0a3d 5acf 53bc
00000300: 55f2 8ebd fe41 05bd 8974 953d 80c6 db3d
00000310: 71fd 58bd e7e5 513c fa05 46bd 824a 393d
00000320: af46 c3bc 1510 a7bd deda 11be 910a 15bd
00000330: 9fd6 59ba daf4 14be c71b 093d c6fc d0bc
00000340: d027 463d 6756 1e3d 036f b9bd 467e 3dbd
00000350: 9104 e63c fa59 cd3c ff05 acbd 182a ccbd
00000360: 4a6b 5dba c5bd 04be 116a 9f3c 3560 87bb
00000370: 6f08 8cbc 6860 3a3c 145d 06bd affb b9bd
00000380: fc62 e73c 9ec6 11be a15c aabd 26e4 3ebd
00000390: 1a42 d3bc 0c81 853d ec6f 26bd 5660 153d
000003a0: 5819 4d3d 14d5 da3c 1a66 9c3d 0cf1 92bd
000003b0: d195 62bd f616 303c 9fe6 293d 186e 233d
000003c0: 839c 2dbb 186d 463d 76f9 743d 06af 073e
000003d0: aee9 993c 6d2f 84bc c8e0 06bd 3fee e3bc
000003e0: 69b9 203d f475 c23b 2813 2ebd 8d0c 8d3c
000003f0: 987d a3bc d426 2e3e d890 aa3d ee69 363b

tcn.layers.2.conv2.bias f4 [16]
-0.06864993 -0.039802503 0.03022172 -0.071799874 -0.07388221 -0.06958356 0.0028772408 -0.10384705
0.02821639 -0.058088847 -0.008506968 -0.10838192 0.12186849 0.010341146 0.07446885 -0.039509807
00000000: 5698 8cbd f307 23bd 8a93 f73c d00b 93bd
00000010: 8e4f 97bd d381 8ebd 1790 3c3b c3ad d4bd
00000020: 0f26 e73c 92ee 6dbd cf60 0bbc 57f7 ddbd
00000030: 3096 f93d e96d 293c 2083 983d 09d5 21bd

tcn.layers.2.conv2.weight_g f4 [16, 1, 1]
0.73316884 0.6678334 0.72392005 0.7559818 0.8137234 0.5764845 0.7212192 0.5867482
0.6327605 0.57792187 0.6715156 0.659854 0.7316538 0.68722224 0.78077316 0.86420083
00000000: f4b0 3b3f 21f7 2a3f d352 393f 0688 413f
00000010: 2d50 503f 7d94 133f d2a1 383f 2135 163f
00000020: 98fc 213f b0f2 133f 72e8 2b3f 31ec 283f
00000030: aa4d 3b3f cced 2f3f c0e0 473f 443c 5d3f
