model_save/beat_tracker_0.1067.pt (torch, 153742 bytes, 71 tensors)

frontend.conv1.0.weight f4 [16, 1, 3, 3]
0	0x3f01eebf	0.5075492
1	0x3f3a9df7	0.72897285
2	0x3d58c68c	0.052923724
3	0x3efba74f	0.49151084
4	0x3e9d2bef	0.3069758
5	0x3da0da6d	0.078541614
6	0x3df20aa9	0.118184395
7	0x3f18c98f	0.59682554
8	0x3e9ca74c	0.30596387
9	0xbe732133	-0.23743133
10	0x3f5b7421	0.85724074
11	0x3f338ca2	0.70136464
12	0x3d5f5693	0.054525923
13	0x3eb1c940	0.34723854
14	0x3ed86125	0.42261615
15	0x3d4642da	0.0484036
16	0x3f2d02d3	0.67582434
17	0x3e8c67bf	0.27422902
18	0xbdf714cd	-0.12064514
19	0x3e00746a	0.12544408
20	0xbd322822	-0.043495305
21	0x3d376b55	0.044780094
22	0xbd8f7222	-0.07004191
23	0x3ea34386	0.31887454
24	0xbe8170a7	-0.2528126
25	0xbe00c30b	-0.12574403
26	0xbc8ae448	-0.016954556
27	0xbe56e49d	-0.20985647
28	0x3c83f455	0.016107718
29	0xbe95c6a7	-0.29253122
30	0x3eb8d868	0.36102605
31	0xbe57dbe6	-0.21079978
32	0x3ebaa662	0.36455065
33	0x3dbd0140	0.09228754
34	0xbde6f719	-0.11277599
35	0x3e53fa5f	0.20700978
36	0x3e63fae2	0.22263673
37	0x3f34a8ca	0.7057005
38	0x3eb55e12	0.35423332
39	0xbdca9682	-0.09891988
40	0x3e9e9932	0.30976254
41	0xbdae022f	-0.0849651
42	0x3ea0613e	0.3132419
43	0x3f0fa2e4	0.56107926
44	0x3e5e5664	0.21712643
45	0xbd8b1533	-0.06791153
46	0x3e834666	0.25639647
47	0x3e44d8c8	0.1922332
48	0x3d084c85	0.0332761
49	0xbe8a51ee	-0.27015632
50	0xbea2b1d5	-0.317763
51	0xbdc2fe58	-0.095211685
52	0xbe4f061c	-0.20217174
53	0x3eb997e9	0.3624871
54	0x3ede034b	0.43361887
55	0x3eee2fe3	0.4652091
56	0x3e7049eb	0.23465697
57	0x3e8b8b1c	0.2725457
58	0x3ef47e26	0.47752494
59	0xbe83ac82	-0.2571755
60	0x3e356d80	0.17717552
61	0xbe214ab9	-0.1575116
62	0xbe088806	-0.13333139
63	0xbdcd7437	-0.10031932
64	0x3da356a2	0.07975508
65	0xbdcfcc81	-0.10146428
66	0x3dcb4821	0.09925867
67	0xbea0f3c4	-0.31435978
68	0xbe99726a	-0.29970104
69	0xbc05dde2	-0.008170577
70	0x3edf9e5f	0.43675515
71	0x3e828490	0.25491762
72	0x3eb3bc68	0.3510468
73	0xbe7604d8	-0.24025285
74	0xbe929e3b	-0.28636345
75	0xbe630d09	-0.22172941
76	0xbe443b0a	-0.19163147
77	0x3e38aefa	0.18035498
78	0x3e30bed2	0.17260292
79	0x3ea4a9d1	0.3216081
80	0xbdd1d726	-0.102461144
81	0xbe918804	-0.28424084
82	0x3e01d0a5	0.12677248
83	0xbdc9645c	-0.09833595
84	0x3e9c5c46	0.3053915
85	0x3c70cca7	0.01469723
86	0x3ea6b39b	0.32558903
87	0xbe8e4c6c	-0.2779268
88	0xbe46ee83	-0.19426923
89	0x3d9b91d1	0.07596172
90	0x3e6daca2	0.23210385
91	0xbc456501	-0.012048007
92	0x3e409cb0	0.18809772
93	0x3e8e1e6b	0.27757582
94	0xbe6df24b	-0.23236959
95	0xbe66b0d9	-0.225284
96	0x3eae6125	0.3405849
97	0xbdce9461	-0.10086895
98	0xbdf82f99	-0.121184535
99	0xbe9049db	-0.28181347
100	0xbe3143aa	-0.17310968
101	0x3e138098	0.14404523
102	0xbb93efa7	-0.004514653
103	0xbe65a50f	-0.22426246
104	0x3d5bd9ff	0.053674694
105	0xbe383a36	-0.17990956
106	0xbe801593	-0.2501646
107	0xbdede56a	-0.11616023
108	0xbe8a8460	-0.2705412
109	0xbe339457	-0.17537056
110	0x3ec96e6c	0.39342058
111	0x3d40cd74	0.047070935
112	0x3df01624	0.11722973
113	0xbe7ae569	-0.24501576
114	0xbe760e83	-0.24028973
115	0xbde6017b	-0.11230751
116	0x3db818d1	0.08989108
117	0xbe89962a	-0.2687238
118	0xbdf3ae93	-0.11898532
119	0xbe2b69ee	-0.16739628
120	0x3cfdf87b	0.031002274
121	0xbdc47691	-0.09592927
122	0x3c136665	0.008996581
123	0xbe4a907a	-0.19781676
124	0xbe52b16d	-0.20575495
125	0xbe2c5a23	-0.1683126
126	0xbe87c1f2	-0.26515156
127	0xbe736df1	-0.23772408
128	0x3f01b360	0.5066433
129	0xbea09b23	-0.3136836
130	0x3e452933	0.19253998
131	0x3dfd4840	0.12367296
132	0xbe94a0fc	-0.2902907
133	0x3e9dd95d	0.30829898
134	0x3c86bc6e	0.016447272
135	0xbe10cef2	-0.14141443
136	0xbe9b19b3	-0.30293044
137	0xbebd61d5	-0.36988702
138	0x3ddbec98	0.10738486
139	0xbd9231e3	-0.071384214
140	0x3e0b1900	0.13583755
141	0xbe7dff61	-0.2480445
142	0x3e712a6c	0.23551339
143	0xbe755a23	-0.23960166

frontend.conv1.0.bias f4 [16]
0	0xbe8cb024	-0.27478135
1	0xbe340bae	-0.1758258
2	0x3e1dc8e8	0.15408671
3	0x3e9fa1d4	0.31178153
4	0x3eeecf95	0.46642748
5	0xbe543a51	-0.20725371
6	0x3e8d0d32	0.2754913
7	0xbd47de81	-0.04879618
8	0xbd1a62cf	-0.037691887
9	0xbe167800	-0.14694214
10	0x3eacec15	0.33773866
11	0xbe8a7da6	-0.27048987
12	0x3e00c6ea	0.1257588
13	0x3dfb4e91	0.12270845
14	0x3d015934	0.03157921
15	0xbe15f876	-0.14645562

frontend.conv2.0.weight f4 [16, 16, 3, 3]
0	0xbe0bd4d4	-0.13655406
1	0x3a8cdb88	0.0010746578
2	0x3e3b5005	0.18292244
3	0xbdba7ba0	-0.09105611
4	0x3c8f2acb	0.01747646
5	0x3d93a347	0.07208877
6	0x3d0da6f3	0.034583043
7	0x3d550bb5	0.052013118
8	0x3b8dc43b	0.004326371
9	0xbe42fd33	-0.190419
10	0x3c5f1e17	0.013618014
11	0x3e8ab95e	0.2709455
12	0xbcd3194c	-0.025768898
13	0x3cd4f5ca	0.025996108
14	0x3dd916e7	0.106000714
15	0xba51d24a	-0.0008004053
16	0xbd16e102	-0.036835678
17	0x3be0026b	0.0068362257
18	0x3dde0d28	0.10842353
19	0xbd508242	-0.050905474
20	0xbc891c85	-0.016737232
21	0x3d6b8b50	0.057505906
22	0x3d01d70f	0.031699236
23	0xbd270993	-0.040780615
24	0x3c914c88	0.017736688
25	0x3cf73353	0.03017584
26	0xbafdf94d	-0.0019376666
27	0x3d17c13b	0.037049513
28	0xbcec9e4e	-0.02888408
29	0xbd561c92	-0.05227334
30	0xbcda3663	-0.026637262
31	0xbe0eff27	-0.1396452
32	0xbe1365e5	-0.14394338
33	0x3dac113a	0.08401723
34	0xbd9104cd	-0.07080994
35	0xbe1e27b4	-0.15444833
36	0xbe4e9f96	-0.20178065
37	0xbcb20929	-0.021732884
38	0x3e6a59f1	0.22885872
39	0xbdb0b624	-0.086284906
40	0xbdad76bf	-0.08469915
41	0x3d736b9b	0.059428792
42	0x3c9823ad	0.018571699
43	0xbb8a1157	-0.004213493
44	0xbcf8b58d	-0.030360008
45	0x3d620e2e	0.055189304
46	0xbc070223	-0.0082402555
47	0xbdf10bd2	-0.11769833
48	0x3c2102a7	0.0098272925
49	0x3d23da38	0.04000303
50	0x3d1accf0	0.0377931
51	0x3dc0a8d4	0.094072014
52	0xbd1077fe	-0.035270683
53	0xbd545794	-0.051841334
54	0xbe5ecbf5	-0.21757491
55	0xbdaa4c2f	-0.08315312
56	0x3c78e41b	0.015191103
57	0xbdfd6198	-0.1237213
58	0xbd4b7322	-0.049670346
59	0x3d072e0d	0.0330029
60	0x3c8e03cc	0.017335795
61	0x3d4790a5	0.04872193
62	0xbca77a50	-0.020444065
63	0xbdf8650c	-0.12128648
64	0xbe3c4443	-0.18385415
65	0x3ddf938a	0.10916813
66	0x3dad099e	0.084491
67	0xbcfc3d4d	-0.03079095
68	0xbd1e87be	-0.038703673
69	0x3b0c32b3	0.0021392524
70	0xbd48a576	-0.04898592
71	0x3d54dac7	0.051966455
72	0x3df86165	0.121279515
73	0x3d8aaaf8	0.06770891
74	0x3d36a7da	0.04459367
75	0x3dd74221	0.1051066
76	0xbc956301	-0.018235685
77	0xbdcc5b86	-0.09978394
78	0x3ce3b14c	0.027794503
79	0xbd24a587	-0.04019692
80	0x3d2a8f69	0.041640673
81	0x3dc57a93	0.0964252
82	0x3da7d96a	0.08195765
83	0xbe074eca	-0.1321365
84	0x3dbdd4ca	0.09269102
85	0x3d63c58d	0.05560832
86	0xbd4030c2	-0.0469215
87	0x3d58b2e9	0.052904997
88	0x3c81000d	0.015747095
89	0xbd0d3776	-0.03447672
90	0xbd02ef82	-0.031966694
91	0xbe7babf6	-0.24577317
92	0xbe2f8bdd	-0.17143197
93	0xbda9a509	-0.08283431
94	0xbe38b3af	-0.18037294
95	0xbe434fc2	-0.19073394
96	0x3de32756	0.11091487
97	0xbe024262	-0.12720636
98	0xbbb5786d	-0.0055380375
99	0x3da52f09	0.08065612
100	0x3d73c904	0.059517875
101	0xbddc8240	-0.10767031
102	0x3db54085	0.08850197
103	0xbcb98244	-0.022645123
104	0x3c590e84	0.01324809
105	0x3daae391	0.08344186
106	0xbbc6321b	-0.0060484535
107	0xbc156536	-0.009118369
108	0x3d6513c7	0.055927064
109	0xbc7fa666	-0.015603637
110	0x3d0e80af	0.03479069
111	0xbd0b330c	-0.03398423
112	0x3dc7120b	0.09720238
113	0x3d902df7	0.07040017
114	0x3da7161d	0.08158515
115	0x3a032daa	0.0005004058
116	0xbd6d451c	-0.057927236
117	0x3d406639	0.046972487
118	0x3ce6bb87	0.028165592
119	0xbe028cc6	-0.12749013
120	0xbc223c6b	-0.0099021
121	0xbd705ace	-0.058680348
122	0xbd14daf2	-0.036341615
123	0xbd2fa2e7	-0.042879965
124	0xbd337a01	-0.043817524
125	0xbd226393	-0.039645743
126	0x3e6f5246	0.23371229
127	0x3f3927e3	0.7232649
128	0x3f3bbb1d	0.7333239
129	0x3e5f69ff	0.21817778
130	0x3f03784c	0.51355433
131	0x3ecc9ab6	0.39961785
132	0xbdecc5d4	-0.1156117
133	0x3dc9008d	0.09814558
134	0x3daaa6af	0.083325736
135	0xbbf0a598	-0.007343959
136	0xbd8ee706	-0.06977658
137	0xbd479c68	-0.048733145
138	0xbc37d033	-0.011219072
139	0xbd46df64	-0.048552886
140	0xbce9b8a1	-0.02853042
141	0xbc13a1c4	-0.009010736
142	0xbd1c64b9	-0.038181994
143	0xbd5a06a1	-0.053228978
144	0xbdca54d4	-0.09879461
145	0x3e12e5bf	0.14345454
146	0x3d36b21b	0.04460345
147	0xbc64fd07	-0.013976342
148	0x3cb233fa	0.0217533
149	0x3d6218d3	0.055199455
150	0x3dc94338	0.09827274
151	0x3d904adc	0.07045528
152	0xbd85eb7f	-0.06539058
153	0x3d917c43	0.07103779
154	0x3e38b4a5	0.1803766
155	0x3d8f6b29	0.07002861
156	0x3daf78d8	0.08567971
157	0x3e0fd45a	0.1404585
158	0xbcd2f5b2	-0.025751922
159	0x3d352952	0.04422886
160	0xbd3242cf	-0.043520745
161	0xbd89395e	-0.06700395
162	0x3dc4f45e	0.09616922
163	0x3c1d887a	0.009615058
164	0xbdf1cce1	-0.11806656
165	0xbd3b61c4	-0.045747533
166	0xbd9bb0bd	-0.076020695
167	0xbde05190	-0.10953057
168	0xbd3ff94f	-0.04686862
169	0xbd0a6b1b	-0.03379355
170	0x3d042660	0.03226316
171	0xbd2d54a1	-0.042317037
172	0xbdf94875	-0.12172023
173	0xbdc45700	-0.095869064
174	0x3ba1a95e	0.00493352
175	0xbdf6d723	-0.12052753
176	0xbd875215	-0.06607453
177	0x3cf622b8	0.030045852
178	0xbd7da648	-0.061926156
179	0xbce7aa41	-0.028279426
180	0xbd1ff143	-0.039048444
181	0x3cfbfb4f	0.030759482
182	0xbc7cc816	-0.015428564
183	0xbde4bb25	-0.111685075
184	0xbd41cd70	-0.04731506
185	0xbd7a5c42	-0.06112314
186	0x3d8e9c72	0.06963433
187	0xbd396251	-0.045259777
188	0xbde7efc5	-0.11325029
189	0x3cb01b9c	0.02149754
190	0xbd92b9bd	-0.07164333
191	0xbd58c8ce	-0.052925877
192	0x3cc40578	0.023928389
193	0xbd1e8668	-0.0387024
194	0xbe178dad	-0.14800139
195	0xbd20cd6c	-0.039258406
196	0xbd0ba171	-0.03408951
197	0xbd8a25c6	-0.06745486
198	0xbe261c93	-0.16221838
199	0x3d98d721	0.074629076
200	0x3c67fe28	0.014159717
201	0xbe10f1a9	-0.14154686
202	0xbd62eaf7	-0.05539986
203	0x3d36015c	0.04443489
204	0x3cae176a	0.0212514
205	0x3d02e658	0.031957954
206	0x3c8bb07d	0.01705193
207	0xbe13c28b	-0.14429681
208	0xbd0574e6	-0.032582186
209	0x3da9a786	0.08283906
210	0x3d4217ad	0.04738586
211	0x3d0c2992	0.034219332
212	0xbd890e68	-0.06692201
213	0x3d2b2380	0.041781902
214	0xbd4f7dbb	-0.050657015
215	0xbd875600	-0.066082
216	0xbbc503b5	-0.006012405
217	0x3d4384c7	0.04773405
218	0x3e012858	0.12613046
219	0xbdbd76c4	-0.09251168
220	0x3d112b0a	0.035441436
221	0xbd033fb7	-0.032043185
222	0x3cd1c021	0.02560431
223	0x3d3a6459	0.045505855
224	0x3b55ae7f	0.0032605228
225	0x3e3361b9	0.17517747
226	0xbe71cf8d	-0.2361433
227	0xbeca470c	-0.3950733
228	0x3dc06cde	0.09395765
229	0xbe4c42c4	-0.19947344
230	0xbe9a25aa	-0.3010686
231	0x3e307358	0.172315
232	0x3d851c85	0.0649958
233	0xbcd814c0	-0.026377082
234	0xbe0bf7e5	-0.13668783
235	0xbe108282	-0.14112285
236	0xbc0de804	-0.008661274
237	0xbdc2bd0a	-0.095087126
238	0xbd0081db	-0.03137384
239	0xbc8c34d9	-0.017115043
240	0xbd99f6c8	-0.07517773
241	0x3c2b3454	0.010449488
242	0x3b8d52a9	0.0043128324
243	0x3a7da776	0.00096761377
244	0xbd4c0112	-0.04980571
245	0xbdb4defa	-0.08831592
246	0xbd88a194	-0.066714436
247	0xbd61a9c4	-0.05509354
248	0xbd2ccd5d	-0.042188037
249	0x3ca9fe98	0.020751283
250	0xbd5d58a8	-0.054039627
251	0xbd4d1707	-0.05007079
252	0x3df21b90	0.118216634
253	0xbb193714	-0.0023378776
254	0x3c924d93	0.017859256
255	0x3c90f630	0.017695516

frontend.conv2.0.bias f4 [16]
0	0xbda1dd5b	-0.07903548
1	0xbd7f9780	-0.06240034
2	0x3d30165c	0.042990074
3	0xbd15ff8e	-0.03662067
4	0x3ce1e88e	0.027576711
5	0xbdeb0b66	-0.114767835
6	0xbce16ffe	-0.027519222
7	0xbdea64d2	-0.11445011
8	0xbd7c69a2	-0.061624177
9	0x3d89d47a	0.0672998
10	0xbda457f5	-0.08024589
11	0xbdb497c3	-0.08818009
12	0x3d48cb98	0.049022287
13	0xbbb48c43	-0.0055098846
14	0xbd51aaf4	-0.051188424
15	0xbdd9258a	-0.10602863

tcn.layers.0.conv1.bias f4 [16]
0	0xbdb9f9ab	-0.090808235
1	0xbe2c9bf5	-0.16856368
2	0xbd3088c8	-0.043099195
3	0x3d9cc864	0.07655409
4	0x3d145841	0.036216978
5	0xbcb5f667	-0.02221222
6	0x3dffb766	0.12486152
7	0xbd343d73	-0.044003915
8	0x3dd481e9	0.10376341
9	0xbb820cc0	-0.003968805
10	0xbe1ce8e2	-0.15323213
11	0x3d67d914	0.056603506
12	0x3ba72445	0.005100759
13	0x3d1d2635	0.038366515
14	0xbd15cd43	-0.036572706
15	0x3e1b33dd	0.15156503

tcn.layers.0.conv1.weight_g f4 [16, 1, 1]
0	0x3f5003eb	0.8125598
1	0x3f338dd2	0.70138276
2	0x3f2cbcb1	0.6747542
3	0x3f2058ef	0.626357
4	0x3f30fbf6	0.6913446
5	0x3f10a323	0.56498927
6	0x3f789dd9	0.97115856
7	0x3f697dd2	0.9120761
8	0x3f4392a2	0.7639562
9	0x3f6b451a	0.91902316
10	0x3f34b94c	0.7059524
11	0x3f5cc7ab	0.8624217
12	0x3f86309e	1.0483587
13	0x3f4d3347	0.8015637
14	0x3f0ccbe4	0.5499861
15	0x3f53f14d	0.8279007

tcn.layers.0.conv1.weight_v f4 [16, 16, 5]
0	0xbdadd2d2	-0.084874764
1	0xbd14d0d2	-0.03633196
2	0xbb8935fc	-0.0041873436
3	0xbd16d546	-0.036824487
4	0xbd9d4be9	-0.07680494
5	0xbcdd783d	-0.027034873
6	0xbc2511f7	-0.010075084
7	0x3d071f91	0.03298909
8	0x3d6020ce	0.054718785
9	0xbc9c3eeb	-0.01907297
10	0xbdf8532d	-0.121252395
11	0xbdc942c6	-0.09827189
12	0xbe215c07	-0.15757762
13	0xbe197335	-0.14985354
14	0xbe580223	-0.21094565
15	0xbca873b1	-0.020562978
16	0x3d2083f1	0.03918833
17	0x3d0131d2	0.031541653
18	0x3d89bed2	0.06725849
19	0x387dde06	6.0526676e-05
20	0x3d320789	0.043464217
21	0xbce72996	-0.028218072
22	0xbd4dbaf5	-0.050227124
23	0xbcce21cc	-0.0251626
24	0xbdd0ec7b	-0.10201355
25	0xbc757894	-0.014982361
26	0xbd0b26e5	-0.03397264
27	0x3d070ed6	0.032973133
28	0x3cc179dc	0.023617677
29	0x3b57eec0	0.0032948703
30	0xbd600727	-0.05469432
31	0x3d9058aa	0.07048161
32	0xbccae27e	-0.024766203
33	0x3cb4aee5	0.022056052
34	0x3d7e500e	0.062088065
35	0xbdb8014c	-0.08984622
36	0xbd2a26ac	-0.041540787
37	0x3c4895ab	0.012242715
38	0x3d3c27eb	0.045936506
39	0xbd1a183c	-0.037620768
40	0x3bec5d1e	0.007213249
41	0xbd858794	-0.0652
42	0xbd77f9f1	-0.060541097
43	0x3d30a879	0.043129418
44	0xbcb0df45	-0.021590838
45	0x3daad159	0.08340711
46	0xbb7fef0f	-0.0039052402
47	0xbd3cc58a	-0.046086825
48	0x3d2047c9	0.03913096
49	0x3d01c125	0.031678338
50	0x3cb3b0f1	0.021934958
51	0xbd555c8a	-0.052090205
52	0x3ca8c05a	0.020599533
53	0xbd129b43	-0.0357926
54	0x3dcf4e4f	0.10122358
55	0x3d9939c2	0.074817196
56	0x3d4e007e	0.050293438
57	0x3d401d35	0.046902854
58	0xbc8f8d19	-0.017523335
59	0xbdfec6d1	-0.12440265
60	0x3e6c3a35	0.23069079
61	0x3e613b26	0.2199522
62	0x3df54559	0.11976118
63	0x3e30ba58	0.17258584
64	0x3d6c3559	0.057668064
65	0xbd774295	-0.060366232
66	0xbdd379af	-0.10325944
67	0xbd3e519c	-0.046464548
68	0xbdc8f01c	-0.09811422
69	0x3cb826ce	0.022479441
70	0x3dbe9b2c	0.093069404
71	0xbc06b011	-0.008220688
72	0x3d86506e	0.065583095
73	0xbd7fa9ce	-0.062417798
74	0x3b8e17f8	0.0043363534
75	0xbdd3a55d	-0.10334275
76	0xbd81eb1a	-0.0634367
77	0xbce2796f	-0.027645795
78	0xbc1496ce	-0.009069158
79	0xbd428d5c	-0.047498092
80	0xbd6b1428	-0.05739227
81	0x3d93af94	0.07211223
82	0x3ce0403d	0.027374381
83	0x3b9c587c	0.0047712903
84	0xbdf0a28b	-0.117497526
85	0xbcc8e5e7	-0.024523688
86	0xbd223cae	-0.03960865
87	0x3d11f7be	0.035636656
88	0x3d882c25	0.06649045
89	0x3d72c9c8	0.059274465
90	0xbd4d8e22	-0.050184377
91	0xbd417d38	-0.04723856
92	0xbd3c6e8e	-0.04600387
93	0x3e00b9ec	0.12570924
94	0x3d63fc40	0.055660486
95	0xbda93a3e	-0.08263062
96	0x3c2ad2f6	0.010426274
97	0xbd262144	-0.04055907
98	0x3b8a639a	0.004223299
99	0x3da641f5	0.08118049
100	0xbd2dccc2	-0.0424316
101	0xbcfdc7b2	-0.030979011
102	0x3d8ca728	0.0686782
103	0x3ca97d3f	0.020689605
104	0xbc83790d	-0.016048932
105	0x3da7c265	0.08191375
106	0x3dad4d94	0.084620625
107	0x3d85254e	0.06501256
108	0x3db9452b	0.09046396
109	0x3bc2296f	0.0059253494
110	0xbb3ec55f	-0.0029109342
111	0x3d600384	0.054690853
112	0x3deec76f	0.11659133
113	0x3c90c9d5	0.017674366
114	0x3d789fca	0.06069926
115	0xbca47880	-0.02007699
116	0x3d92b75e	0.07163881
117	0x3d941609	0.07230765
118	0x3dcbb506	0.09946637
119	0xbbbfa8ba	-0.005848971
120	0xbde3ae19	-0.11117191
121	0xbcda1569	-0.026621537
122	0x3d8cbc34	0.068718344
123	0x3de007ba	0.10938974
124	0xbc432839	-0.011911445
125	0x3df33e9d	0.11877177
126	0x3d4454e4	0.04793252
127	0x3c316218	0.01082661
128	0xbc7a8676	-0.015290847
129	0xbb53e7d1	-0.0032334218
130	0x3d856b92	0.06514658
131	0xbd09034c	-0.03345041
132	0x3d1fa3fe	0.038974755
133	0xbdfbd0d5	-0.12295691
134	0xbd8ba7b4	-0.06819096
135	0xbd8dc71d	-0.069227435
136	0xbcc26f6d	-0.023734773
137	0xbd844ec5	-0.064603366
138	0xbd02102c	-0.031753704
139	0xbd93fbfb	-0.07225796
140	0xbdfba306	-0.12286954
141	0xbdedc6af	-0.116101615
142	0xbe06faa5	-0.13181551
143	0x3ccb9068	0.024849132
144	0x3bd173b9	0.006391969
145	0x3bcbadf2	0.0062158043
146	0xbdf4b4a2	-0.119485155
147	0xbd601189	-0.054704223
148	0xbce5dfba	-0.028060783
149	0xbdc47557	-0.09592693
150	0x3dfa0358	0.12207669
151	0x3d869a94	0.06572452
152	0x3de18d1b	0.11013242
153	0x3dbf26c3	0.09333565
154	0x3c8b00a1	0.016968073
155	0xbe09c6d5	-0.13454755
156	0x3c11d094	0.008899827
157	0x3c80b093	0.015709197
158	0x3d8842c2	0.06653358
159	0x3d7704cd	0.060307313
160	0xbdb19bc0	-0.08672285
161	0xbcd530fe	-0.026024338
162	0x3e045a6c	0.12925118
163	0x3dee16c3	0.11625435
164	0xbd45c23b	-0.048280936
165	0x3d784b80	0.060618877
166	0xbd90d486	-0.07071786
167	0xbd75a2ac	-0.05996959
168	0x3dc2e912	0.09517111
169	0x3d394eb2	0.045241065
170	0xbd59b200	-0.05314827
171	0xbe230fa4	-0.15923935
172	0xbd9d2ac0	-0.076741695
173	0x3ba80d89	0.0051285666
174	0x3c6982b6	0.014252355
175	0xbda12f3e	-0.07870339
176	0x3d059921	0.03261674
177	0xbd30d4f0	-0.043171823
178	0x3d1bc42d	0.038028885
179	0x3bcf993d	0.006335406
180	0xbd3cc5d0	-0.046087086
181	0xbd8c8110	-0.06860554
182	0xbd5c4266	-0.05377426
183	0x3d12cf69	0.035842333
184	0x3d5908bc	0.052986845
185	0xbdb37e2e	-0.08764301
186	0xbd7e67a9	-0.062110577
187	0x3d879e7c	0.06622025
188	0x3ccf5cdc	0.025312833
189	0xbd0e35e8	-0.034719378
190	0xbcd80145	-0.026367793
191	0x3d84e222	0.06488444
192	0xbd925efb	-0.07147022
193	0xbd822cc4	-0.063561946
194	0xbdabfd0b	-0.083978735
195	0xbc765cc2	-0.015036764
196	0xbc8e2dd1	-0.017355831
197	0xbd0d02d9	-0.034426544
198	0x3de81bbc	0.11333415
199	0xbd3ea6ea	-0.0465459
200	0x3d9558a9	0.07292301
201	0xbd2f4ab2	-0.042795844
202	0x3d1ed078	0.03877303
203	0x3d52fc8e	0.051510386
204	0xbd0a1616	-0.03371247
205	0xbc5b7f11	-0.013396994
206	0xbdd458bf	-0.103684895
207	0xbdc93a4a	-0.09825571
208	0xbe1fdd6f	-0.15611814
209	0xbdb62fdf	-0.088958494
210	0x3d6084a5	0.054814
211	0x3da8b4df	0.082376234
212	0x3c892576	0.016741496
213	0xbd577f9c	-0.052611932
214	0x3dc2e639	0.09516568
215	0x3cd66826	0.026172709
216	0x3d41a831	0.04727954
217	0xbd916125	-0.07098607
218	0xbdd36a3e	-0.103229985
219	0xbdb79b55	-0.08965174
220	0x3e21de33	0.15807419
221	0x3ceb654c	0.028734826
222	0xbd4f4c0e	-0.05060964
223	0xbd450d94	-0.048108652
224	0xbd5c25a5	-0.053746838
225	0xbafd341b	-0.0019317897
226	0x3c9f774b	0.019466063
227	0xbd886c88	-0.06661326
228	0xbc33da47	-0.010977334
229	0xbd9558ea	-0.0729235
230	0xbc6047c8	-0.013688989
231	0xbd93493d	-0.071917035
232	0xbb4aa358	-0.0030920114
233	0x3d90acad	0.07064185
234	0x3d81d0a2	0.06338622
235	0x3cc1ac5e	0.023641761
236	0x3d1765f5	0.03696247
237	0x3df7edc9	0.12105901
238	0x3de5f773	0.11228838
239	0x3d89e005	0.067321815
240	0x3c6a618b	0.014305483
241	0x3e0c5b86	0.13706788
242	0x3d828588	0.06373125
243	0xbe091923	-0.13388495
244	0xbdad1a53	-0.084522866
245	0x3c3d250a	0.011544475
246	0x3de33bd1	0.110953934
247	0x3c1569f7	0.009119502
248	0x3d6f7c0a	0.058467902
249	0xbda7d063	-0.081940435
250	0x3d8c5fe9	0.06854231
251	0x3dd56f27	0.10421591
252	0xbbc0328e	-0.0058654016
253	0x3d835fb0	0.06414735
254	0xbd2a4c4e	-0.041576676
255	0xbd610f1e	-0.054946057

tcn.layers.0.conv2.bias f4 [16]
0	0xbd973598	-0.07383269
1	0xbd1867aa	-0.037208237
2	0xbdd5b4d9	-0.104348846
3	0xbd3c2de4	-0.045942202
4	0xbdbc8b97	-0.09206312
5	0x3d98f10b	0.0746785
6	0xbc82d855	-0.015972296
7	0x3dfd2b41	0.12361766
8	0xba91ae13	-0.00111145
9	0x3d9089a5	0.070575036
10	0x3da3de60	0.08001399
11	0xbd99bda5	-0.07506875
12	0x3e04bf43	0.12963586
13	0x3d774121	0.060364846
14	0xbd051650	-0.032491982
15	0xbd95aadf	-0.07307982

tcn.layers.0.conv2.weight_g f4 [16, 1, 1]
0	0x3f7ffae9	0.99992234
1	0x3f200807	0.6251225
2	0x3f5958fb	0.849014
3	0x3f1bbcc7	0.60834926
4	0x3f5112e6	0.8166946
5	0x3f324053	0.696294
6	0x3f456abf	0.77116007
7	0x3f3034c4	0.68830514
8	0x3f48000e	0.78125083
9	0x3f2001c9	0.62502724
10	0x3f18c117	0.5966963
11	0x3f6f5aad	0.93497735
12	0x3f29d7c7	0.66344875
13	0x3f261e19	0.64889675
14	0x3f44b4c9	0.76838356
15	0x3f4496d4	0.76792645

tcn.layers.0.conv2.weight_v f4 [16, 16, 5]
0	0x3ddf99a6	0.10917978
1	0x3d0068cb	0.03134994
2	0x3c138ebf	0.009006201
3	0xbd81fa9d	-0.06346629
4	0xbd9fd8b1	-0.078050025
5	0x3d76ebbe	0.060283415
6	0x3dc29efb	0.09502979
7	0x3d000581	0.03125525
8	0x3c8baa5d	0.017049009
9	0x3cf8c016	0.030365031
10	0x3d2c3c3b	0.042049628
11	0x3d516bc8	0.05112818
12	0x3d22b710	0.039725363
13	0x3d26e752	0.040747948
14	0x3db3cc88	0.087792456
15	0xbdc8c3ef	-0.09802996
16	0xbda46bd4	-0.08028379
17	0xbd049f9f	-0.03237879
18	0xbd483686	-0.048880123
19	0x3c9d7f9c	0.019225888
20	0x3c0e18bc	0.008672889
21	0xbca67e70	-0.020323962
22	0x3c3e6df2	0.011622893
23	0x3d508227	0.050905373
24	0x3d198a2a	0.03748528
25	0xbc308969	-0.010774949
26	0xbc45b161	-0.012066216
27	0xbd6c1529	-0.057637367
28	0xbd1374bc	-0.036
29	0xbd814100	-0.06311226
30	0x3dcbbd7e	0.09948252
31	0x3d2828e0	0.041054606
32	0x3d34e4d2	0.044163533
33	0x3d19524d	0.037432004
34	0xbd3f9e04	-0.046781555
35	0x3cd6feb7	0.026244504
36	0xbe14c8b1	-0.14529683
37	0xbe0728e0	-0.13199186
38	0xbe2c902d	-0.16851874
39	0xbdaab2dd	-0.08334897
40	0xbde28275	-0.11060039
41	0xbdb42516	-0.08796136
42	0xbd58cce1	-0.052929763
43	0x3d97c4ea	0.07410605
44	0x3da4fd0f	0.080560796
45	0xbdcdf92a	-0.1005729
46	0xbe491673	-0.1963747
47	0xbe1c846b	-0.15284888
48	0xbddcb055	-0.1077582
49	0x3c8a2c9d	0.016866976
50	0x3c6386a3	0.01388708
51	0x3d86f1bb	0.06589075
52	0x3db55d44	0.0885568
53	0x3d9cf076	0.07663052
54	0x3da8bf00	0.08239555
55	0x3c69d4cf	0.014271929
56	0x3ddc7030	0.107635856
57	0x3d404ae6	0.04694643
58	0x3dd0fad6	0.10204093
59	0x3d2bf107	0.04197791
60	0x3bdccbf3	0.00673818
61	0xbc2b1b7c	-0.0104435645
62	0xbdafbba0	-0.085807085
63	0xbe3610de	-0.17779872
64	0xbe176898	-0.14785993
65	0xbdeef6b0	-0.11668146
66	0xbd6a8b01	-0.05726147
67	0x3ca414cc	0.020029448
68	0x3d266f5f	0.040633556
69	0x3de562c5	0.112004794
70	0xbda80ae5	-0.08205203
71	0xbb8d0d65	-0.0043045753
72	0x3cfb46ea	0.030673463
73	0x3d9b658f	0.0758773
74	0x3de89766	0.11357002
75	0x3dbb39cb	0.091418825
76	0x3d11371c	0.035452947
77	0xbb81a048	-0.0039558746
78	0xbd5715fa	-0.052511193
79	0xbdd5ec30	-0.1044544
80	0x3d8f9177	0.07010167
81	0x3c77f70d	0.015134585
82	0x3d4f649f	0.05063307
83	0x3dc98174	0.09839144
84	0x3d3d894c	0.046273515
85	0x3da21657	0.07914417
86	0x3d66c844	0.056343332
87	0x3da0c11d	0.078493334
88	0x3c4df490	0.012570515
89	0x3cc4e9cd	0.024037266
90	0xbd41f504	-0.047352806
91	0xbc30379f	-0.010755449
92	0xbdb6f16a	-0.08932765
93	0xbb2a04c0	-0.0025942773
94	0xbe03743e	-0.12837312
95	0xbdb0e056	-0.08636539
96	0xbdb3e9a8	-0.08784801
97	0x3d8cb4bf	0.06870412
98	0xbd54cf43	-0.051955473
99	0xbc3c1432	-0.011479424
100	0xbc542664	-0.012948606
101	0x3d8f0c51	0.06984771
102	0xbbbaf6ba	-0.0057056816
103	0xbcc0ba3f	-0.023526309
104	0x3d96ab75	0.073569216
105	0xbd8faea5	-0.07015733
106	0x3cdfddc8	0.027327433
107	0x3ddbdd45	0.10735563
108	0x3db53e36	0.088497564
109	0x3b9ab3fe	0.004721164
110	0xbc47809c	-0.012176659
111	0xbc83084a	-0.015995163
112	0x3d86cc25	0.06581906
113	0xbe2ff801	-0.1718445
114	0xbe12d8b1	-0.14340474
115	0xbd15330e	-0.036425643
116	0x3c79262c	0.015206855
117	0x3d8ea867	0.06965714
118	0x3d52f5b0	0.051503837
119	0x3c921065	0.017830083
120	0xbdaddc10	-0.08489239
121	0xbd5fd319	-0.054644678
122	0xbd5279e8	-0.05138579
123	0xbc9b8d3d	-0.018988246
124	0x3cfc3f90	0.030792028
125	0xbd10a89c	-0.03531705
126	0x3c9727d0	0.018451601
127	0xbc892912	-0.016743217
128	0x3c5616df	0.013066976
129	0x3b4e1c80	0.0031450093
130	0x3ca6be8c	0.020354532
131	0x3c5824bd	0.013192353
132	0x3d8302e3	0.06397035
133	0x3ddff0ca	0.10934599
134	0x3e04f0e8	0.12982523
135	0x3c3955d7	0.01131197
136	0x3d6b542c	0.05745332
137	0xbd5236d5	-0.051321823
138	0x3dfdd79e	0.12394641
139	0xbdd022b1	-0.10162867
140	0x3d8f4374	0.069952875
141	0xbd894b2b	-0.0670379
142	0xbd2fc0a4	-0.042908326
143	0x3bd738af	0.0065680365
144	0xbd69f4c9	-0.05711821
145	0xbc953fa6	-0.018218827
146	0x3dff137b	0.124548875
147	0x3d6b25bf	0.057409044
148	0x3dde5d9c	0.10857698
149	0xbbf1a43e	-0.0073743155
150	0xbd4a72ca	-0.049425878
151	0xbd0b23f8	-0.03396985
152	0xbbb40077	-0.0054932195
153	0xbd814350	-0.06311667
154	0xbbf812ca	-0.007570599
155	0x3dd2c774	0.10291949
156	0xbd7af922	-0.061272748
157	0x3d535597	0.051595297
158	0xbc7d2ec9	-0.015453049
159	0x3c35b262	0.011089893
160	0xbcb48375	-0.02203534
161	0xbd7d6316	-0.061862074
162	0xbd1868e8	-0.03720942
163	0xbd28ca24	-0.0412084
164	0xbbc14f57	-0.0058993506
165	0x3d7296fe	0.05922603
166	0x3d9d4b9c	0.07680437
167	0xbc0ddd81	-0.008658768
168	0xbdb98f41	-0.09060527
169	0xbd97a291	-0.07404054
170	0x3d05bc38	0.032650203
171	0x3d877494	0.066140324
172	0xbd33a153	-0.043855023
173	0xbd91f8ac	-0.071275085
174	0xbc8fd4e8	-0.017557576
175	0xbd6dee45	-0.05808856
176	0xbc98d7ba	-0.018657554
177	0x3d3cd1c4	0.046098486
178	0x3d8e06c0	0.06934881
179	0xbcbd38b5	-0.02309833
180	0xbd84aebc	-0.064786404
181	0x37500073	1.2397871e-05
182	0x3ce3ecda	0.0278229
183	0x3b1b425d	0.0023690679
184	0xbd800102	-0.06250192
185	0x3cb47ea4	0.022033043
186	0x3cce62ef	0.02519366
187	0x3d1272e7	0.03575411
188	0x3c9d077a	0.019168604
189	0x3dd08345	0.10181288
190	0x3ddd8172	0.10815705
191	0x3ba5a4be	0.005055039
192	0xbe0c7e7e	-0.13720128
193	0xbde2e1c6	-0.11078219
194	0xbd428577	-0.047490563
195	0xbd88706d	-0.066620685
196	0xbda5764b	-0.08079203
197	0xbcf68f84	-0.03009773
198	0xbb9f01ed	-0.0048525245
199	0x3d4ea2d8	0.05044827
200	0xbd04a376	-0.03238245
201	0x3d7f055a	0.062260963
202	0x3de401f4	0.11133185
203	0x3de77852	0.11302246
204	0xbd1e9449	-0.038715634
205	0xbe2969a7	-0.1654421
206	0xbdcf8386	-0.10132508
207	0x3c265e3e	0.010154305
208	0x3e00032f	0.12501214
209	0x3d3b7d00	0.045773506
210	0x3d8ac64f	0.067761056
211	0x3d874787	0.0660544
212	0x3d729232	0.059221454
213	0xbd267017	-0.04063424
214	0xbd422673	-0.04739995
215	0x3e2b81d7	0.16748749
216	0x3e43edc6	0.19133672
217	0xbcee239a	-0.02906971
218	0xbddef9e6	-0.10887508
219	0xbd1b6929	-0.037942085
220	0xbdce49a4	-0.100726396
221	0xbe04e3e4	-0.12977558
222	0xbda57bef	-0.08080279
223	0xbd7cd96b	-0.061730783
224	0x3d77c47c	0.060490116
225	0x3c33a707	0.010965115
226	0x3daa86d5	0.083264984
227	0x3e37adb8	0.17937362
228	0x3c4cb161	0.012493462
229	0xbdb8c5aa	-0.090220764
230	0xbca189c0	-0.019719005
231	0xbd121e8a	-0.035673656
232	0x3cdf0d69	0.027228074
233	0xbd8a29af	-0.06746232
234	0xbc6e78ea	-0.014555195
235	0x3d80a987	0.06282335
236	0xbd902f01	-0.07040215
237	0xbe1a5eb0	-0.15075183
238	0xbd5b6005	-0.05355837
239	0x3caad901	0.020855429
240	0x3e10a9fb	0.14127342
241	0x39793150	0.00023764861
242	0x3d81e679	0.06342787
243	0x3d3c9ad0	0.04604608
244	0x3d7868ec	0.060646936
245	0x3d04f8f8	0.032463998
246	0xbdd3c186	-0.10339646
247	0xbc50bd80	-0.012740493
248	0xbd826bec	-0.06368241
249	0x3c1ea4c3	0.009682837
250	0x3c31f8b2	0.010862516
251	0x3c8c2535	0.017107585
252	0xbcd0efb2	-0.02550492
253	0x3d78d7bc	0.060752615
254	0xbdaf615a	-0.0856349
255	0x3bb88d82	0.0056321034

tcn.layers.1.conv1.bias f4 [16]
0	0xbdfe2a1e	-0.12410377
1	0xbdbc4b83	-0.0919409
2	0x3ddb7c70	0.10717094
3	0xbcfcf83a	-0.030880082
4	0xbdb4bc97	-0.08825033
5	0xbc87b831	-0.016567321
6	0xbd16522b	-0.036699455
7	0xbdbe078b	-0.092787825
8	0xbdd7619a	-0.10516663
9	0xbd81e842	-0.06343128
10	0xbe3034e1	-0.17207672
11	0xbe20393c	-0.15646833
12	0x3d0f6fa6	0.035018586
13	0x3dbcc05b	0.092163764
14	0x3d82b5c8	0.06382328
15	0xbd18bbbc	-0.037288412

tcn.layers.1.conv1.weight_g f4 [16, 1, 1]
0	0x3f17c3f6	0.5928339
1	0x3f498d66	0.7873138
2	0x3f332691	0.6998072
3	0x3f1cecf6	0.61299074
4	0x3f4e8ebf	0.80686563
5	0x3f191f4a	0.5981337
6	0x3f181fc2	0.5942346
7	0x3f7d49c3	0.98940676
8	0x3f715fe2	0.9428693
9	0x3f2faa6a	0.68619406
10	0x3f33dd5c	0.7025964
11	0x3f3ace44	0.72970986
12	0x3f51124f	0.8166856
13	0x3f49d992	0.7884761
14	0x3f559ca3	0.83442134
15	0x3f6898d1	0.9085818

tcn.layers.1.conv1.weight_v f4 [16, 16, 5]
0	0xbbdbef8f	-0.006711907
1	0x3d47bfaf	0.048766788
2	0x3cfbcc77	0.030737145
3	0x3b9a13dd	0.004702075
4	0x3d8f6469	0.070015736
5	0x3dbed289	0.093175
6	0x3dbdcb35	0.09267274
7	0xbb4742c8	-0.0030404795
8	0x3d478962	0.048715003
9	0xbd77b28a	-0.060473002
10	0xbdea444e	-0.11438809
11	0x3d0d0c22	0.0344354
12	0xbdb047e1	-0.0860746
13	0x3ca7d739	0.020488368
14	0xbdde07e4	-0.10841349
15	0x3d27b233	0.04094143
16	0x3ced36a3	0.028956717
17	0xbd99f898	-0.075181186
18	0x3d868ba2	0.065696016
19	0xbdaa51f0	-0.083164096
20	0x3d130e36	0.035902224
21	0x3d7b1cc5	0.061306734
22	0xbd88b696	-0.066754505
23	0x3e0e481e	0.13894698
24	0xbd932114	-0.071840435
25	0xbd04b280	-0.032396793
26	0x3e0c1a61	0.13681938
27	0x3c4d65f9	0.012536519
28	0x39fa5343	0.0004774575
29	0x3d3d72ce	0.046252064
30	0xbba3db2d	-0.005000493
31	0x3dba5f21	0.09100176
32	0x3dd9368a	0.106061056
33	0x3d3624d7	0.044468727
34	0x3cf546ae	0.02994093
35	0x3b6384c5	0.0034716588
36	0xb856a125	-5.1171653e-05
37	0xba9544d1	-0.0011388307
38	0x3b24ef90	0.0025167204
39	0x3d78590c	0.060631797
40	0x3d216987	0.03940728
41	0xbcb73d52	-0.022368107
42	0x3cec0395	0.028810302
43	0x3b5e39dd	0.0033909
44	0x3cecd9cf	0.028912453
45	0x3dcea0a8	0.100892365
46	0xbd19cdbe	-0.037549727
47	0x3d25ec55	0.040508587
48	0xbce2d8a7	-0.027691199
49	0xbd565366	-0.05232563
50	0xbdc45fda	-0.09588595
51	0xbca25e70	-0.019820422
52	0x3da7175f	0.081587546
53	0xbda4c011	-0.08044446
54	0x3d00cc80	0.031445026
55	0x3da3c9b0	0.07997453
56	0xbda8d10d	-0.08242998
57	0x3d900203	0.07031634
58	0x3c9f9373	0.019479489
59	0xbd98ffda	-0.07470675
60	0xbcb2634f	-0.02177587
61	0xbe029c1a	-0.1275486
62	0x3d5e4e61	0.054273967
63	0x3d4fb66b	0.050711077
64	0x3dbd9662	0.09257199
65	0x3daf65d6	0.085643455
66	0x3d86a5af	0.065745704
67	0x3dd4e036	0.10394327
68	0x3ce85d5b	0.028364828
69	0xbd9838af	-0.074326865
70	0x3de93b74	0.11388293
71	0x3d8a6d47	0.06759124
72	0x3cdf9846	0.02729429
73	0xbcad345c	-0.021143131
74	0x3dc950e5	0.098298825
75	0x3852c7d8	5.025402e-05
76	0x3d6d8613	0.05798919
77	0xbc9d6042	-0.019210938
78	0x3db952d1	0.09048999
79	0xbda4542f	-0.08023869
80	0x3cc8752a	0.02446993
81	0x3d6c79f1	0.05773348
82	0xbce60205	-0.028077135
83	0x3ccf63b2	0.025316093
84	0xbd42317e	-0.04741048
85	0x3c6f0255	0.014587958
86	0x3d8cdb28	0.06877738
87	0x3d58fcae	0.05297535
88	0x3cffa47e	0.031206366
89	0xbd4682a7	-0.048464444
90	0xbdf22357	-0.11823147
91	0xbdd582a9	-0.10425312
92	0x3dadc669	0.08485109
93	0x3d8ec348	0.06970841
94	0xbd6a068c	-0.05713515
95	0xbd81c826	-0.063370034
96	0x3dcfca23	0.101459764
97	0xbccff240	-0.025384068
98	0x3db9deea	0.090757206
99	0x3dc143be	0.09436749
100	0xbd977326	-0.0739501
101	0xbdc12a65	-0.09431914
102	0x3d6fc9ca	0.05854205
103	0x3d159694	0.036520556
104	0x3d7d4c69	0.06184045
105	0x3d60d6d2	0.05489237
106	0x3d36f0df	0.044663306
107	0xbdd6b9f4	-0.104846865
108	0xbce79c41	-0.02827275
109	0xbcc4d858	-0.024028942
110	0x3d8d4cc0	0.068994045
111	0xbd239f25	-0.039946694
112	0xbd74d0b8	-0.059769362
113	0xbdda6680	-0.106640816
114	0xbdd40e63	-0.103543065
115	0x3d247934	0.04015465
116	0x3cc6037f	0.024171589
117	0x3d0538a3	0.032524716
118	0xbcdcb491	-0.02694157
119	0xbd1d1e02	-0.038358696
120	0xbce69852	-0.028148804
121	0x3d83e1f8	0.064395845
122	0xbd6a4b21	-0.057200555
123	0xbb98a95b	-0.0046588606
124	0xba63ec59	-0.00086945813
125	0x3d23764a	0.03990773
126	0xbd69f373	-0.057116937
127	0x3d1633a5	0.036670346
128	0xbce50c87	-0.027960075
129	0x3d72ae0e	0.059248023
130	0x3d85e799	0.06538314
131	0xbc3548e6	-0.011064744
132	0xbb4f6909	-0.00316483
133	0xbdeeeebe	-0.1166663
134	0xbd70aaf6	-0.05875679
135	0xbd888cc5	-0.06667475
136	0xbe284618	-0.16432989
137	0xbd1fc707	-0.039008167
138	0x3dd1164a	0.102093294
139	0x3d280c1b	0.04102717
140	0xbd122a11	-0.03568465
141	0xbe3b464a	-0.18288532
142	0xb8ab8aa4	-8.179739e-05
143	0x3e15a2c2	0.14612868
144	0x3df1ced7	0.1180703
145	0xbd72f305	-0.059313793
146	0xbe024059	-0.12719859
147	0xbd7d4a52	-0.061838455
148	0x3d9ad26e	0.075596675
149	0x3c3d448e	0.011551989
150	0x3dd98469	0.10620958
151	0xbd88fb29	-0.0668853
152	0xbdc90c98	-0.09816855
153	0xba92d35a	-0.0011201904
154	0x3cd81784	0.0263784
155	0xbdff191d	-0.12455962
156	0x3d87eae3	0.06636598
157	0xbcb4cf50	-0.02207151
158	0xbd617699	-0.055044744
159	0x3d48ac52	0.048992462
160	0xbd85e009	-0.06536872
161	0xbd88457f	-0.0665388
162	0xbd035ccb	-0.032070916
163	0x3db4b02f	0.08822667
164	0x3e092d2e	0.13396141
165	0x3d4c7b9f	0.04992258
166	0xbd5e886b	-0.054329317
167	0xbc194465	-0.009354685
168	0x3dde4d4f	0.10854589
169	0xbd1c4de6	-0.038160227
170	0x3c6b1bce	0.014349891
171	0xbd6ad2e4	-0.057330027
172	0xbe2a4e9b	-0.16631548
173	0xbd4e4ca8	-0.050366074
174	0x3da03d36	0.07824175
175	0xba82b7c0	-0.0009972975
176	0xbc01b9fe	-0.007917879
177	0x3d3efd2c	0.046628162
178	0x3dac23f8	0.08405298
179	0x3dc96d34	0.09835282
180	0x3dbfa050	0.09356749
181	0xbc71c337	-0.0147560155
182	0xbcc573e7	-0.024103118
183	0x3d995e18	0.0748865
184	0x3b9acfeb	0.004724493
185	0x3c12bd0c	0.008956205
186	0xbd0b6d64	-0.03403987
187	0xbd71ea8d	-0.059061576
188	0x3dc26572	0.094920054
189	0xbcf96d6b	-0.030447682
190	0xbd7638fb	-0.060112935
191	0xbda11d8d	-0.078669645
192	0xbd86fa65	-0.06590728
193	0x3c7a01f8	0.015259258
194	0x3d3d9a7b	0.046289902
195	0xbd645887	-0.05574849
196	0x3c8db61b	0.017298749
197	0xbd53491c	-0.051583394
198	0x3d85d179	0.06534094
199	0x3dd053d2	0.101722375
200	0xbcd356c7	-0.025798215
201	0xbd219449	-0.039448056
202	0x3d901c23	0.07036617
203	0x3b84ec25	0.004056471
204	0x3d5b5c4f	0.05355483
205	0xbd3f7e2b	-0.046751183
206	0x3d94000a	0.0722657
207	0x3d0f5bf5	0.034999806
208	0xbd2b39eb	-0.04180328
209	0x3d7dc97f	0.06195974
210	0x3dc5be11	0.09655393
211	0x3d5a2cd3	0.053265404
212	0xbd6bc7db	-0.057563644
213	0xbcdcc5d7	-0.026949806
214	0x3da34110	0.07971394
215	0x3dcc8ba9	0.099875756
216	0x3d009ca9	0.031399403
217	0x3ddd6254	0.1080977
218	0x3c037683	0.008023861
219	0x3e1aca11	0.15116145
220	0x3de22b84	0.11043456
221	0x3d3b9239	0.045793746
222	0xbcc884a2	-0.024477307
223	0x3e15a39c	0.14613193
224	0x3e6a847a	0.22902098
225	0x3db2ae1f	0.08724617
226	0xbd540957	-0.05176672
227	0xbc9b842d	-0.018983925
228	0xbc65db89	-0.014029392
229	0x3b035ac5	0.0020043117
230	0x3a7fefd1	0.00097632135
231	0xbc3aa77f	-0.011392473
232	0x3d6f147b	0.05836914
233	0x3d1ea2c2	0.038729437
234	0xbcc31c13	-0.023817098
235	0x3d50af02	0.05094815
236	0xbdc93e22	-0.09826304
237	0xbda79b2f	-0.08183896
238	0x3c62f763	0.013852927
239	0x3c8ae05d	0.016952688
240	0x3b224084	0.0024757693
241	0xbda19972	-0.078905955
242	0xbd984681	-0.074353226
243	0xbe01e6dc	-0.12685722
244	0xbdb62cc1	-0.08895255
245	0xbdb4f191	-0.08835138
246	0xbd139566	-0.03603115
247	0x3c8d274b	0.01723065
248	0x3daff68c	0.08591947
249	0xbd94fb42	-0.07274486
250	0xbb2311ad	-0.0024882362
251	0x3e164459	0.1467451
252	0xbde618a1	-0.11235166
253	0xbb8394a0	-0.00401552
254	0xbc6bf949	-0.014402696
255	0xbd90f9a8	-0.07078868

tcn.layers.1.conv2.bias f4 [16]
0	0x3b34bb18	0.0027577337
1	0x3d6c2b6e	0.057658605
2	0xbb94a486	-0.0045362143
3	0x3c1af2b3	0.009457278
4	0xbd5a70b3	-0.053330135
5	0x3dc902c1	0.098149784
6	0x3d3d6168	0.046235472
7	0x3d711620	0.05885899
8	0xbd73fc37	-0.059566703
9	0x3dbe95b2	0.09305896
10	0x3d8ece57	0.0697295
11	0x3cd8a9a9	0.026448088
12	0x3d7d9d30	0.061917484
13	0x3da373ef	0.07981097
14	0x3d866c24	0.06563595
15	0xb957b8cc	-0.0002057284

tcn.layers.1.conv2.weight_g f4 [16, 1, 1]
0	0x3f22f786	0.6365894
1	0x3f119b2f	0.56877416
2	0x3f22e677	0.6363291
3	0x3f381a73	0.7191536
4	0x3f455dbc	0.7709615
5	0x3f2d24de	0.6763438
6	0x3f2c606a	0.67334616
7	0x3f0f310e	0.55934227
8	0x3f250e08	0.64474535
9	0x3f6642d5	0.8994573
10	0x3f20228a	0.625527
11	0x3f35fa1d	0.7108477
12	0x3f221f0b	0.6332862
13	0x3f1b027e	0.6055068
14	0x3f52374f	0.82115644
15	0x3f50b749	0.8152967

tcn.layers.1.conv2.weight_v f4 [16, 16, 5]
0	0x3de4cb42	0.11171581
1	0x3dc5207b	0.09625336
2	0xbca9f754	-0.020747818
3	0xbd86de30	-0.06585348
4	0xbd4fdae3	-0.050745856
5	0xbdc59f5d	-0.09649537
6	0xbbbf7890	-0.0058432296
7	0x3d01a4d1	0.03165132
8	0x3c4b2b19	0.012400412
9	0x3db24568	0.087046444
10	0xbd634af8	-0.055491418
11	0x3cfc0884	0.03076578
12	0x3dc7b34c	0.09750995
13	0x3c96b1cd	0.018395329
14	0x3d435f69	0.047698412
15	0xbd03c016	-0.03216561
16	0x3bfbeeb7	0.007688369
17	0xbdca2cdf	-0.0987184
18	0x3b24e357	0.002515992
19	0x3d619393	0.05507238
20	0x3db988ed	0.0905932
21	0x3d82112c	0.063509315
22	0x3ceb965d	0.028758222
23	0x3c2c043f	0.010499059
24	0x3d08f790	0.03343922
25	0x3d4c554c	0.049886033
26	0x3ba17745	0.004927548
27	0x3c8298bd	0.015941972
28	0xbd420353	-0.04736645
29	0xbbe4411f	-0.006965771
30	0x3d656190	0.056001246
31	0x3d83a3ea	0.064277485
32	0x3d641082	0.055679806
33	0xbd583f41	-0.0527947
34	0x3db5be51	0.088741906
35	0xbc162828	-0.009164847
36	0x3d12d9b9	0.035852168
37	0x3d80ccf5	0.062890925
38	0x3de08ea8	0.109647095
39	0xbcab6f9d	-0.020927245
40	0xbd9334ea	-0.07187827
41	0xbd07aa39	-0.03312132
42	0xbc9de8c7	-0.019276036
43	0x3d926360	0.071478605
44	0x3d556513	0.052098345
45	0xbdd48675	-0.10377208
46	0xbcb68020	-0.022277892
47	0xbd3a455e	-0.04547631
48	0xbd3c7cec	-0.046017572
49	0xbcdf1bc5	-0.027234921
50	0xbd994803	-0.07484438
51	0x3d50d7aa	0.050986923
52	0xbd7af699	-0.06127033
53	0xbd5d07f4	-0.053962663
54	0xbbc8d8b3	-0.006129348
55	0x3d5f77f3	0.054557752
56	0x3e28f10c	0.16498202
57	0x3dc86c31	0.09786261
58	0x3d41fc22	0.047359593
59	0x3ca99ace	0.0207037
60	0x3dbb33d3	0.09140744
61	0xbd66220d	-0.056184817
62	0xbda03d30	-0.078241706
63	0x3aaf1aa5	0.0013359381
64	0xbd4f1185	-0.050553817
65	0xbdddad74	-0.10824099
66	0xbda53225	-0.08066205
67	0xbc9e2486	-0.019304525
68	0xbc009628	-0.0078483
69	0xbe186d99	-0.14885558
70	0x3e14e2b4	0.14539605
71	0xbba80a87	-0.005128208
72	0x3e181f4f	0.14855693
73	0x3db28c6b	0.08718189
74	0xbde87651	-0.11350692
75	0xbcc27227	-0.023736073
76	0xbcbf860c	-0.023379348
77	0xbc74de22	-0.014945539
78	0x3dee3470	0.116310954
79	0x3ca263ef	0.019823043
80	0x3c00928d	0.00784744
81	0xbb13749e	-0.002249993
82	0xbd6eec73	-0.058330964
83	0x3d7c9ea1	0.061674718
84	0x3d9c3a1d	0.07628272
85	0xbde76bd1	-0.11299861
86	0x3c3a5f96	0.0113753285
87	0xbd6ad7ff	-0.057334896
88	0x3d921327	0.07132559
89	0xbda050cc	-0.07827911
90	0x3d495a33	0.049158286
91	0xbd1b407f	-0.037903305
92	0x3d98003f	0.07421922
93	0xbd816677	-0.06318372
94	0x3ba21f7f	0.0049476023
95	0xba31fd5e	-0.0006789769
96	0x3cc1e718	0.023669764
97	0x3cafefd2	0.02147666
98	0x3d26941f	0.040668603
99	0xbca051e8	-0.019570306
100	0xbd2ce815	-0.04221352
101	0x3d691374	0.056903318
102	0x3e1113c1	0.14167692
103	0x3dd92103	0.106019996
104	0xbc9074ce	-0.017633822
105	0xb9844b8f	-0.00025233297
106	0xbc080dab	-0.00830404
107	0xbc69c527	-0.014268196
108	0x3d466e4d	0.048445035
109	0xbd376f87	-0.044784095
110	0x3c1f6208	0.009727962
111	0xbd9c36d3	-0.076276444
112	0xbcb75f40	-0.022384286
113	0x3ded78f9	0.11595339
114	0x3d81eb46	0.06343703
115	0xbd803889	-0.06260783
116	0xbd23532a	-0.039874233
117	0xbc48ccae	-0.012255831
118	0xbe15595f	-0.14584874
119	0xbde4094b	-0.11134585
120	0x3d4d315f	0.050095912
121	0x3e075d20	0.13219118
122	0x3df8e267	0.12152558
123	0xbcecd56f	-0.028910367
124	0xbdd39728	-0.10331565
125	0x3ddbecae	0.107385024
126	0x3cd9bd39	0.026579486
127	0x3dbac518	0.09119624
128	0x3df1a128	0.11798316
129	0xbcdbfc23	-0.026853627
130	0x3cf4b0e5	0.029869506
131	0x3cbb1b6c	0.022840224
132	0xbcbdb3ca	-0.02315702
133	0x3dab83b0	0.08374727
134	0x3cb368df	0.021900592
135	0xbc5f12fe	-0.013615368
136	0xbd557897	-0.052116957
137	0x3de6f340	0.11276865
138	0xbd625246	-0.055254243
139	0x3de02d09	0.1094609
140	0xbdb2543d	-0.087074734
141	0xbd60727f	-0.054796692
142	0xbd1beac8	-0.0380657
143	0x3d5224a0	0.05130446
144	0xbdcf2d98	-0.10116118
145	0xbce0d31d	-0.027444417
146	0x3d8e26c2	0.06940986
147	0xbe34c854	-0.17654544
148	0xbdb4c9d3	-0.088275574
149	0x3bd237a2	0.0064153234
150	0xbd183d2e	-0.03716772
151	0x3da7c2dc	0.08191463
152	0xbcadf837	-0.021236522
153	0x3d8912b4	0.066930205
154	0x3de1c10d	0.1102315
155	0xbcaaab44	-0.020833619
156	0xbcd8c819	-0.026462601
157	0x3c95c8f3	0.018284297
158	0x3cef8dd5	0.029242435
159	0xbdca8a94	-0.09889713
160	0x3dd53c08	0.10411841
161	0xbd0dcc74	-0.03461881
162	0x3d9cc810	0.076553464
163	0xbcc41b22	-0.02393872
164	0xba9a49cc	-0.0011771261
165	0x3d56d5c5	0.05244996
166	0x3dbfbebc	0.093625516
167	0x3c5609dd	0.013063875
168	0x3dd67412	0.104713574
169	0x3d2f7b7f	0.042842384
170	0xbdd009d5	-0.10158125
171	0x3d4fa7f9	0.0506973
172	0x3c65c4cc	0.014023971
173	0xbc3929b2	-0.011301445
174	0xbd23cde2	-0.039991267
175	0xbdcf649f	-0.10126614
176	0xbdcc06a5	-0.09962205
177	0xbca584f7	-0.020205004
178	0xbdd204f7	-0.10254853
179	0xbab0cf5d	-0.0013489533
180	0xbcf49592	-0.029856477
181	0xbd21b222	-0.03947652
182	0xbccbdb5d	-0.024884874
183	0x3d3f2fd3	0.046676468
184	0x3dc0efd6	0.09420745
185	0xbdb93917	-0.09044092
186	0xbdb8dfe7	-0.09027081
187	0x3da3361c	0.07969305
188	0xbd1c33dc	-0.038135394
189	0xbdb7e404	-0.089790374
190	0x3d096002	0.033538826
191	0xbdbcb560	-0.09214282
192	0x3b9dd1f5	0.0048162886
193	0x3d30a8ae	0.043129615
194	0x3da0b043	0.07846119
195	0xbd369c2b	-0.044582527
196	0xbc460466	-0.01208601
197	0xbd5f7bf5	-0.054561574
198	0xbd43f788	-0.047843486
199	0xbc3cfdd4	-0.011535127
200	0x3d33a4f0	0.04385847
201	0x3dc62e5a	0.096768096
202	0x3d49c781	0.049262527
203	0x3d8558f9	0.06511111
204	0xbd8bddaa	-0.068293884
205	0x3dd40f81	0.1035452
206	0x3da3c34a	0.07996233
207	0x3da22985	0.079180755
208	0x3e021415	0.12702973
209	0x3d9b5dee	0.07586275
210	0xbd8cedbf	-0.06881284
211	0xbd77c685	-0.060492057
212	0xbc87bbc9	-0.016569035
213	0x3d78aca8	0.060711533
214	0x3d315cdf	0.04330146
215	0x3d2e7e34	0.042600825
216	0x3d1da5e7	0.038488295
217	0x3ca335b7	0.019923074
218	0x3cac8f44	0.021064408
219	0xbd5e3f04	-0.054259315
220	0xbd272f91	-0.040816847
221	0xbe0cb040	-0.13739109
222	0xbdf1babb	-0.11803194
223	0x3ca349ed	0.019932711
224	0x3ca24725	0.019809315
225	0xbd81d5de	-0.0633962
226	0xbc0240f1	-0.007950054
227	0xbe6c6c4b	-0.23088185
228	0x3b512b3f	0.0031916646
229	0xbc44e4ce	-0.012017442
230	0x3db19009	0.08670051
231	0x3cca008e	0.024658468
232	0x3d5da8d5	0.05411609
233	0xbdffc528	-0.124887764
234	0xbd8f101d	-0.06985495
235	0x3cc88534	0.024477579
236	0x3d24ca20	0.040231824
237	0x3d8fe0fa	0.07025333
238	0xbdb4e299	-0.088322826
239	0xbe1c9a8a	-0.15293327
240	0x3c8d8891	0.017277034
241	0x3da2a8b6	0.07942335
242	0x3db50e37	0.08840602
243	0x3d477b57	0.04870161
244	0xbcc36739	-0.023852931
245	0xbc450bed	-0.012026769
246	0x3c927e16	0.017882388
247	0x3d3168e4	0.043312922
248	0x3cf42a07	0.029805196
249	0x3c7b34a3	0.015332374
250	0x3d0e5792	0.034751482
251	0x3d408832	0.047004886
252	0xbde8ee1d	-0.113735415
253	0x3c436f95	0.011928459
254	0xbdefb25f	-0.117039435
255	0x3cc5cb27	0.024144722

tcn.layers.2.conv1.bias f4 [16]
0	0xbd841b68	-0.0645054
1	0x3c9f89b7	0.019474847
2	0x3dbd7d6b	0.09252437
3	0x3d44b00d	0.048019458
4	0xbcf91fb6	-0.030410629
5	0xbd773860	-0.060356498
6	0x3ded5645	0.1158872
7	0xbd465f7c	-0.048430905
8	0xbd92a8f0	-0.071611285
9	0x3db41994	0.08793941
10	0x3985cd75	0.00025520814
11	0xbb4560f7	-0.003011761
12	0xbdc937b2	-0.09825076
13	0x3dbcc8f1	0.09218014
14	0xbd8442b3	-0.06458034
15	0x3b91d672	0.0044506127

tcn.layers.2.conv1.weight_g f4 [16, 1, 1]
0	0x3f3b2387	0.73101085
1	0x3f268694	0.650491
2	0x3f3f8552	0.74812806
3	0x3f523d1e	0.8212451
4	0x3f5470f8	0.82984877
5	0x3f6191bf	0.88113016
6	0x3f783216	0.96951425
7	0x3f664ca0	0.8996067
8	0x3f1c9de1	0.61178404
9	0x3f28d2a9	0.6594644
10	0x3f082eaf	0.53196234
11	0x3f15ee45	0.58566695
12	0x3f273df7	0.65328926
13	0x3f59b352	0.85039246
14	0x3f33d5f1	0.70248324
15	0x3f500ed0	0.812726

tcn.layers.2.conv1.weight_v f4 [16, 16, 5]
0	0x3d419875	0.047264535
1	0xbe2aca28	-0.16678679
2	0xbd655518	-0.055989355
3	0xbdcf03be	-0.10108136
4	0xbd7c5b8a	-0.061610736
5	0x3d716ee4	0.058943644
6	0x3d66206b	0.05618326
7	0xbc5dfc5c	-0.013548937
8	0x3d4ecee5	0.05049028
9	0xbd0cb441	-0.03435159
10	0xbbb972ec	-0.0056594517
11	0x3d6499f0	0.05581087
12	0xbdc81741	-0.0977006
13	0xbd0d2be5	-0.03446569
14	0xbdf52300	-0.11969566
15	0x3d028ee4	0.031874552
16	0xbd91ad1a	-0.07113095
17	0xbdba4da0	-0.09096837
18	0xbd1b9afa	-0.037989594
19	0x3d8c940c	0.06864175
20	0x38c22e4e	9.259266e-05
21	0x3d26cc85	0.04072239
22	0xbd866805	-0.06562809
23	0xbc9ba0ad	-0.018997515
24	0xbdb90835	-0.090347685
25	0x3af038c2	0.0018327462
26	0xbd975855	-0.07389895
27	0xbcbf4984	-0.023350485
28	0xbcc07849	-0.023494856
29	0xbdd4d0b6	-0.10391371
30	0x3df28fc7	0.118438296
31	0x3d0da2b6	0.034579
32	0x3da8402f	0.08215367
33	0xbd172d60	-0.036908507
34	0xb8213e03	-3.8443144e-05
35	0xbd236184	-0.03988792
36	0x3d00055b	0.031255107
37	0xbd9c9144	-0.07644895
38	0x3cf4b46d	0.02987119
39	0xbdae397d	-0.08507059
40	0x3db48331	0.08814085
41	0xbe08a580	-0.13344383
42	0xbd7f0aa3	-0.062266003
43	0xbd88b044	-0.06674245
44	0xbcf90efd	-0.030402655
45	0x3d8f85e8	0.070079625
46	0x3dbd4198	0.09241027
47	0x3d9a1b72	0.07524766
48	0x3d94857c	0.072520226
49	0xbcdff54d	-0.027338648
50	0x3d83e1d3	0.06439557
51	0xbcdf3248	-0.027245656
52	0xbd6f6339	-0.058444235
53	0x3ca91f24	0.020644732
54	0xbd103066	-0.035202406
55	0x3df96b16	0.12178628
56	0x3de7e918	0.11323756
57	0x3cced0c4	0.025246032
58	0xbcbda07f	-0.02314782
59	0xbd9a9062	-0.0754707
60	0x3c4281e7	0.011871791
61	0xbbdfb20b	-0.0068266443
62	0xbd8f899e	-0.0700867
63	0xbdcc5b67	-0.09978371
64	0xbdc3dddf	-0.09563803
65	0x3d41bc19	0.047298525
66	0x3db87c22	0.090080515
67	0xbddea9d6	-0.108722374
68	0x3d437e47	0.04772785
69	0xbdb47ad1	-0.08812488
70	0xbde32723	-0.11091449
71	0x3db6e996	0.08931272
72	0x3d364299	0.044497106
73	0xbd161f8b	-0.036651175
74	0x3dbc57c9	0.09196431
75	0x3c333af2	0.010939347
76	0xbd4602db	-0.048342567
77	0x3d3584cd	0.0443161
78	0xbc91036e	-0.01770183
79	0xbd295f09	-0.0413504
80	0xbda1967a	-0.07890029
81	0x3d34405f	0.0440067
82	0x3d86e27e	0.06586169
83	0xbd3fd9dc	-0.046838626
84	0x3d0a04bd	0.033695925
85	0xbd63f4be	-0.055653326
86	0xbca30e2e	-0.019904222
87	0xbd3b4e50	-0.04572898
88	0xbde4ad95	-0.11165921
89	0xbca4f181	-0.02013469
90	0xbdc2e06e	-0.09515463
91	0x3c8352ba	0.016030658
92	0xbcd8dfd3	-0.026473915
93	0xbd1e90f7	-0.038712468
94	0xbd5b75b7	-0.05357906
95	0xbcf9e620	-0.03050524
96	0x3d0f2dd5	0.03495582
97	0x3dccc606	0.099987075
98	0xbd684b1c	-0.056712255
99	0xbda2cb56	-0.079489395
100	0xbd202cbf	-0.039105173
101	0xbdabdf80	-0.083922386
102	0xbd208871	-0.03919262
103	0xbdea92fb	-0.114538155
104	0x3d49bd85	0.049253006
105	0x3d76aa9e	0.060221307
106	0xbd7f346a	-0.062305845
107	0x3d8119d0	0.063037515
108	0x3d0d0d5b	0.034436565
109	0xbdc054fe	-0.09391211
110	0x3a87e691	0.0010368397
111	0xbdfc1dac	-0.12310347
112	0xbdcf55fe	-0.101238236
113	0xbd868b41	-0.06569529
114	0xbe13eabc	-0.14445013
115	0xbd161392	-0.036639757
116	0x3c816dc9	0.01579942
117	0x3c707dde	0.014678447
118	0xbdbbef94	-0.09176555
119	0xbdd55ee8	-0.104184926
120	0xbcac36bb	-0.021022191
121	0x3da2fdab	0.079585396
122	0x3c68dcc4	0.014212791
123	0x3d989717	0.07450693
124	0xbdb13b63	-0.08653905
125	0xbcac6877	-0.021045906
126	0xbde2a2f5	-0.11066238
127	0xbd28eb9a	-0.041240312
128	0xbdcc4401	-0.09973908
129	0xbd8a1ed4	-0.06744161
130	0xbd822d3c	-0.06356284
131	0xbdbb7b22	-0.09154345
132	0xbd418157	-0.04724249
133	0x3a4f9d44	0.0007919858
134	0xbd046d31	-0.032330696
135	0x3db46616	0.08808534
136	0x3be8758c	0.007094091
137	0x3b4778d2	0.0030437005
138	0xbe1357b8	-0.14388931
139	0xbd2c46f0	-0.04205984
140	0xbd2a35e5	-0.041555304
141	0xbd853cf8	-0.065057695
142	0xbcda58ec	-0.02665373
143	0xbda69726	-0.08134298
144	0xbd438ab9	-0.047739718
145	0x3d756e9c	0.05991994
146	0x3d81b2b7	0.06332915
147	0xbdca658f	-0.09882652
148	0xbc01a5d4	-0.007913072
149	0xbdb0d3bb	-0.086341344
150	0x3e07284e	0.13198969
151	0x3d9c39f4	0.07628241
152	0x3d0ffa7e	0.035150997
153	0xbdd1bfbf	-0.10241651
154	0xbe000216	-0.12500796
155	0xbcde551a	-0.027140189
156	0xbda682db	-0.081304274
157	0xbd8c2123	-0.06842258
158	0x3ca95fc5	0.02067555
159	0xbd2cfcd7	-0.042233314
160	0x3d066577	0.03281161
161	0xbd21a2aa	-0.03946177
162	0xbdd9f069	-0.10641558
163	0xbda9cfe9	-0.08291609
164	0xbdbe10cc	-0.092805475
165	0xbd94cfd1	-0.072662
166	0xbcf2defd	-0.029647345
167	0x3ca85f93	0.020553386
168	0x3bae67f7	0.005322452
169	0x3d8af45d	0.0678489
170	0x3c1d4cde	0.009600846
171	0xbd38d920	-0.04512894
172	0x3bba597e	0.005686938
173	0xbe108cd5	-0.14116223
174	0xbdb2e125	-0.08734349
175	0x3d6bfd33	0.057614516
176	0xbcacb9b6	-0.021084648
177	0x3d8efc5c	0.069817275
178	0xbc6fb7c7	-0.014631218
179	0x3d854aec	0.06508431
180	0xbc7f23e3	-0.015572521
181	0xbcc9f70f	-0.02465394
182	0xbdd8e761	-0.10591007
183	0xbe04bd16	-0.12962756
184	0xbd8423cf	-0.064521424
185	0x3d399834	0.045311168
186	0xbc918f2a	-0.017768461
187	0xbcd7b3a7	-0.026330782
188	0xbc54e48d	-0.012993944
189	0x3de50d6c	0.11184201
190	0x3d0b43c4	0.034000173
191	0xbc386019	-0.01125338
192	0xbd897b8d	-0.067130186
193	0xbd01877a	-0.03162334
194	0x3d97cd53	0.07412209
195	0x3ddddc87	0.10833078
196	0xbd55a1e3	-0.05215634
197	0x3c4c12ae	0.012455625
198	0xbd436d51	-0.047711674
199	0x3d38d5cd	0.04512577
200	0xbcc10798	-0.023563191
201	0xbda54a9f	-0.080708735
202	0xbe117371	-0.14204194
203	0xbd1326c3	-0.035925638
204	0xbb05d5ca	-0.0020421618
205	0xbe16e663	-0.14736323
206	0x3d06fe14	0.03295715
207	0xbcd27c8e	-0.025694158
208	0x3d46806b	0.048462313
209	0x3d203988	0.039117366
210	0xbdb7aee9	-0.08968908
211	0xbd3c9c6e	-0.04604762
212	0x3ce41284	0.02784086
213	0x3cc5cea3	0.024146384
214	0xbda9c157	-0.0828883
215	0xbdce46fa	-0.100721315
216	0xbaf8c847	-0.0018980586
217	0xbe038271	-0.12842728
218	0x3c927f66	0.017883014
219	0xbb873239	-0.00412586
220	0xbc8a3cf9	-0.016874777
221	0x3c360832	0.011110352
222	0xbd0723d0	-0.032993138
223	0xbdb8bfc4	-0.090209514
224	0x3cdee0a4	0.027206726
225	0xbe13bade	-0.14426753
226	0xbdac5b56	-0.084158584
227	0xbd43a8e1	-0.047768477
228	0xbcd4501e	-0.02591711
229	0x3d847fd1	0.064696915
230	0xbd273c6d	-0.04082911
231	0x3d125915	0.035729486
232	0x3d4f6a34	0.050638393
233	0x3cd45147	0.025917662
234	0x3d9c7731	0.076399215
235	0xbd943e09	-0.07238395
236	0xbd5e8da3	-0.054334294
237	0x3c36e9c0	0.011164129
238	0x3d27616b	0.04086439
239	0x3d1ce0bc	0.03830026
240	0xbb495e1d	-0.0030726262
241	0x3d42b9c6	0.04754045
242	0x3d70172e	0.058615856
243	0x3e06229b	0.13099138
244	0x3c93fa38	0.01806365
245	0xbc829d28	-0.015944079
246	0xbd085ad3	-0.03328974
247	0xbce701b5	-0.028199056
248	0x3d1b9f6b	0.03799383
249	0x3b85620d	0.0040705265
250	0xbd30f62c	-0.043203518
251	0x3c8150ae	0.015785541
252	0xbcb7c890	-0.022434503
253	0x3e2c789a	0.16842881
254	0x3da8c90a	0.0824147
255	0x3bab0204	0.005218746

tcn.layers.2.conv2.bias f4 [16]
0	0xbd8ca5ae	-0.068675384
1	0xbd24f160	-0.040269256
2	0x3cf30f2d	0.029670322
3	0xbd946e4f	-0.07247602
4	0xbd98f058	-0.07467717
5	0xbd8c2126	-0.0684226
6	0x3b353970	0.0027652644
7	0xbdd289b2	-0.102801695
8	0x3ce64c10	0.028112441
9	0xbd6ca15b	-0.057771068
10	0xbc106e07	-0.008815295
11	0xbdde79c4	-0.10863069
12	0x3dfbc069	0.12292559
13	0x3c399c30	0.011328742
14	0x3d990128	0.07470924
15	0xbd1d5264	-0.038408652
