model_save/beat_tracker_0.1065.pt (torch, 153742 bytes, 71 tensors)

frontend.conv1.0.weight f4 [16, 1, 3, 3]
000000 c9 7a 02 3f b4 69 3b 3f a4 fa 50 3d 35 0d fc 3e
       0.50968605 0.73208165 0.05102028 0.49228826
000010 66 a0 9e 3e cf 19 9d 3d 0e 08 f6 3d 4a 9c 19 3f
       0.3098175 0.07670938 0.12013255 0.60004103
000020 e7 19 9c 3e a7 52 74 be f2 1f 5c 3f 15 3e 34 3f
       0.30488512 -0.23859654 0.85986245 0.7040723
000030 3b 60 56 3d 93 c2 b2 3e b7 17 d9 3e 33 d6 43 3d
       0.052337866 0.34914073 0.42400905 0.0478117
000040 44 8b 2d 3f 4b e9 8c 3e 88 71 f7 bd 05 5d 00 3e
       0.6779063 0.27521738 -0.12082201 0.12535484
000050 b4 d9 2e bd 32 e3 37 3d b9 45 8f bd 8a 9c a3 3e
       -0.042688087 0.044894405 -0.069957204 0.31955367
000060 ab 88 81 be bd c0 00 be 18 a6 86 bc b7 a5 56 be
       -0.25299582 -0.12573524 -0.016436622 -0.20961653
000070 bf 94 80 3c 22 93 95 be 16 18 b9 3e 3c 7e 57 be
       0.015695928 -0.29213816 0.3615119 -0.21044248
000080 3e 27 bb 3e 77 ac be 3d 08 9d e7 bd 1c 99 53 3e
       0.36553377 0.09310239 -0.11309248 0.20663875
000090 f8 21 65 3e 9e b0 35 3f 5c d1 b5 3e 3d fe ce bd
       0.2237624 0.7097262 0.3551129 -0.10107086
0000a0 f2 04 9f 3e bc 00 b4 bd 6e f1 a0 3e 19 35 10 3f
       0.3105846 -0.087892026 0.31434196 0.5633102
0000b0 48 80 5c 3e a8 6b 89 bd d2 88 83 3e 16 1f 46 3e
       0.2153331 -0.06709987 0.25690323 0.19347796
0000c0 1d 51 05 3d 84 61 8a be 16 4e a2 be 6c 1d c2 bd
       0.03254806 -0.27027524 -0.317002 -0.09478268
0000d0 e7 47 4e be ce 58 ba 3e 92 c8 df 3e 34 90 ef 3e
       -0.20144616 0.36395878 0.4370771 0.46789706
0000e0 47 46 6f 3e 7f 6e 8d 3e d6 b6 f5 3e 5f 7f 84 be
       0.23366652 0.27623364 0.47991055 -0.25878426
0000f0 48 57 36 3e 16 21 21 be f0 15 0d be 7d f1 cc bd
       0.17806733 -0.15735278 -0.137779 -0.10006998
000100 1e 4b a2 3d 59 9b d1 bd c7 44 c9 3d 78 84 a1 be
       0.07924484 -0.10234708 0.09827571 -0.31546378
000110 07 78 9a be e2 a0 f2 bb 13 dd df 3e 7e a8 82 3e
       -0.301697 -0.0074044326 0.43723354 0.25519174
000120 0d c7 b3 3e 7c 3e 76 be d9 f0 92 be ac ca 62 be
       0.351128 -0.24047273 -0.28699377 -0.22147626
000130 17 4c 44 be f4 56 38 3e c7 ad 30 3e 85 67 a4 3e
       -0.19169651 0.1800192 0.17253791 0.3211023
000140 b1 dc d3 bd 0f a8 91 be 9a bc 01 3e 6b f3 c7 bd
       -0.10344828 -0.2844853 0.12669602 -0.09763225
000150 9b 7a 9c 3e 14 08 75 3c 3f 29 a7 3e 88 37 8e be
       0.3056229 0.014955539 0.32648656 -0.27776742
000160 64 da 46 be 79 17 9c 3d 44 32 70 3e 29 3a 32 bc
       -0.19419247 0.076216646 0.23456675 -0.010878124
000170 f5 6c 40 3e 09 71 8e 3e 4c e5 6d be 9f a2 67 be
       0.18791564 0.27820614 -0.23232001 -0.22620629
000180 7e b3 ae 3e 69 7c ce bd 88 e8 f8 bd 69 1b 91 be
       0.34121317 -0.10082323 -0.12153727 -0.28341225
000190 d0 1a 33 be 1c 62 12 3e 25 9e c3 bb 7f a3 67 be
       -0.17490697 0.14295238 -0.00596978 -0.22620963
0001a0 8a da 53 3d 94 19 39 be bb ae 80 be 6a 96 ef bd
       0.051722087 -0.18076164 -0.2513331 -0.11698611
0001b0 ac 76 8a be 6e 0d 33 be 30 02 ca 3e 30 aa 3d 3d
       -0.27043664 -0.17485592 0.39454794 0.04630488
0001c0 93 16 f0 3d 9b a2 79 be da f8 76 be 29 d7 e6 bd
       0.11723056 -0.24378435 -0.24118367 -0.11271507
0001d0 3f 61 b9 3d 3b 8a 89 be 7d 95 f3 bd b1 27 2b be
       0.09051751 -0.26863274 -0.11893747 -0.1671436
0001e0 d0 e4 00 3d 37 e2 c3 bd 3e 4e 18 3c b2 2b 4a be
       0.031468213 -0.095646314 0.009295998 -0.19743231
0001f0 36 88 52 be 59 1d 2c be 2d 6c 88 be f2 60 73 be
       -0.20559773 -0.1680807 -0.26645032 -0.2376745
000200 ca 0b 02 3f 00 4d a1 be d9 c8 44 3e dc 80 fe 3d
       0.5079924 -0.3150406 0.19217242 0.12426922
000210 e8 c6 94 be 8a e0 9d 3e 32 0b 89 3c 7c 40 11 be
       -0.29058003 0.30835372 0.016728971 -0.14184755
000220 8e 7b 9b be 94 f3 bd be 33 c2 db 3d 2c 99 92 bd
       -0.30367702 -0.37099898 0.107304 -0.071581215
000230 3c a6 0a 3e 50 fc 7d be b9 4a 70 3e 38 30 76 be
       0.13539976 -0.24803281 0.23466004 -0.24041831

frontend.conv1.0.bias f4 [16]
000000 f7 14 8c be a1 09 34 be 2b 43 1e 3e 08 00 a0 3e
       -0.27359745 -0.17581798 0.1545531 0.31250024
000010 b5 17 f1 3e 47 2a 54 be f9 7c 8e 3e 07 60 43 bd
       0.470884 -0.20719253 0.27829722 -0.047699
000020 9a 97 1a bd 99 5f 16 be 5c 83 ad 3e 16 9a 8a be
       -0.037742235 -0.14684905 0.33889282 -0.27070683
000030 97 c4 00 3e 81 96 fb 3d a9 3a fe 3c e9 b6 14 be
       0.12574993 0.12284566 0.03103383 -0.145229

frontend.conv2.0.weight f4 [16, 16, 3, 3]
000000 bb 53 0b be ee 95 ae 3a ba 11 3b 3e 49 19 ba bd
       -0.1360616 0.0013319829 0.18268481 -0.09086854
000010 5b 93 87 3c fe ef 91 3d ea 10 0b 3d e1 92 4d 3d
       0.016549757 0.07125853 0.033951677 0.050188903
000020 3f 65 54 3b c2 b1 42 be 5b 91 60 3c ab 64 8a 3e
       0.003240898 -0.19013122 0.01370653 0.2702993
000030 3e 4f d8 bc 93 8d ce 3c 54 f6 d7 3d 15 ba e3 ba
       -0.026404973 0.025213992 0.1054503 -0.0017374182
000040 6d 06 1a bd eb 13 da 3b 98 2d de 3d d9 67 4f bd
       -0.037603784 0.0066552064 0.1084854 -0.050636146
000050 f7 59 8b bc ae 90 6b 3d 40 75 03 3d 81 a4 25 bd
       -0.017010672 0.057511024 0.03209424 -0.040440086
000060 f8 ef 88 3c b5 ef f4 3c af b2 22 bb b1 cf 11 3d
       0.016715989 0.029899457 -0.0024825742 0.03559846
000070 49 44 f5 bc 19 ce 5a bd 05 35 df bc f2 81 0f be
       -0.029939787 -0.053419206 -0.027246961 -0.14014414
000080 7f 01 14 be c6 19 aa 3d b5 11 93 bd 90 01 20 be
       -0.14453696 0.08305697 -0.07181112 -0.15625596
000090 f1 ae 4e be d1 c9 b2 bc 01 57 6a 3e cb e1 b0 bd
       -0.20183922 -0.02182475 0.22884752 -0.086368166
0000a0 0f fc ad bd 5e 9d 72 3d 42 d7 91 3c 01 fc a0 bb
       -0.08495342 0.05923211 0.017802838 -0.0049128537
0000b0 9d f0 fa bc 3e 21 62 3d ae f4 fd bb ff 50 f0 bd
       -0.030632311 0.055207483 -0.0077501154 -0.11734199
0000c0 4a 5e 1c 3c 04 83 23 3d 85 7c 1a 3d 2b ab bf 3d
       0.009543965 0.039919868 0.037716407 0.093588196
0000d0 85 f8 10 bd 2f d4 58 bd 04 6f 5e be fd d5 aa bd
       -0.035393257 -0.05293673 -0.21722037 -0.08341596
0000e0 fa 36 77 3c ca 55 fc bd de af 4c bd 78 43 05 3d
       0.015088791 -0.123210505 -0.049972408 0.032535046
0000f0 63 d4 84 3c d2 98 42 3d de 00 aa bc 4c 7e fc bd
       0.016214555 0.047509022 -0.020752367 -0.12328777
000100 61 87 3e be c3 c3 db 3d 0c d1 ab 3d ad 9c fc bc
       -0.1860633 0.10730698 0.08389482 -0.030836428
000110 27 d2 1a bd 43 c8 2c 3a 71 7b 4f bd 29 73 4b 3d
       -0.037798073 0.00065911206 -0.050654832 0.049670372
000120 11 f4 f6 3d 5a 4c 88 3d 26 cd 33 3d 22 c0 d6 3d
       0.12058271 0.06655188 0.043896817 0.10485865
000130 22 58 9b bc c3 5c cd bd da 8c e9 3c 59 9e 26 bd
       -0.018962923 -0.100274585 0.028509546 -0.040678356
000140 cc 79 25 3d f9 8b c5 3d 5b d3 a7 3d e7 fa 08 be
       0.040399358 0.09645838 0.0819461 -0.13376962
000150 b2 17 ba 3d 09 16 65 3d 4b 86 3f bd 68 65 4a 3d
       0.09086551 0.055929217 -0.04675893 0.049413115
000160 b2 7d 70 3c ac d3 16 bd 39 2f 03 bd 26 b4 7b be
       0.014678406 -0.03682296 -0.032027457 -0.2458044
000170 a4 12 2f be 34 c6 aa bd 49 07 3a be b3 ad 44 be
       -0.17096955 -0.083385855 -0.18166842 -0.19206886
000180 02 25 e3 3d 39 01 03 be 98 9e d4 bb 93 7d a5 3d
       0.11091043 -0.12793435 -0.0064886324 0.08080592
000190 aa a8 73 3d f8 0f dd bd c0 53 b6 3d d0 d4 b5 bc
       0.059487022 -0.107940614 0.08902693 -0.022196203
0001a0 e3 e4 5b 3c b5 da aa 3d 96 36 c2 bb 07 c8 15 bc
       0.01342127 0.08342496 -0.0059269173 -0.0091419285
0001b0 c2 4e 66 3d 7e 20 79 bc ba 5d 0e 3d 53 2d 09 bd
       0.056227453 -0.015205501 0.034757353 -0.03349049
0001c0 f8 59 c8 3d 4e dc 90 3d 10 8a a6 3d a0 ed 53 3a
       0.09782785 0.0707327 0.08131802 0.000808442
0001d0 ee 3b 6c bd 24 64 40 3d f7 88 e5 3c ff ac 02 be
       -0.05767434 0.0469705 0.028019411 -0.12761305
0001e0 ce 50 1e bc 7e cc 6f bd 02 f3 14 bd 65 de 2f bd
       -0.00966282 -0.05854463 -0.036364563 -0.0429367
0001f0 c0 d4 33 bd 53 35 23 bd ee 88 70 3e 09 03 3a 3f
       -0.043904066 -0.039845776 0.23489735 0.7266088
000200 f2 62 3c 3f 0d cd 5f 3e d3 79 04 3f b9 7f ce 3e
       0.7358848 0.21855564 0.5174839 0.4033182
000210 0e 49 ef bd 4b d6 d1 3d b8 50 b2 3d 03 a9 f0 bb
       -0.11683856 0.10245951 0.08706802 -0.0073443665
000220 ac ff 8e bd ad 57 47 bd 62 ac 36 bc b5 1f 47 bd
       -0.06982359 -0.0486676 -0.011149498 -0.048614223
000230 0d eb e9 bc 76 fa 16 bc 73 a2 1d bd cf e7 5b bd
       -0.028554464 -0.009214988 -0.038485 -0.053687867
000240 1d 68 cb bd 86 7d 13 3e df 32 38 3d 12 b6 73 bc
       -0.099319674 0.14403352 0.04497039 -0.014874952
000250 04 4d b6 3c 92 a2 63 3d 85 5f c8 3d e6 bd 90 3d
       0.02225352 0.05557496 0.09783844 0.0706747
000260 b2 79 85 bd 07 97 92 3d 07 73 39 3e 03 bb 8d 3d
       -0.06517352 0.071577124 0.18110286 0.06920435
000270 b5 bc b0 3d 90 b9 10 3e ad 6e da bc 27 3c 35 3d
       0.08629743 0.14133286 -0.026664102 0.04424682
000280 44 cf 30 bd 82 cc 8a bd 0b 57 c8 3d 76 14 11 3c
       -0.043166414 -0.06777288 0.09782227 0.008854976
000290 33 4f f5 bd 82 a2 33 bd e2 a2 9a bd ea e9 df bd
       -0.11977997 -0.04385615 -0.07550599 -0.109332874
0002a0 cd a6 39 bd 94 2a 08 bd bf 83 05 3d b9 b5 2f bd
       -0.04532509 -0.03324373 0.032596346 -0.042897914
0002b0 8e 51 fa bd ad 31 c4 bd 91 81 9c 3b f1 21 f8 bd
       -0.122225866 -0.095797874 0.0047761877 -0.12115849
0002c0 93 8c 88 bd 3b 01 f9 3c de 9a 7d bd 2e 76 e5 bc
       -0.066674374 0.030396095 -0.06191527 -0.028010454
0002d0 9b 19 22 bd e1 b0 ff 3c 20 32 82 bc da 90 e6 bd
       -0.0395752 0.031212272 -0.015893042 -0.11258097
0002e0 db d1 40 bd 61 89 7c bd 6a 5b 8d 3d 44 74 38 bd
       -0.047075134 -0.061654452 0.069022015 -0.045032755
0002f0 49 94 e9 bd 8c 3b c3 3c 9f 86 94 bd 74 16 60 bd
       -0.11405236 0.023832105 -0.072522394 -0.054708913
000300 16 f4 bd 3c e7 4a 28 bd 97 79 19 be eb 13 1e bd
       0.023187678 -0.041087057 -0.14987789 -0.038593214
000310 0f 5e 0d bd 94 aa 89 bd ba e3 27 be 83 ab 98 3d
       -0.03451353 -0.06721988 -0.16395465 0.07454588
000320 b6 32 71 3c 1a c9 12 be f5 98 62 bd e8 ae 37 3d
       0.014721563 -0.14334527 -0.055321652 0.044844538
000330 a2 dd a7 3c 1c 47 05 3d e0 02 94 3c 00 c2 15 be
       0.020491425 0.03253852 0.018067777 -0.14624786
000340 9a 9b 08 bd 26 0e a7 3d 9d 85 49 3d 55 58 17 3d
       -0.03335152 0.081569955 0.04919969 0.036949474
000350 9f 0f 85 bd 8f a2 2c 3d ef a3 51 bd 1c 24 89 bd
       -0.0649712 0.042147215 -0.05118173 -0.066963404
000360 21 06 e2 bb 2d 00 46 3d 16 f3 03 3e 3e c2 bc bd
       -0.0068977033 0.04834001 0.12885699 -0.09216736
000370 d6 ec 12 3d 22 87 f3 bc 88 31 cf 3c d7 52 37 3d
       0.035870396 -0.029727522 0.025292173 0.044756737
000380 cd ac 5a 3b fe 4c 36 3e e1 40 74 be aa 38 cd be
       0.0033367157 0.17802808 -0.23852874 -0.40082294
000390 52 2d c6 3d 11 59 4d be bc a8 9b be e0 ec 34 3e
       0.09676613 -0.20053507 -0.30402172 0.17668486
0003a0 33 e3 89 3d dd 2b cb bc ae 30 0f be ec f6 11 be
       0.06732788 -0.02480119 -0.13983414 -0.1425435
0003b0 ee 2e df bb 11 ed c8 bd d3 49 07 bd 50 2f 87 bc
       -0.0068110144 -0.09810842 -0.03302939 -0.016502053
0003c0 34 44 9d bd a4 7c 12 3c 55 56 8e 3b d7 20 dd 3a
       -0.07679024 0.008940849 0.0043437877 0.0016870749
0003d0 4c 54 4b bd f7 45 b2 bd 73 83 86 bd d3 3f 5f bd
       -0.04964094 -0.08704751 -0.06568041 -0.054504227
0003e0 4c 9e 26 bd 0f a7 af 3c 01 70 5c bd 3f f9 49 bd
       -0.040678307 0.021441964 -0.053817753 -0.049309965
0003f0 7c 64 f5 3d c3 6c 4c bb 3a 78 8b 3c 1d b5 a1 3c
       0.119820565 -0.0031192757 0.017025102 0.019739682

frontend.conv2.0.bias f4 [16]
000000 a3 2c a3 bd 74 43 80 bd c8 2a 35 3d 88 7f 14 bd
       -0.07967498 -0.06262866 0.044230253 -0.036254436
000010 4d de dc 3c 71 a1 eb bd 5d a1 e5 bc 2c 3a eb bd
       0.02696147 -0.11505402 -0.028031046 -0.11485705
000020 0d 8d 7d bd 77 35 8d 3d c6 63 a5 bd 7c cb b3 bd
       -0.061902095 0.06894963 -0.08075671 -0.08779046
000030 60 8a 46 3d 47 02 df bb 34 ee 56 bd 6f 6e da bd
       0.04847181 -0.0068056914 -0.052473262 -0.10665595

tcn.layers.0.conv1.bias f4 [16]
000000 07 45 bd bd 98 f2 2c be 83 40 35 bd fe 7f 9d 3d
       -0.092416815 -0.16889417 -0.044250976 0.07690428
000010 ab 43 10 3d 60 f3 bc bc 1d d4 ff 3d 2a 11 37 bd
       0.035220783 -0.023065269 0.12491629 -0.044694103
000020 9b a6 d6 3d 5b f2 72 bb 38 f9 1d be e5 ee 69 3d
       0.10480996 -0.0037070725 -0.154271 0.057112593
000030 cc 1f 7c 3b 8e 3e 20 3d 16 71 13 bd 80 a5 1c 3e
       0.00384711 0.039122157 -0.03599652 0.15297508

tcn.layers.0.conv1.weight_g f4 [16, 1, 1]
000000 e3 21 50 3f 96 01 34 3f 34 ae 2d 3f bd 6d 20 3f
       0.8130171 0.7031492 0.6784394 0.6266745
000010 9f f2 31 3f 07 a4 10 3f 71 77 7a 3f 13 a8 69 3f
       0.69510835 0.56500286 0.97838503 0.91272086
000020 d2 13 44 3f 0b 62 6c 3f 79 59 35 3f 78 09 5f 3f
       0.76592743 0.923371 0.7083965 0.87123823
000030 0e 8d 86 3f 7a be 4d 3f 63 f4 0c 3f f9 5d 55 3f
       1.0511796 0.8036877 0.55060405 0.83346516

tcn.layers.0.conv1.weight_v f4 [16, 16, 5]
000000 36 5c a9 bd 8d d5 09 bd 00 42 15 bb 75 1c 0f bd
       -0.08269541 -0.033650924 -0.0022774935 -0.034939248
000010 cf f3 9b bd a8 13 d1 bc 84 3f 10 bc 09 34 09 3d
       -0.07614862 -0.025522068 -0.008804206 0.03349689
000020 39 0b 62 3d 1f 94 9a bc f1 1e f8 bd 38 2c ca bd
       0.055186484 -0.018869458 -0.121152766 -0.09871715
000030 36 67 21 be e9 6a 19 be eb df 57 be 24 98 a7 bc
       -0.15762028 -0.14982189 -0.21081512 -0.020458288
000040 2a 8b 22 3d 69 0f 03 3d bd 84 8a 3d d5 74 9a 39
       0.0396835 0.03199712 0.06763599 0.00029460216
000050 c3 74 2e 3d 38 1d e6 bc 35 36 4d bd 42 02 cc bc
       0.04259182 -0.028090104 -0.050100524 -0.02490342
000060 51 1e d1 bd b5 b7 5e bc 29 bc 03 bd e9 01 0d 3d
       -0.102108605 -0.013593604 -0.032161865 0.03442565
000070 f1 25 cf 3c 7c ac 9d 3b d9 f7 61 bd 71 10 8e 3d
       0.025286647 0.0048118215 -0.055168007 0.0693673
000080 97 0b d0 bc e6 a8 af 3c 9e 40 7c 3d 45 60 b9 bd
       -0.025396151 0.021442842 0.06158506 -0.09051565
000090 44 11 2b bd c9 bb 46 3c c3 e2 3a 3d 52 06 1b bd
       -0.041764513 0.012129732 0.045626413 -0.037847824
0000a0 5a 28 c2 3b 3d b3 84 bd 2d 51 75 bd 02 5d 30 3d
       0.0059252204 -0.064794995 -0.05989187 0.04305745
0000b0 e1 d2 ab bc 7b 3c a9 3d 41 62 92 bb 79 41 3d bd
       -0.020974578 0.08263489 -0.004467279 -0.046205018
0000c0 f6 4b 1e 3d 1e 74 ff 3c 0f 1f af 3c 0c 48 57 bd
       0.03864666 0.031183299 0.021377115 -0.052558944
0000d0 4e e3 a4 3c 32 a2 14 bd d8 e9 cd 3d 4c 6a 9b 3d
       0.020127919 -0.036287494 0.10054368 0.07588634
0000e0 54 0f 51 3d 43 18 40 3d 87 ee 94 bc 29 88 00 be
       0.05104001 0.046898138 -0.018180145 -0.12551941
0000f0 73 2f 6c 3e 6a d9 60 3e 2c 27 f5 3d 13 f4 2f 3e
       0.23064975 0.21957937 0.11970362 0.1718295
000100 7a 19 67 3d e2 60 7d bd 4e fb d5 bd 31 ad 43 bd
       0.05642078 -0.061859973 -0.10448323 -0.04777259
000110 4a 7e ca bd 75 e4 ae 3c bb 8f bf 3d c3 71 f7 bb
       -0.09887369 0.021349171 0.09353586 -0.0075514033
000120 3c e7 85 3d 2e e6 7f bd 0f 32 9d 3b 30 00 d8 bd
       0.06538245 -0.062475376 0.004797227 -0.10546911
000130 81 bb 85 bd 22 a5 ed bc 1b cf 23 bc 28 b0 45 bd
       -0.06529904 -0.029009406 -0.009998108 -0.0482637
000140 07 60 68 bd 17 f2 92 3d cc 7f d5 3c 9a da 68 3b
       -0.056732204 0.07175081 0.026061915 0.0035530687
000150 10 4c f1 bd 22 a5 c7 bc 98 48 22 bd 35 df 0c 3d
       -0.11782086 -0.024370734 -0.039620012 0.034392554
000160 dd 00 89 3d 92 0e 73 3d c8 57 46 bd dc 59 3d bd
       0.06689618 0.059340067 -0.04842356 -0.046228275
000170 1b 9d 3b bd e7 0d 00 3e cd bf 61 3d 8a 74 a8 bd
       -0.045804124 0.12505303 0.055114556 -0.08225353
000180 c6 35 34 3c 0c 62 21 bd b1 cc ca 3b be c1 a7 3d
       0.010999149 -0.039400145 0.006188952 0.0819125
000190 3e bc 29 bd a6 bf f5 bc 52 11 8d 3d f1 7d b5 3c
       -0.041439287 -0.029998612 0.06888069 0.02215478
0001a0 c4 f2 81 bc 63 a0 a9 3d d6 a9 ae 3d 87 58 86 3d
       -0.01586283 0.082825445 0.085284874 0.06559854
0001b0 f3 79 b8 3d 3c 2a 01 3c 9c cd 0a bb d8 f3 61 3d
       0.09007635 0.007883605 -0.0021179682 0.05516419
0001c0 0a d4 ee 3d 38 d2 92 3c 71 b6 78 3d 6e b5 9f bc
       0.11661537 0.017922506 0.060720865 -0.019495692
0001d0 37 80 93 3d 5a 09 94 3d fc 68 cb 3d b2 33 b6 bb
       0.072021894 0.07228346 0.099321336 -0.005560362
0001e0 19 a5 e1 bd 9a 5b cd bc c0 12 90 3d af 1c e1 3d
       -0.11017818 -0.025068093 0.07034826 0.10991799
0001f0 69 d2 2d bc e5 de f2 3d 94 3c 45 3d 86 4e 2a 3c
       -0.010609248 0.1185892 0.048153475 0.010394698
000200 d2 3c 85 bc 99 1a 75 bb 14 97 83 3d 36 b6 0c bd
       -0.016264353 -0.0037399887 0.064253 -0.034353457
000210 26 2e 1c 3d ed 8a fc bd 8f 39 8c bd 58 a2 90 bd
       0.038129948 -0.123311855 -0.06846916 -0.070622146
000220 8d 85 c9 bc ba e5 85 bd 5e 38 04 bd ae 98 93 bd
       -0.024599815 -0.065379575 -0.03228032 -0.07206856
000230 1c 20 ff bd b8 dc ed bd 06 a7 05 be c1 5c d1 3c
       -0.12457296 -0.116143644 -0.13051996 0.025556924
000240 e4 53 f1 3b 79 bf 9d 3b 1f 09 f5 bd c7 f4 65 bd
       0.007364737 0.004814085 -0.1196463 -0.05614164
000250 c7 23 f5 bc 80 2a c4 bd 61 57 fb 3d 27 79 87 3d
       -0.029924287 -0.09578419 0.122725256 0.06614905
000260 bf 42 e4 3d aa 21 bf 3d 8e 92 9d 3c b0 ef 08 be
       0.11145543 0.09332593 0.019234922 -0.13372684
000270 3e 18 19 3c c5 a9 85 3c e3 47 89 3d d2 16 73 3d
       0.009344159 0.016316304 0.067031644 0.059347935
000280 65 21 b3 bd 71 69 d3 bc 94 cb 02 3e 28 a0 eb 3d
       -0.08746604 -0.025807114 0.12772971 0.11505157
000290 a9 da 40 bd 41 ae 77 3d 8f 46 91 bd 77 98 7a bd
       -0.04708353 0.060468916 -0.07093536 -0.061180558
0002a0 8e cb c3 3d f5 e2 3c 3d df 30 57 bd 1c dd 23 be
       0.09560309 0.04611488 -0.05253684 -0.16002315
0002b0 3d 3e 9c bd 24 22 c5 3b 43 59 66 3c 89 f4 9d bd
       -0.076290585 0.006016033 0.014059368 -0.07712657
0002c0 b6 df 04 3d 71 9d 2a bd 06 aa 20 3d 48 49 fd 3b
       0.03243991 -0.041654054 0.039224647 0.007729683
0002d0 77 5a 39 bd ac 8e 90 bd 72 19 59 bd c8 39 1c 3d
       -0.04525229 -0.070584625 -0.053002782 0.038141042
0002e0 d4 35 5c 3d 88 76 b0 bd 99 49 75 bd 31 dc 86 3d
       0.053762272 -0.08616358 -0.05988464 0.06584967
0002f0 5c b2 d8 3c d9 f0 05 bd fa 87 dc bc 92 59 82 3d
       0.026452236 -0.032700393 -0.026920307 0.063647404
000300 4c 1f 91 bd 97 68 82 bd 39 2c ac bd fe bc 80 bc
       -0.070860475 -0.06367605 -0.08406872 -0.015715118
000310 fe 88 93 bc 75 00 05 bd 43 59 e8 3d 1b 25 39 bd
       -0.018009659 -0.03247114 0.1134515 -0.045201402
000320 17 07 91 3d 03 62 27 bd a8 c2 24 3d 5a c7 51 3d
       0.070814304 -0.040864956 0.0402247 0.051215507
000330 66 c7 08 bd 65 2c 80 bc f3 05 d5 bd 0d e1 cc bd
       -0.033393286 -0.015646169 -0.10401525 -0.100038625
000340 e3 cb 21 be a8 68 bc bd 0a 27 61 3d 6f 41 a9 3d
       -0.15800433 -0.09199649 0.05496887 0.082644336
000350 2d 5c 90 3c 39 7d 52 bd 92 f1 c2 3d e0 f8 c6 3c
       0.017622078 -0.051388953 0.09518732 0.024288595
000360 bb b3 38 3d b0 fb 93 bd 55 d2 d6 bd 56 82 b4 bd
       0.04509328 -0.0722574 -0.104893364 -0.08813922
000370 67 15 21 3e 35 3c f3 3c 43 ae 45 bd ee 7a 44 bd
       0.1573082 0.029691795 -0.048261892 -0.047968797
000380 b9 4d 53 bd 11 b1 26 bb 8c e5 94 3c 20 5e 8a bd
       -0.051587794 -0.002543513 0.018175863 -0.06756234
000390 b1 cd 51 bc 71 92 96 bd 01 b6 84 bc b7 bc 93 bd
       -0.012805388 -0.0735215 -0.016200067 -0.07213729
0003a0 60 9c a5 bb 0e 7e 8a 3d 3d aa 77 3d 33 86 b6 3c
       -0.0050540417 0.06762324 0.060465086 0.022280788
0003b0 b5 54 0f 3d 11 cf f7 3d 6c 9d e7 3d e6 67 89 3d
       0.034992892 0.12100042 0.11309323 0.0670927
0003c0 3b 09 64 3c 0b 80 0c 3e 75 e1 82 3d 53 6d 08 be
       0.013918216 0.1372072 0.06390659 -0.13322954
0003d0 7b c9 ae bd 7b 90 49 3c 76 8f e2 3d b0 46 23 3c
       -0.08534523 0.012302513 0.11062519 0.009965584
0003e0 fd 8c 73 3d e3 1f a7 bd d1 1c 8c 3d 14 e1 d4 3d
       0.05946063 -0.08160379 0.06841434 0.10394493
0003f0 f9 e3 bc bb b8 70 85 3d 58 4f 26 bd be 2b 5a bd
       -0.005764481 0.0651564 -0.04060301 -0.053264372

tcn.layers.0.conv2.bias f4 [16]
000000 12 57 97 bd 33 31 1b bd f8 9f d6 bd 5e 30 3d bd
       -0.07389654 -0.037888717 -0.1047973 -0.046188705
000010 7d e7 bf bd 43 59 99 3d 45 6a 77 bc 4e 81 fe 3d
       -0.09370325 0.074877284 -0.01510102 0.12427007
000020 45 42 78 37 7e 22 92 3d d1 74 a4 3d eb 91 9c bd
       1.47973815e-05 0.07135485 0.080300935 -0.07645019
000030 b7 0f 06 3e b2 df 79 3d ac 07 0a bd 15 88 92 bd
       0.13091932 0.061004348 -0.033698723 -0.07154862

tcn.layers.0.conv2.weight_g f4 [16, 1, 1]
000000 a1 89 80 3f 1c 83 20 3f 1d 1a 5a 3f 56 4c 1c 3f
       1.0042001 0.6270006 0.85196096 0.6105398
000010 67 85 51 3f a5 7d 33 3f 53 59 46 3f c2 50 31 3f
       0.8184418 0.70113593 0.7748005 0.6926385
000020 91 61 49 3f 43 2d 21 3f 8e df 18 3f 1e db 6f 3f
       0.786645 0.6295969 0.5971612 0.9369372
000030 40 3e 2a 3f 03 67 26 3f 96 9a 44 3f c4 32 45 3f
       0.66501236 0.65000933 0.7679838 0.7703059

tcn.layers.0.conv2.weight_v f4 [16, 16, 5]
000000 f0 4a de 3d eb 49 00 3d 6b e4 10 3c c2 53 81 bd
       0.10854137 0.031320494 0.008843522 -0.06314804
000010 45 3b 9f bd 93 00 76 3d d5 31 c1 3d fb 50 00 3d
       -0.07774977 0.06005914 0.09433333 0.03132723
000020 1b cd 8a 3c d3 6c fa 3c fc b4 2b 3d af 7e 52 3d
       0.016943505 0.03056947 0.041920647 0.051390346
000030 10 ce 2a 3d 53 85 2d 3d dd cd b7 3d ca 3c c5 bd
       0.041700423 0.042363476 0.08974812 -0.09630735
000040 7a 5c a3 bd ad 6d 03 bd e6 6f 48 bd 09 00 9c 3c
       -0.07976623 -0.032087017 -0.04893484 0.019042986
000050 67 08 0c 3c 1e 46 a5 bc 6d 4d 3e 3c 16 e1 4e 3d
       0.008546925 -0.020175036 0.011615139 0.050507627
000060 58 f4 12 3d 7d cb 2a bc 5a 6d 3e bc 95 e9 66 bd
       0.035877556 -0.010424492 -0.011622751 -0.056375105
000070 89 c6 11 bd 17 43 7f bd e5 7f c9 3d fc 1b 27 3d
       -0.03558973 -0.06231984 0.09838847 0.040798172
000080 61 3a 32 3d e1 06 1f 3d ce 17 37 bd 3e 9f d3 3c
       0.043512706 0.03882492 -0.044700436 0.025832769
000090 11 c3 13 be a5 09 06 be 53 4c 2a be fc ce a9 bd
       -0.1442988 -0.13089617 -0.16630678 -0.08291432
0000a0 a1 b8 e1 bd 8b f3 b3 bd ba 37 59 bd 42 e5 96 3d
       -0.11021543 -0.087866865 -0.05303166 0.07367946
0000b0 92 e7 a3 3d 3c 96 ce bd fa c9 49 be e2 03 1e be
       0.08003153 -0.10087249 -0.19705954 -0.15431169
0000c0 52 f1 de bd 19 9a 7d 3c 34 f1 63 3c 8c 78 86 3d
       -0.10885872 0.015478634 0.013912488 0.06565961
0000d0 3a bb b5 3d 23 57 9c 3d 3a 98 a7 3d 08 c0 60 3c
       0.08873601 0.076338075 0.08183332 0.013717659
0000e0 ff ac e0 3d 85 12 49 3d 85 d0 d0 3d f8 91 35 3d
       0.109704964 0.049089927 0.10196022 0.04432866
0000f0 9e da c6 3b 0a a2 3c bc f5 ba b0 bd 40 e4 35 be
       0.0060685417 -0.0115132425 -0.08629409 -0.17762852
000100 25 6f 16 be 0d 8d ec bd c3 e9 6a bd 45 1c ae 3c
       -0.14690836 -0.11550341 -0.05735184 0.021253714
000110 ea 4d 26 3d 63 7e e3 3d 21 4a a7 bd fb 75 91 bb
       0.04060165 0.11108091 -0.08168436 -0.004439113
000120 2c 35 fa 3c 82 7a a0 3d 9f 43 eb 3d f8 af b8 3d
       0.030542932 0.078358665 0.11487507 0.090179384
000130 35 ba 0f 3d 45 b4 96 bb 76 49 51 bd 38 fa d2 bd
       0.03508969 -0.0045991265 -0.05109545 -0.10301632
000140 76 be 8d 3d 26 98 66 3c 8a 0a 4a 3d 33 c2 c5 3d
       0.06921093 0.014074361 0.049326457 0.09656181
000150 78 f6 36 3d e5 0d 9e 3d dd ef 5e 3d 7d 37 9c 3d
       0.044668645 0.07717494 0.05442797 0.07627771
000160 f3 1e 58 3c 50 a6 d3 3c 86 e8 43 bd 97 8e 29 bc
       0.013190973 0.02583614 -0.047829174 -0.0103489375
000170 5e 05 b8 bd 80 ea 99 ba f2 ae 05 be 10 9b b1 bd
       -0.08985399 -0.001174286 -0.13055018 -0.08672154
000180 f7 48 b2 bd d0 7a 8a 3d 2a e3 55 bd 89 79 47 bc
       -0.08705323 0.06761706 -0.052218594 -0.012174972
000190 e8 0c 65 bc 11 db 8e 3d 0b f5 d2 bb f2 f0 b9 bc
       -0.013980128 0.06975377 -0.006437903 -0.0226979
0001a0 e2 79 98 3d e0 98 8d bd d1 6f e0 3c fd e7 db 3d
       0.07445122 -0.06913924 0.027397068 0.10737608
0001b0 92 d0 b3 3d c0 43 c5 3b f4 58 31 bc 58 ec 8f bc
       0.08780016 0.0060200393 -0.010824431 -0.017568752
0001c0 46 37 8a 3d 25 0a 32 be 18 3d 12 be 35 28 18 bd
       0.06748824 -0.17386682 -0.14281118 -0.03714772
0001d0 2a f6 63 3c cd 50 8c 3d 5b 2a 4c 3d a5 9f 8e 3c
       0.013913671 0.06851349 0.04984508 0.017410109
0001e0 d1 b6 aa bd 64 b1 60 bd 4f ee 4f bd 9b 05 a7 bc
       -0.08335651 -0.054856673 -0.05076438 -0.020388415
0001f0 f6 82 ed 3c 7a 0f 00 bd 17 e2 a8 3c 3b 81 6b bc
       0.028993111 -0.03126476 0.02061562 -0.014374073
000200 82 fd 7a 3c 21 0a 48 3b 76 dc aa 3c 4a c6 6e 3c
       0.01531923 0.0030523615 0.020857077 0.014573643
000210 3f 2a 83 3d 13 77 e0 3d 2c c7 05 3e 60 ca 09 3c
       0.06404542 0.109602116 0.1306426 0.008410066
000220 a0 34 69 3d 80 21 5d bd 24 9b ff 3d 84 bb d7 bd
       0.056934953 -0.053987026 0.124807626 -0.10533813
000230 f4 5d 8b 3d 1b 13 8b bd 38 5d 34 bd bb 2f ac 3b
       0.068050295 -0.067907535 -0.044034213 0.0052547134
000240 be e3 6e bd 9d 2c ac bc c3 bf fc 3d 66 a7 5a 3d
       -0.05832266 -0.021017367 0.12341263 0.0533823
000250 d4 71 d5 3d 81 4c 12 bc 54 60 46 bd 08 36 0d bd
       0.104221016 -0.008929373 -0.04843171 -0.034475356
000260 f2 12 8f bb 5f d9 81 bd 31 ea ee bb 24 22 d2 3d
       -0.004366272 -0.06340288 -0.0072911014 0.10260418
000270 26 0f 7c bd 28 7e 59 3d 3f d5 8d bc 74 db 29 3c
       -0.061537884 0.053098828 -0.017313598 0.010367263
000280 53 f5 bd bc 5d 3c 7f bd ff 98 1c bd 1f 0f 29 bd
       -0.023188269 -0.062313426 -0.038231846 -0.041274186
000290 36 c2 b9 bb d1 00 6c 3d c8 e8 98 3d f8 7a 14 bc
       -0.0056689037 0.057617966 0.074662745 -0.009062521
0002a0 8e 8b b8 bd 27 6d 97 bd f8 f4 04 3d cb ca 86 3d
       -0.09010993 -0.07393866 0.032460183 0.065816484
0002b0 f5 1e 31 bd af 65 91 bd 3f 03 95 bc 7b 39 6d bd
       -0.043242414 -0.07099473 -0.018190024 -0.057916146
0002c0 90 c5 9a bc e8 ce 3a 3d 15 c8 8b 3d ac dc bd bc
       -0.018893033 0.045607477 0.06825272 -0.023176514
0002d0 81 13 85 bd 9c fd f4 b4 24 c7 dc 3c 0f 3d 71 3b
       -0.06497861 -4.5633067e-07 0.026950426 0.0036810075
0002e0 3b f4 7c bd 4e 56 ba 3c 2a 19 cf 3c 1f de 13 3d
       -0.061756354 0.022746231 0.025280554 0.036100503
0002f0 a0 08 a2 3c e7 4d ce 3d 96 81 dd 3d 1a 19 c0 3b
       0.019779503 0.100734524 0.10815732 0.0058623673
000300 8b c4 0b be fe ec e2 bd b8 27 46 bd ba ad 86 bd
       -0.13649194 -0.11080359 -0.048377723 -0.065761045
000310 83 d8 a3 bd 2d 34 f3 bc 6c 37 9e bb 7b aa 4c 3d
       -0.08000281 -0.029687965 -0.004828384 0.04996727
000320 f2 ec 04 bd 29 f9 7f 3d 4c 8a e4 3d 7a 89 e8 3d
       -0.03245253 0.062493477 0.111591905 0.113543466
000330 df 72 1d bd 87 8d 29 be ee 00 d0 bd 0a f0 26 3c
       -0.038439628 -0.16557895 -0.10156427 0.010189066
000340 97 90 ff 3d 20 f3 30 3d 84 3d 8a 3d c8 87 87 3d
       0.1247875 0.043200612 0.067500144 0.06617695
000350 57 7c 71 3d 9b 4b 28 bd e3 ff 3f bd 1f 06 2b 3e
       0.05895647 -0.041087728 -0.046874892 0.16701554
000360 97 d3 43 3e 73 93 e8 bc 60 48 e1 bd 78 bf 1c bd
       0.19123684 -0.028390622 -0.110001326 -0.038268536
000370 00 91 cf bd c0 a9 04 be 0f b0 a4 bd d1 8d 7b bd
       -0.101350784 -0.1295538 -0.08041393 -0.061414544
000380 1c 80 76 3d ed 41 37 3c 7f ce ab 3d 4a 5b 38 3e
       0.06018077 0.0111851515 0.083889954 0.18003574
000390 21 5c 51 3c b4 2d b9 bd 34 cb ac bc 75 49 13 bd
       0.012778313 -0.0904192 -0.021092989 -0.035958726
0003a0 db 6d dd 3c 8c f2 87 bd ae 92 6d bc 1f a0 79 3d
       0.027029922 -0.06638059 -0.014500303 0.06094372
0003b0 31 4b 92 bd 6f 85 1c be 76 3e 65 bd 17 88 a5 3c
       -0.07143248 -0.15285276 -0.05596777 0.020206494
0003c0 a7 1a 0f 3e 32 5b 0a ba 32 2f 7d 3d 8e a1 38 3d
       0.13975011 -0.00052778714 0.061812587 0.045075946
0003d0 b9 0e 74 3d 03 20 03 3d fc 27 d1 bd e2 eb 4d bc
       0.059584353 0.03201295 -0.102127045 -0.012568446
0003e0 0f 28 7f bd b8 56 12 3c 3d 17 23 3c c4 48 8e 3c
       -0.062294062 0.008931808 0.009954271 0.017368682
0003f0 22 c5 d4 bc db 97 75 3d b2 fd b3 bd 22 3a b4 3b
       -0.025972907 0.059959274 -0.08788623 0.005500094

tcn.layers.1.conv1.bias f4 [16]
000000 2c f5 fd bd d0 31 bc bd 0e b0 da 3d f6 f2 fd bc
       -0.124002784 -0.091891885 0.10678111 -0.030999642
000010 93 a7 b8 bd 69 63 8e bc 71 3f 17 bd ff 7b bf bd
       -0.09016337 -0.017381387 -0.036925737 -0.09349822
000020 0e 3c d6 bd 9b a0 82 bd 23 b8 30 be 49 1d 21 be
       -0.10460673 -0.06378289 -0.17257743 -0.15733828
000030 b9 bf 10 3d 76 a4 bd 3d cb ba 80 3d e0 9a 1b bd
       0.03533909 0.09259884 0.06285628 -0.037989497

tcn.layers.1.conv1.weight_g f4 [16, 1, 1]
000000 e1 57 18 3f e7 4b 4a 3f 78 11 34 3f ba 00 1d 3f
       0.5950909 0.7902207 0.70339155 0.61329234
000010 a0 95 4f 3f c4 6d 19 3f d1 5e 18 3f ff 07 7e 3f
       0.81087685 0.59933114 0.5951968 0.9923095
000020 80 d0 72 3f 83 70 30 3f ba 91 34 3f f8 85 3b 3f
       0.94849396 0.6892168 0.7053486 0.73251295
000030 0b 7b 51 3f 37 6a 4a 3f 35 11 57 3f cc 87 69 3f
       0.81828374 0.7906832 0.8401063 0.91222835

tcn.layers.1.conv1.weight_v f4 [16, 16, 5]
000000 b0 ba d9 bb 12 41 4b 3d 8b af fe 3c ab 2d a7 3b
       -0.0066445693 0.049622603 0.031089565 0.0051018796
000010 30 b3 8e 3d bd 75 bd 3d b2 49 bd 3d 6a 0b 58 bb
       0.06967771 0.092509724 0.09242572 -0.0032965788
000020 d9 4c 49 3d 7f 4d 78 bd 4f c9 ea bd a7 7b 18 3d
       0.049145553 -0.06062078 -0.11464178 0.0372273
000030 9d b3 b3 bd fd 3d bc 3c 26 3d de bd 09 68 27 3d
       -0.08774493 0.022978777 -0.10851507 0.0408707
000040 1b 32 ea 3c fa 08 99 bd 5c ee 85 3d a0 30 a9 bd
       0.028588345 -0.07472415 0.06539604 -0.082612276
000050 99 8e 0b 3d 21 0b 80 3d e2 37 89 bd f8 99 0f 3e
       0.03407154 0.06252123 -0.06700112 0.14023578
000060 4b 8a 93 bd 19 b2 0a bd b0 3b 0b 3e 0d 1a 61 3c
       -0.07204112 -0.033861253 0.13596988 0.013739121
000070 89 6b 6c 3b 35 2d 46 3d a0 24 c4 bb dd 8b ba 3d
       0.0036074838 0.048382957 -0.0059858114 0.09108708
000080 fa 96 d8 3d 0b e3 38 3d 5d 25 fb 3c 5c 4a 1c 3b
       0.105756715 0.0451384 0.030657465 0.0023848033
000090 ed 9c cc 39 10 1a b0 ba a8 8a 4e 3b 10 f1 78 3d
       0.0003902683 -0.0013435502 0.003151575 0.06077677
0000a0 2c 0b 1e 3d ca 52 ba bc 01 9b eb 3c 7d 86 69 3b
       0.038584873 -0.022744555 0.028760435 0.003563314
0000b0 22 32 f3 3c 5d 2d cd 3d ab 41 16 bd ea 8e 27 3d
       0.029686991 0.10018418 -0.03668372 0.040907778
0000c0 93 e6 e9 bc 6d e1 52 bd 36 2c c3 bd 74 35 9f bc
       -0.02855233 -0.051484514 -0.09529917 -0.019434668
0000d0 d5 1d a7 3d 6a e9 a3 bd 89 2b 00 3d 74 ab a3 3d
       0.08159987 -0.080035046 0.03129152 0.079916865
0000e0 00 7e aa bd a7 11 90 3d 7f e2 98 3c c3 d3 97 bd
       -0.08324814 0.07034617 0.01866269 -0.07413437
0000f0 da 77 98 bc fe 1d fe bd d1 88 60 3d e2 36 57 3d
       -0.018611837 -0.12408064 0.05481798 0.052542575
000100 57 f2 bf 3d b5 cc af 3d 97 25 84 3d 89 f2 d4 3d
       0.093723945 0.08583967 0.06452482 0.103978224
000110 6f 56 e1 3c 12 3c 97 bd 27 a6 e5 3d 3b b9 89 3d
       0.027507035 -0.073845044 0.11213332 0.06724783
000120 c3 34 e7 3c 7b a1 ab bc f9 9a c7 3d a9 3e 0a 3a
       0.028223401 -0.020951023 0.097463556 0.00052736193
000130 66 b6 6c 3d c7 31 9e bc 78 00 b8 3d be 0a a3 bd
       0.057791136 -0.019310845 0.089844644 -0.07961033
000140 de ea cd 3c 35 c6 71 3d c1 e3 e9 bc fd 4d cc 3c
       0.025136407 0.059026916 -0.028550984 0.024939531
000150 17 fa 46 bd 62 bc 62 3c 62 be 89 3d a7 ed 5b 3d
       -0.048578348 0.013838859 0.06725766 0.05369344
000160 49 4c 00 3d 88 b3 3f bd f0 59 f0 bd c9 7e d3 bd
       0.03132275 -0.046802074 -0.11735904 -0.10326917
000170 9a 4f ae 3d 7b c8 8d 3d 3d ba 62 bd 63 3f 81 bd
       0.085112765 0.06923004 -0.055353392 -0.06310918
000180 91 1d cf 3d 33 c2 ca bc 08 64 b9 3d c1 ee c0 3d
       0.10113061 -0.024750805 0.090522826 0.09420539
000190 bc c2 97 bd 4a ff bf bd d4 be 6f 3d 35 a0 15 3d
       -0.074101895 -0.093748644 0.058531597 0.03652974
0001a0 fb 72 7f 3d 5c 2c 68 3d c8 b4 38 3d 8c 98 d4 bd
       0.062365513 0.05668293 0.04509428 -0.103806585
0001b0 0c 5f f5 bc 55 fa d0 bc ff 6c 8c 3d ae c1 22 bd
       -0.029952548 -0.025509993 0.06856727 -0.03973549
0001c0 2f 18 76 bd ad 59 db bd f3 79 d4 bd a3 50 25 3d
       -0.060081657 -0.10710464 -0.103748225 0.040360104
0001d0 9b 14 cd 3c bd ec 04 3d 50 03 df bc 76 64 20 bd
       0.02503424 0.032452334 -0.02722326 -0.039158307
0001e0 15 67 e7 bc 92 c4 84 3d ba 54 6a bd af 0f a8 bb
       -0.028247396 0.06482805 -0.057209708 -0.0051288228
0001f0 72 12 12 bb 49 1f 1b 3d 6f 97 69 bd 16 5b 0e 3d
       -0.0022288826 0.037871633 -0.057029184 0.034754835
000200 0d 94 df bc 36 e8 6e 3d 54 af 85 3d c4 22 2f bc
       -0.027292276 0.058326922 0.06527582 -0.010689441
000210 1a 83 76 bb 74 55 ef bd 49 ee 72 bd c6 70 8a bd
       -0.0037614764 -0.11686221 -0.059309278 -0.06759791
000220 a0 26 29 be fb 1f 1e bd 1f 6e d1 3d 8a 56 2d 3d
       -0.1651864 -0.038604718 0.10226082 0.04231886
000230 36 2e 17 bd 15 4d 3b be 54 83 9b ba 5c 24 14 3e
       -0.036909305 -0.18291123 -0.00118647 0.14466995
000240 92 23 f0 3d d4 1c 73 bd 73 30 02 be 36 03 7b bd
       0.117255345 -0.059353665 -0.12713794 -0.06128236
000250 62 21 9b 3d 3a f5 42 3c 26 77 d6 3d 52 76 8a bd
       0.07574727 0.011899287 0.104719445 -0.06760849
000260 fc 30 cb bd a2 f0 27 bb ea c2 d5 3c 39 18 ff bd
       -0.099214524 -0.0025625606 0.026093919 -0.12455792
000270 5f 32 87 3d ce 18 b7 bc 9d 3e 5e bd 01 b3 4a 3d
       0.066014044 -0.022350695 -0.05425893 0.049487118
000280 e7 b5 86 bd fa 94 86 bd f9 7d 01 bd 15 fe b5 3d
       -0.06577664 -0.06571384 -0.031614278 0.08886353
000290 89 9a 09 3e 16 27 4a 3d e8 a8 5a bd 05 18 f0 bb
       0.13437857 0.04935368 -0.053383738 -0.007327082
0002a0 c9 a5 df 3d 0d c3 15 bd d3 e4 69 3c db 78 6f bd
       0.10920293 -0.036562968 0.014275747 -0.058464866
0002b0 43 d0 29 be b2 82 4a bd e7 57 9e 3d fc 53 ca ba
       -0.16583352 -0.049441047 0.0773161 -0.0015436406
0002c0 98 28 03 bc f0 0b 41 3d 83 59 ab 3d da 93 c9 3d
       -0.008005284 0.047130525 0.083666824 0.098426536
0002d0 16 49 c0 3d 5c e3 77 bc d4 8e ca bc e2 0f 9a 3d
       0.0938894 -0.01512989 -0.024726309 0.07522561
0002e0 8b 8c 96 3b 84 03 f6 3b 95 c9 0f bd 95 27 77 bd
       0.0045943907 0.0075077433 -0.035104353 -0.060340483
0002f0 3b 23 c0 3d fe ed ea bc e0 02 77 bd ea ce a1 bd
       0.0938172 -0.028677937 -0.060305476 -0.07900794
000300 e1 ef 86 bd 35 d4 7d 3c 0f c0 40 3d ec 8f 60 bd
       -0.06588722 0.015492489 0.04705816 -0.054824755
000310 b1 3e 94 3c 6a 50 4f bd 5c e4 87 3d cd af d2 3d
       0.0180963 -0.0506138 0.06635353 0.102874376
000320 ef 42 cb bc 81 9c 18 bd 57 7a 92 3d 62 b0 bb 3b
       -0.02481219 -0.03725863 0.07152241 0.0057278136
000330 c3 65 66 3d b9 90 3d bd 27 7a 93 3d d3 c5 0f 3d
       0.05624939 -0.046280596 0.07201033 0.03510077
000340 e1 e4 28 bd 26 6d 7d 3d 3c 36 c1 3d 62 a2 54 3d
       -0.0412339 0.06187167 0.094341725 0.051912673
000350 dc a8 6d bd 15 37 e4 bc ca 31 a0 3d 7c d9 cc 3d
       -0.058022365 -0.027858296 0.078219965 0.10002419
000360 57 09 00 3d 46 eb dc 3d be 2f 07 3c 27 7d 1b 3e
       0.031258907 0.10787062 0.008251129 0.1518446
000370 98 c7 e0 3d 6a 55 37 3d b3 a4 c5 bc 18 72 15 3e
       0.109755695 0.04475919 -0.024126386 0.14594305
000380 bc 2e 6a 3e ae 2d b2 3d c0 1e 53 bd 4d 13 9a bc
       0.2286939 0.08700119 -0.051542997 -0.018808031
000390 b1 14 66 bc 72 cf 33 3b 30 13 76 3a 80 21 3a bc
       -0.014043019 0.002743688 0.00093870144 -0.011360526
0003a0 3e d7 6d 3d 57 08 1e 3d 6b d8 bd bc 40 9d 4f 3d
       0.0580666 0.038582172 -0.023174485 0.050687075
0003b0 3c 78 ca bd f1 c0 a8 bd 99 2d 4a 3c 23 9f 87 3c
       -0.09886214 -0.08239926 0.012339973 0.016555374
0003c0 bb 0f 23 3b 0d cb a2 bd 03 e7 9a bd 74 f1 01 be
       0.0024881202 -0.07948885 -0.07563593 -0.12689763
0003d0 b0 eb b4 bd b4 16 b7 bd 0f ba 16 bd 4b 70 82 3c
       -0.08834016 -0.08939877 -0.036798533 0.015922686
0003e0 69 69 ae 3d 7e 73 94 bd dc 2d 80 bb c9 9a 15 3e
       0.08516199 -0.07248591 -0.003911717 0.14609827
0003f0 de 3d e7 bd 37 4d 9c bb 94 62 66 bc de 32 90 bd
       -0.11291097 -0.004769947 -0.014061589 -0.07040952

tcn.layers.1.conv2.bias f4 [16]
000000 95 a7 0e 3b 2a e3 6b 3d 2c 04 aa bb 2c 3f 16 3c
       0.0021767367 0.057589687 -0.0051884856 0.009170335
000010 b3 df 5b bd ac b5 ca 3d a6 99 3f 3d b4 d1 73 3d
       -0.053680133 0.098979324 0.04677739 0.05952616
000020 03 ba 72 bd ca 9c be 3d 62 12 8f 3d f8 6d d6 3c
       -0.059259426 0.09307249 0.06985928 0.026175484
000030 ca 46 81 3d 71 a6 a3 3d 8f f7 82 3d 06 d4 86 38
       0.0631233 0.079907306 0.06394874 6.42911e-05

tcn.layers.1.conv2.weight_g f4 [16, 1, 1]
000000 fe 12 23 3f 4b 47 12 3f ca ad 23 3f d6 96 39 3f
       0.63700855 0.57140034 0.63937056 0.7249578
000010 a2 ef 45 3f c7 92 2d 3f 9e 74 2c 3f 74 16 0f 3f
       0.77318776 0.6780209 0.67365444 0.55893636
000020 a0 6e 25 3f e2 91 66 3f aa f4 20 3f a7 f2 35 3f
       0.64621925 0.9006635 0.6287333 0.71073383
000030 c9 41 22 3f 9c 80 1b 3f b6 ed 51 3f 44 b1 51 3f
       0.6338163 0.6074312 0.82003343 0.8191111

tcn.layers.1.conv2.weight_v f4 [16, 16, 5]
000000 b2 bb e2 3d f3 57 c6 3d e4 83 a7 bc 98 fb 87 bd
       0.11070956 0.09684744 -0.020448633 -0.066397846
000010 6b c9 53 bd 2d 4e c4 bd 46 49 be bb 09 89 03 3d
       -0.05170576 -0.09585223 -0.0058070747 0.03211311
000020 9d d5 54 3c 5a 80 b6 3d d3 e9 63 bd 0e 57 f8 3c
       0.0129903825 0.089112 -0.055642914 0.030314948
000030 47 d8 c5 3d e3 5e 97 3c 82 90 3b 3d c0 a9 04 bd
       0.09660392 0.018477863 0.04579211 -0.03238845
000040 43 b3 c2 3b 49 a6 cc bd 14 f2 08 3b 70 03 5e 3d
       0.00594178 -0.09992654 0.0020896243 0.054202497
000050 5d 02 b9 3d 41 e7 7f 3d e0 ae e6 3c a4 ab 20 3c
       0.09033654 0.0624764 0.028159559 0.009806547
000060 f6 f4 04 3d 62 aa 4b 3d 3d 04 a0 3b fd 1c 76 3c
       0.032460175 0.049723037 0.0048833177 0.01502156
000070 d1 08 45 bd 38 74 e9 bb de b2 66 3d 2a 02 84 3d
       -0.04810411 -0.00712445 0.056322925 0.06445725
000080 2e 42 65 3d f1 b7 57 bd 18 e9 b5 3d e7 ec 0d bc
       0.055971317 -0.052665655 0.0888235 -0.008662439
000090 94 a4 11 3d ea 15 7c 3d 00 27 e0 3d c1 65 ac bc
       0.035557345 0.061544336 0.10944939 -0.021044614
0000a0 cc 0a 96 bd 1b d7 0a bd e5 2e 98 bc 9b 13 94 3d
       -0.07326278 -0.033896547 -0.018577049 0.07230302
0000b0 3f d9 58 3d 59 3d d4 bd 20 6e b8 bc 73 8b 38 bd
       0.052941557 -0.10363264 -0.02251345 -0.045054864
0000c0 f9 37 3d bd 0c 12 da bc 0a 20 9a bd a8 c2 4c 3d
       -0.046195958 -0.026619934 -0.07525642 0.049990326
0000d0 e5 69 7a bd 82 ed 60 bd e4 e9 af bb 5b 6c 5f 3d
       -0.061136145 -0.054914005 -0.005368458 0.054546695
0000e0 02 7e 29 3e 9c 51 c8 3d d0 79 44 3d c1 c0 a2 3c
       0.16551974 0.09781191 0.047967732 0.019867303
0000f0 e9 d7 b9 3d 33 48 68 bd 2c 94 9d bd 53 30 b8 3a
       0.09074385 -0.05670948 -0.07694277 0.0014052488
000100 33 21 4d bd f5 93 dd bd 22 b1 a4 bd bc 5c b1 bc
       -0.05008049 -0.10819236 -0.08041598 -0.021650665
000110 01 0b 00 bc df 1c 19 be 06 a2 16 3e fb 4e 84 bb
       -0.007815124 -0.1495242 0.14710245 -0.0040377355
000120 3c e7 15 3e 97 aa af 3d 0f dd e5 bd ff c1 c4 bc
       0.1463899 0.08577459 -0.11223804 -0.024018286
000130 bd d0 ba bc d0 81 6b bc 62 94 ed 3d 09 59 a2 3c
       -0.022804612 -0.014374211 0.116005674 0.019817846
000140 f2 33 15 3c 74 36 e6 ba 8e 59 64 bd 6b 99 80 3d
       0.009106623 -0.0017563836 -0.05574947 0.06279262
000150 0c 7f 9e 3d f8 fb e2 bd 12 a3 4c 3c 08 d6 68 bd
       0.07739076 -0.110832155 0.012490051 -0.05684474
000160 7f 0b 90 3d 07 0c 9e bd ef 47 43 3d 5f bd 1b bd
       0.07033443 -0.07717138 0.047676023 -0.038022395
000170 bf 2f 97 3d 7e f2 7d bd c0 a7 b7 3b 6c 50 d6 ba
       0.07382154 -0.061998837 0.005604714 -0.0016350872
000180 b4 46 b5 3c de e4 a9 3c 2d cc 23 3d 44 dc a1 bc
       0.02212844 0.020739015 0.03998964 -0.019758351
000190 7b d4 29 bd 9c 1b 6f 3d 67 b1 11 3e 6f 52 d8 3d
       -0.041462403 0.05837594 0.1422783 0.10562598
0001a0 9c 91 82 bc 38 8c 49 bb 7a 8a 13 bc 58 87 56 bc
       -0.015938573 -0.0030753743 -0.009005183 -0.013093792
0001b0 af 9e 47 3d d0 64 3c bd ff 9e 16 3c 38 6f 9c bd
       0.048735317 -0.04599458 0.009193181 -0.07638401
0001c0 98 7b b8 bc 4c 0f ed 3d 63 3c 80 3d 26 65 78 bd
       -0.022519872 0.11575183 0.06261518 -0.060643338
0001d0 e1 1c 26 bd 9b 90 6c bc 1f 09 19 be 6d b2 e6 bd
       -0.040554885 -0.0144387735 -0.14944886 -0.11264501
0001e0 3e 41 53 3d 66 d5 09 3e 1a 9e f8 3d 0c 51 db bc
       0.05157589 0.13460311 0.121395305 -0.026772045
0001f0 49 82 d1 bd aa 36 da 3d 8d f3 df 3c d3 6d bb 3d
       -0.10229928 0.106549576 0.027337814 0.09151807
000200 7d 15 f3 3d 31 27 da bc a5 7d e7 3c 50 29 af 3c
       0.11869333 -0.026630016 0.028258154 0.021382004
000210 2f a5 bf bc 3a f5 a7 3d 66 02 b1 3c 14 00 58 bc
       -0.023394195 0.0820107 0.021607589 -0.013183612
000220 4c 5c 4e bd 74 98 e5 3d e8 ea 58 bd 34 52 e0 3d
       -0.05038099 0.11210719 -0.0529584 0.10953179
000230 cc 9c b3 bd 92 d7 64 bd 2a 93 1f bd 4d fc 4c 3d
       -0.08770141 -0.055869646 -0.038958706 0.0500453
000240 a4 b8 d1 bd f2 65 e2 bc c3 1f 88 3d 8a 39 33 be
       -0.102402955 -0.027636502 0.06646683 -0.17502418
000250 1a 44 b7 bd cb a3 7e 3b c9 63 1a bd 55 85 a2 3d
       -0.08948536 0.0038854952 -0.03769282 0.07935587
000260 a5 10 b1 bc 9c 34 87 3d 4d 92 e0 3d f4 59 a2 bc
       -0.021614382 0.06601831 0.10965405 -0.019818284
000270 a8 44 cf bc f0 d8 8c 3c 57 5a f8 3c da 11 cc bd
       -0.025301293 0.017193288 0.030316515 -0.099643424
000280 75 6a d4 3d 05 e9 12 bd 69 9d 9c 3d c3 78 cc bc
       0.103718676 -0.035866756 0.07647211 -0.024959927
000290 c2 d1 c6 b9 ab 5b 56 3d 45 4e bf 3d 1d 30 5c 3c
       -0.00037921785 0.052333515 0.093411006 0.0134392055
0002a0 f4 95 d9 3d 18 6c 34 3d 6c 85 cf bd b8 66 4a 3d
       0.106243044 0.0440484 -0.1013287 0.049414366
0002b0 57 0f 4b 3c f7 a0 54 bc c3 01 27 bd 44 2a ce bd
       0.012393794 -0.01297783 -0.040773164 -0.10066655
0002c0 59 22 cb bd ef 01 a5 bc c9 b8 d2 bd bc aa 1c bb
       -0.09918661 -0.020142524 -0.10289151 -0.0023905477
0002d0 72 f6 fb bc 69 73 1d bd ae 17 c9 bc 78 76 3d 3d
       -0.030757163 -0.03844014 -0.024547424 0.04625556
0002e0 d3 f1 c2 3d 64 e9 b8 bd b8 d3 b7 bd ff 8b a4 3d
       0.095187806 -0.09028891 -0.08975929 0.08034515
0002f0 6c f0 1e bd 8e 7e b6 bd 77 3b 09 3d 3d 10 bb bd
       -0.038803503 -0.08910857 0.033503976 -0.091339566
000300 d3 d8 a6 3b e1 96 2f 3d 18 b3 9e 3d 58 c3 33 bd
       0.0050917654 0.0428685 0.07749003 -0.043887466
000310 17 4c 48 bc f7 70 5c bd d9 15 47 bd d5 cb 5e bc
       -0.0122251725 -0.05381867 -0.04860482 -0.013598402
000320 9a 59 38 3d 7b 61 ca 3d 65 87 50 3d 3d c0 86 3d
       0.045007326 0.09881874 0.050910372 0.06579635
000330 8a 9f 8a bd ed a9 d1 3d 91 40 a5 3d d2 db a1 3d
       -0.06768711 0.10237489 0.08068956 0.079032555
000340 9b ab 02 3e 4a d7 95 3d c4 53 8d bd 6e bd 7c bd
       0.12760775 0.07316454 -0.06900743 -0.06170409
000350 df 66 7d bc 0d 35 75 3d 7d 86 36 3d c7 60 27 3d
       -0.015466421 0.059865046 0.04456185 0.04086378
000360 c0 a4 19 3d 10 b4 a2 3c 52 7d a3 3c 61 15 5a bd
       0.037510633 0.019861251 0.019957218 -0.053243045
000370 21 e5 29 bd ec 67 0b be 30 dc f0 bd d9 fc 9d 3c
       -0.04147828 -0.13613862 -0.117607474 0.019285606
000380 56 a8 92 3c 0e 41 81 bd 3f 51 3d bc d0 d6 6b be
       0.017902534 -0.06311236 -0.011555015 -0.23031163
000390 78 e3 2d 3b 73 a4 66 bc 94 af ac 3d c6 69 c3 3c
       0.0026533287 -0.014077294 0.08431926 0.023854148
0003a0 c2 bf 54 3d 50 95 02 be e1 7f 91 bd f5 de d0 3c
       0.051940687 -0.1275227 -0.07104469 0.02549694
0003b0 78 32 27 3d 3c df 8d 3d 9a f0 b1 bd 38 8e 1b be
       0.040819615 0.06927344 -0.08688469 -0.15190971
0003c0 03 4f 9b 3c 1a ff a1 3d ec 1e b6 3d 3d 36 4a 3d
       0.018958574 0.07909985 0.08892617 0.049368132
0003d0 22 fe b9 bc 32 bc 38 bc 40 17 98 3c e5 88 31 3d
       -0.022704188 -0.011275338 0.018565774 0.043343443
0003e0 a3 60 e4 3c ce be 64 3c 07 c1 07 3d 52 c9 3f 3d
       0.027878111 0.013961507 0.03314307 0.046822853
0003f0 fa 78 e8 bd 2e 56 56 3c fa c6 ef bd ae ec c4 3c
       -0.113511994 0.01308207 -0.11707874 0.024038639

tcn.layers.2.conv1.bias f4 [16]
000000 80 b8 83 bd 49 77 9c 3c 28 73 bc 3d d3 c1 47 3d
       -0.06431675 0.019099848 0.09201652 0.04876883
000010 74 e8 f1 bc 62 75 75 bd 6a 3e ef 3d e9 91 43 bd
       -0.029529788 -0.059926398 0.116818264 -0.047746573
000020 11 89 91 bd 29 47 b3 3d 8f 0c c9 39 4f f5 1b bb
       -0.071062215 0.08753807 0.00038347064 -0.0023797338
000030 40 6a c9 bd d3 b6 bf 3d 7e 73 83 bd 98 fe ae 3b
       -0.09834719 0.09361043 -0.06418513 0.0053404085

tcn.layers.2.conv1.weight_g f4 [16, 1, 1]
000000 0d e1 3b 3f 82 24 27 3f 4a f5 3f 3f 2d 91 52 3f
       0.73390275 0.6529008 0.74983656 0.8225277
000010 af db 54 3f 64 ca 63 3f ed 68 78 3f f4 c2 66 3f
       0.8314771 0.889807 0.97035104 0.90141225
000020 ab 26 1d 3f 3b 8a 2a 3f cc b5 08 3f 57 49 16 3f
       0.6138713 0.6661717 0.534024 0.5870566
000030 f2 b7 27 3f 4f 4c 5a 3f 10 c7 34 3f 1e e6 50 3f
       0.65515053 0.8527269 0.70616245 0.8160113
