model_save/beat_tracker_0.1066.pt (torch, 153742 bytes, 71 tensors)

frontend.conv1.0.weight f4 [16, 1, 3, 3]
000000 c5 72 02 3f a3 5d 3b 3f 73 1a 51 3d d5 02 fc 3e
       0.50956374 0.73189753 0.051050615 0.4922091
000010 03 89 9e 3e 50 1d 9d 3d 34 b0 f5 3d 93 8b 19 3f
       0.30963907 0.076716065 0.11996499 0.599786
000020 f8 0e 9c 3e e0 4f 74 be a8 14 5c 3f 02 32 34 3f
       0.3048017 -0.23858595 0.8596902 0.70388806
000030 b9 75 56 3d f9 af b2 3e 32 07 d9 3e 14 d2 43 3d
       0.052358363 0.3489988 0.42388302 0.047807768
000040 94 84 2d 3f 9c e5 8c 3e 90 ad f7 bd 2e 3c 00 3e
       0.67780423 0.27518928 -0.12093651 0.12522957
000050 d4 84 2f bd 93 5b 37 3d 22 88 8f bd 0d 89 a3 3e
       -0.042851284 0.044765066 -0.07008387 0.319405
000060 eb 95 81 be ee dd 00 be fd c2 87 bc 55 ba 56 be
       -0.2530969 -0.1258466 -0.01657247 -0.20969518
000070 ba 11 80 3c 33 a1 95 be d8 0b b9 3e 36 97 57 be
       0.015633453 -0.29224548 0.3614185 -0.21053776
000080 af 16 bb 3e bc 74 be 3d 80 be e7 bd 48 88 53 3e
       0.36540744 0.09299609 -0.11315632 0.20657456
000090 44 3a 65 3e 19 ac 35 3f fd d4 b5 3e 9b 84 ce bd
       0.22385508 0.70965725 0.3551406 -0.10083886
0000a0 04 10 9f 3e 34 83 b3 bd 0a ff a0 3e 27 39 10 3f
       0.31066906 -0.087652594 0.3144458 0.5633721
0000b0 69 be 5c 3e 20 97 89 bd 19 7e 83 3e 1b 02 46 3e
       0.2155701 -0.06718278 0.25682142 0.1933674
0000c0 0a 53 05 3d b5 66 8a be 5d 58 a2 be df 4c c2 bd
       0.032549895 -0.27031484 -0.3170804 -0.09487318
0000d0 4d 65 4e be 5b 46 ba 3e a8 b1 df 3e c6 79 ef 3e
       -0.2015583 0.36381802 0.43690228 0.46772593
0000e0 8b 43 6f 3e 32 5f 8d 3e 6b a7 f5 3e e5 7b 84 be
       0.2336561 0.2761169 0.47979292 -0.25875774
0000f0 32 5f 36 3e de 0e 21 be 20 d5 0c be f8 57 cd bd
       0.17809752 -0.15728328 -0.13753176 -0.10026544
000100 d6 e9 a1 3d c6 ef d1 bd 1d 10 c9 3d d9 94 a1 be
       0.07905929 -0.10250811 0.098175265 -0.31558874
000110 9a 84 9a be e7 4c f6 bb 80 ce df 3e cf 9b 82 3e
       -0.30179292 -0.0075164917 0.43712234 0.25509498
000120 a3 d2 b3 3e 29 23 76 be 77 e0 92 be 22 b5 62 be
       0.3512164 -0.2403685 -0.28686878 -0.22139409
000130 d3 32 44 be 87 71 38 3e f1 c7 30 3e 79 77 a4 3e
       -0.19160013 0.18012057 0.17263772 0.321224
000140 d8 94 d3 bd 82 b3 91 be 90 a3 01 3e 0d 36 c8 bd
       -0.10331124 -0.28457266 0.1266005 -0.09775934
000150 c2 6b 9c 3e d6 21 73 3c 30 17 a7 3e 92 45 8e be
       0.30550963 0.01483961 0.32634878 -0.27787453
000160 62 f6 46 be 66 dc 9b 3d bd 1d 70 3e 4e a0 32 bc
       -0.19429925 0.07610397 0.23448844 -0.010902477
000170 64 77 40 3e b7 6e 8e 3e e7 e2 6d be 32 93 67 be
       0.18795544 0.27818844 -0.23231088 -0.22614744
000180 f5 ad ae 3e 88 81 ce bd 1d e2 f8 bd 6e 1f 91 be
       0.34117094 -0.100833 -0.12152503 -0.2834429
000190 88 25 33 be 5a 4f 12 3e 67 e2 c4 bb 3b ae 67 be
       -0.17494786 0.14288083 -0.0060084346 -0.22625057
0001a0 37 a3 53 3d 95 2d 39 be 82 b9 80 be dd ca ef bd
       0.051669326 -0.18083794 -0.2514153 -0.11708615
0001b0 bd 70 8a be e0 0a 33 be 60 fe c9 3e 07 10 3e 3d
       -0.27039137 -0.17484617 0.39451885 0.046402004
0001c0 b7 31 f0 3d fc a5 79 be 6d dd 76 be d2 af e6 bd
       0.11728232 -0.24379724 -0.24107905 -0.11264004
0001d0 af 6e b9 3d d2 89 89 be b9 96 f3 bd f7 29 2b be
       0.09054314 -0.2686296 -0.118939824 -0.16715227
0001e0 1d de 00 3d 9e e6 c3 bd 28 31 18 3c d5 2b 4a be
       0.031461824 -0.09565471 0.0092890635 -0.19743283
0001f0 be 87 52 be ea 1d 2c be ed 59 88 be 28 4c 73 be
       -0.20559594 -0.16808286 -0.26631108 -0.2375952
000200 e8 0c 02 3f 82 3a a1 be 37 e2 44 3e 08 9f fe 3d
       0.50800943 -0.3148995 0.19226919 0.124326766
000210 a0 b7 94 be be ed 9d 3e ae d9 89 3c 66 1f 11 be
       -0.29046345 0.30845445 0.01682743 -0.14172134
000220 3b 6c 9b be 48 e4 bd be 8b 14 dc 3d a8 5b 92 bd
       -0.3035601 -0.37088227 0.10746106 -0.07146388
000230 93 c1 0a 3e d2 d9 7d be 8f 70 70 3e 2f 0e 76 be
       0.13550405 -0.24790123 0.23480438 -0.24028848

frontend.conv1.0.bias f4 [16]
000000 74 20 8c be ae 06 34 be f3 54 1e 3e 14 ff 9f 3e
       -0.2736851 -0.17580673 0.15462093 0.31249297
000010 28 fd f0 3e 8f 29 54 be f7 63 8e 3e 45 62 43 bd
       0.47068143 -0.20718978 0.27810642 -0.04770114
000020 c8 e4 1a bd c9 4e 16 be d9 79 ad 3e 42 8b 8a be
       -0.03781584 -0.14678492 0.33882025 -0.2705937
000030 93 af 00 3e 92 84 fb 3d 25 40 fe 3c b9 de 14 be
       0.12566976 0.12281145 0.031036446 -0.14538087

frontend.conv2.0.weight f4 [16, 16, 3, 3]
000000 34 3f 0b be 1d c5 b5 3a 0d 2a 3b 3e a7 f2 b9 bd
       -0.13598329 0.0013867948 0.1827776 -0.090794854
000010 7d 8f 88 3c e9 1e 92 3d 46 a7 0b 3d 7b 4a 4e 3d
       0.016669983 0.07134802 0.03409507 0.050364
000020 98 57 5d 3b 63 aa 42 be f4 51 61 3c ca 6d 8a 3e
       0.0033774134 -0.1901031 0.013752449 0.27036887
000030 f2 87 d7 bc ef 44 cf 3c fb 26 d8 3d 04 9f d2 ba
       -0.026309941 0.025301425 0.1055431 -0.0016069119
000040 84 b6 19 bd 87 2c dc 3b 57 1d de 3d 94 9c 4f bd
       -0.037527576 0.0067191753 0.1084544 -0.050686434
000050 11 80 8b bc aa 60 6b 3d c7 2e 03 3d cf d2 25 bd
       -0.01702884 0.057465233 0.032027032 -0.040484246
000060 85 0c 89 3c 40 c5 f4 3c b2 02 23 bb 08 2c 12 3d
       0.016729603 0.029879212 -0.0024873433 0.035686523
000070 bf a0 f4 bc ca 73 5a bd 76 e6 de bc c6 82 0f be
       -0.029861806 -0.05333308 -0.027209502 -0.1401473
000080 ab f6 13 be dd 44 aa 3d 54 e0 92 bd fe e3 1f be
       -0.14449565 0.08313916 -0.071716934 -0.15614316
000090 37 99 4e be e6 0b b2 bc ae 6b 6a 3e e9 b2 b0 bd
       -0.20175634 -0.02173419 0.22892639 -0.086278744
0000a0 1b ce ad bd 0a ea 72 3d 0f e1 92 3c 79 35 9d bb
       -0.08486577 0.05930523 0.017929582 -0.004797634
0000b0 69 59 fa bc 7d dd 61 3d ec 93 00 bc 12 74 f0 bd
       -0.030560212 0.05514287 -0.007847767 -0.11740889
0000c0 f9 fa 1a 3c 9c 30 23 3d 92 62 1a 3d bf 9c bf 3d
       0.009459251 0.03984128 0.03769166 0.09356069
0000d0 39 2b 11 bd b3 e9 58 bd e6 5f 5e be d5 a8 aa bd
       -0.03544161 -0.052957248 -0.2171627 -0.083329834
0000e0 da e4 78 3c a2 3e fc bd 35 52 4c bd c5 a5 05 3d
       0.015191281 -0.12316634 -0.049883086 0.032628793
0000f0 49 86 86 3c bb 49 43 3d cd 22 a9 bc b5 2a fc bd
       0.016421454 0.047677737 -0.020646477 -0.12312833
000100 d9 54 3e be 9f 10 dc 3d b9 e4 ab 3d 2b b5 fc bc
       -0.18587054 0.10745358 0.08393235 -0.030848106
000110 d2 f2 1a bd 6e 57 31 3a 7f 44 4f bd 0e ca 4b 3d
       -0.037829228 0.0006765042 -0.050602432 0.04975324
000120 74 1a f7 3d 7f 86 88 3d 85 20 34 3d 55 af d6 3d
       0.120655924 0.06666278 0.043976326 0.10482661
000130 02 18 9b bc f7 53 cd bd 9b 2c e9 3c a0 8d 26 bd
       -0.018932346 -0.10025781 0.028463652 -0.040662408
000140 7c bc 25 3d 25 76 c5 3d 65 bb a7 3d d5 fe 08 be
       0.040462956 0.09641675 0.081900395 -0.1337846
000150 8b 10 ba 3d 92 5b 64 3d 94 2e 40 bd 18 d9 4a 3d
       0.090851866 0.05575139 -0.04691942 0.049523443
000160 3a 49 70 3c d6 9c 16 bd 1e f5 02 bd 81 a6 7b be
       0.014665896 -0.036770664 -0.031972043 -0.24575235
000170 ff 09 2f be 98 a6 aa bd 68 e6 39 be 8b 8f 44 be
       -0.17093657 -0.083325565 -0.181543 -0.19195382
000180 2a 52 e3 3d 38 e1 02 be e2 60 d1 bb c0 5a a5 3d
       0.11099656 -0.12781227 -0.006389723 0.0807395
000190 05 6c 73 3d f5 26 dd bd 0d 24 b6 3d 9d 7b b6 bc
       0.059429187 -0.10798446 0.08893595 -0.02227574
0001a0 b2 1e 5b 3c 82 b2 aa 3d 84 90 c4 bb 7d c1 16 bc
       0.013374018 0.08334829 -0.005998673 -0.009201405
0001b0 ef 0e 66 3d b3 42 7a bc df 28 0e 3d ad 8e 09 bd
       0.056166586 -0.015274691 0.034706946 -0.03358333
0001c0 46 2a c8 3d 23 b8 90 3d 69 6d a6 3d 85 71 3d 3a
       0.09773688 0.07066371 0.08126337 0.00072266936
0001d0 1a 83 6c bd b4 2b 40 3d 0b 35 e5 3c 23 b5 02 be
       -0.057742216 0.04691668 0.027979394 -0.1276441
0001e0 5f 81 1f bc c6 0d 70 bd 03 1b 15 bd d5 1f 30 bd
       -0.009735434 -0.058606885 -0.036402714 -0.042999107
0001f0 55 10 34 bd 14 62 23 bd 9e 7c 70 3e 18 f7 39 3f
       -0.043960888 -0.039888456 0.23485038 0.7264266
000200 68 54 3c 3f 2a c1 5f 3e f7 63 04 3f d8 50 ce 3e
       0.73566294 0.2185103 0.51715034 0.40296054
000210 b9 4e ef bd b4 0b d1 3d b7 bb b1 3d 07 eb f2 bb
       -0.11684937 0.1020731 0.08678382 -0.0074132713
000220 d8 17 8f bd 08 88 47 bd f7 f8 37 bc 47 60 47 bd
       -0.0698697 -0.048713714 -0.011228791 -0.0486758
000230 c9 5c ea bc 13 15 18 bc 4f df 1d bd c3 18 5c bd
       -0.028608697 -0.009282368 -0.03854304 -0.053734552
000240 09 c5 cb bd 30 42 13 3e 22 60 37 3d 7f 36 76 bc
       -0.09949691 0.14380717 0.044769414 -0.015027641
000250 10 94 b4 3c 66 d0 62 3d 5b 0c c8 3d 0d 62 90 3d
       0.022043258 0.055374525 0.097679816 0.07049952
000260 fd e0 85 bd a2 2b 92 3d cb 39 39 3e ad 6c 8d 3d
       -0.06537054 0.071372285 0.18088453 0.06905494
000270 af 50 b0 3d 81 7d 10 3e 74 a9 db bc 2f 8c 34 3d
       0.08609139 0.14110376 -0.0268142 0.044079002
000280 7d 7d 31 bd a7 1d 8b bd 9d 16 c8 3d 4c d3 10 3c
       -0.043332566 -0.06792765 0.09769938 0.00883944
000290 80 43 f5 bd 1e 2b 34 bd a4 d2 9a bd 83 1d e0 bd
       -0.11975765 -0.043986432 -0.07559708 -0.10943129
0002a0 59 20 3a bd c9 93 08 bd 80 15 05 3d d2 59 30 bd
       -0.045441005 -0.033344064 0.032491207 -0.04305441
0002b0 68 98 fa bd dd 7d c4 bd f2 21 98 3b 8d 55 f8 bd
       -0.122361004 -0.09594319 0.0046427185 -0.121256925
0002c0 c9 c3 88 bd be 92 f7 3c d2 41 7e bd bf c6 e6 bc
       -0.06677968 0.03022134 -0.06207449 -0.028170941
0002d0 7f d5 22 bd 88 f2 fd 3c 12 8c 83 bc 1c e3 e6 bd
       -0.039754387 0.030999437 -0.016058002 -0.112737864
0002e0 6a 9e 41 bd d6 31 7d bd 16 11 8d 3d 67 2d 39 bd
       -0.047270216 -0.061815105 0.068880245 -0.045209315
0002f0 88 e6 e9 bd e6 86 c2 3c 2a 73 94 bd 83 d3 5f bd
       -0.114209235 0.023745965 -0.07248528 -0.054645073
000300 f5 7b bd 3c 79 5d 28 bd 85 8b 19 be 71 26 1e bd
       0.023130396 -0.041104767 -0.14994629 -0.03861088
000310 5c 6b 0d bd 2b c7 89 bd d3 03 28 be d6 55 98 3d
       -0.034526214 -0.067274414 -0.16407709 0.07438247
000320 28 e7 6d 3c 1b ec 12 be 88 67 63 bd 20 cd 36 3d
       0.014520444 -0.1434788 -0.055518657 0.044629216
000330 73 94 a6 3c 4e 7a 04 3d f5 4a 92 3c a5 d3 15 be
       0.020334458 0.0323432 0.017858008 -0.14631517
000340 fe 16 09 bd e4 c9 a6 3d f7 8c 48 3d 11 73 16 3d
       -0.033469193 0.08143976 0.04896256 0.03673083
000350 38 75 85 bd 8d a5 2b 3d 8e 99 52 bd 49 9d 89 bd
       -0.06516498 0.04190593 -0.051415972 -0.06719453
000360 86 55 e4 bb 2b 75 45 3d 81 bc 03 3e ed ee bc bd
       -0.006968203 0.048207443 0.12864877 -0.09225259
000370 5b 9f 12 3d e7 f5 f4 bc 63 55 ce 3c a0 04 37 3d
       0.035796504 -0.029902412 0.0251872 0.044682145
000380 fe 8c 53 3b 44 28 36 3e f0 2c 74 be f5 20 cd be
       0.0032280083 0.17788798 -0.23845267 -0.40064207
000390 d8 db c5 3d 64 65 4d be a2 a4 9b be 97 b3 34 3e
       0.096610725 -0.20058209 -0.30399042 0.17646633
0003a0 43 71 89 3d a1 6f cd bc 0e 3e 0f be 45 0f 12 be
       0.06711056 -0.025077643 -0.13988516 -0.14263637
0003b0 45 05 e7 bb 86 0d c9 bd 5b a0 07 bd b0 8f 88 bc
       -0.0070501887 -0.098170325 -0.03311191 -0.016670078
0003c0 41 72 9d bd 3d 76 11 3c f0 6f 8a 3b ec c9 dc 3a
       -0.07687808 0.008878288 0.00422477 0.0016844845
0003d0 45 43 4b bd 62 6e b2 bd 6f 94 86 bd 9c 5f 5f bd
       -0.0496247 -0.0871246 -0.0657128 -0.05453454
0003e0 bc 01 27 bd 36 fe af 3c 98 58 5c bd b0 1a 4a bd
       -0.04077314 0.021483522 -0.053795427 -0.049341857
0003f0 f7 39 f5 3d 3a 01 4b bb b4 78 8b 3c 8f a2 a0 3c
       0.119739465 -0.0030976073 0.01702533 0.019608764

frontend.conv2.0.bias f4 [16]
000000 bb 27 a3 bd 0e 81 80 bd e5 3a 35 3d e5 43 14 bd
       -0.07966562 -0.06274615 0.04424562 -0.03619756
000010 31 72 dc 3c 03 6c eb bd cf 29 e5 bc 07 04 eb bd
       0.02690992 -0.11495211 -0.027974037 -0.114753775
000020 0e 7a 7d bd 46 46 8d 3d 7c 30 a5 bd f1 f9 b3 bd
       -0.06188398 0.06898169 -0.08065888 -0.08787907
000030 6c 47 46 3d 5f 2d e0 bb af 87 56 bd a3 8c da bd
       0.048407957 -0.006841346 -0.05237549 -0.106713556

tcn.layers.0.conv1.bias f4 [16]
000000 2e 4c bd bd 8b e3 2c be 5b a2 35 bd dd 2a 9d 3d
       -0.09243046 -0.16883676 -0.044344287 0.07674191
000010 94 79 10 3d f0 fd bc bc bb 0b 00 3e e0 c9 37 bd
       0.035272196 -0.023070306 0.12504475 -0.044870257
000020 54 6c d6 3d c6 07 78 bb 7c 09 1e be 19 d9 69 3d
       0.10469881 -0.003784643 -0.15433306 0.057091806
000030 bd f7 7a 3b 9a 6a 1f 3d b1 69 13 bd 09 bb 1c 3e
       0.0038294636 0.038920023 -0.035989467 0.15305723

tcn.layers.0.conv1.weight_g f4 [16, 1, 1]
000000 12 19 50 3f 61 ff 33 3f 76 9c 2d 3f d5 6f 20 3f
       0.81288254 0.7031155 0.67816865 0.6267064
000010 29 f0 31 3f bc a2 10 3f 9a 5a 7a 3f f6 95 69 3f
       0.6950708 0.5649831 0.97794497 0.9124445
000020 55 0d 44 3f 95 53 6c 3f e2 50 35 3f 7b f8 5e 3f
       0.76582843 0.92315036 0.7082654 0.870979
000030 c7 88 86 3f 83 b6 4d 3f 91 f1 0c 3f a1 4d 55 3f
       1.0510491 0.80356616 0.550561 0.8332158

tcn.layers.0.conv1.weight_v f4 [16, 16, 5]
000000 13 1e a9 bd f4 ac 09 bd 12 31 13 bb 9d 11 0f bd
       -0.08257689 -0.033612207 -0.0022459668 -0.034928907
000010 88 cf 9b bd 22 a6 d0 bc fa b6 0f bc cf 7f 09 3d
       -0.07607943 -0.025469843 -0.008771652 0.033569153
000020 6b 44 62 3d 92 0f 9a bc c6 fc f7 bd 67 09 ca bd
       0.05524103 -0.018806253 -0.121087596 -0.098650746
000030 3b 5a 21 be a6 59 19 be 6c d5 57 be cf e8 a6 bc
       -0.15757076 -0.14975604 -0.21077508 -0.020374684
000040 28 ce 22 3d cb 3b 03 3d 39 a3 8a 3d 4d 46 b0 39
       0.039747387 0.032039445 0.067694135 0.00033621714
000050 3e 26 2f 3d fa 5b e5 bc 10 f9 4c bd 4a 5f cb bc
       0.04276108 -0.02799796 -0.050042212 -0.02482571
000060 6e f8 d0 bd a1 56 5f bc 90 3f 04 bd 1b b4 0c 3d
       -0.10203634 -0.013631494 -0.03228718 0.03435145
000070 f3 67 ce 3c ee c6 9a 3b f1 fb 61 bd 80 32 8e 3d
       0.025196051 0.0047234213 -0.05517191 0.06943226
000080 cc e2 cf bc 04 ea af 3c 20 76 7c 3d eb 0f b9 bd
       -0.0253767 0.021473892 0.06163609 -0.09036239
000090 5a ae 2a bd 81 61 48 3c ec 42 3b 3d 09 be 1a bd
       -0.04167018 0.012230278 0.04571812 -0.037778888
0000a0 8b 1f c6 3b ed a0 84 bd f0 4b 75 bd 39 d4 30 3d
       0.0060462407 -0.06476007 -0.059886873 0.04317114
0000b0 46 5b ab bc a7 68 a9 3d 00 d1 90 bb 94 2f 3d bd
       -0.020917546 0.08271914 -0.004419446 -0.046187952
0000c0 5c 95 1e 3d 1b cf ff 3c 10 69 ae 3c 63 ac 57 bd
       0.03871666 0.031226685 0.021290332 -0.052654635
0000d0 2f 23 a4 3c b0 ff 14 bd 6a c6 cd 3d ce 81 9b 3d
       0.020036308 -0.036376655 0.1004761 0.07593118
0000e0 90 3a 51 3d ac 3f 40 3d c7 47 94 bc 40 7a 00 be
       0.05108124 0.046935722 -0.018100632 -0.12546635
0000f0 31 48 6c 3e 25 fa 60 3e c3 3e f5 3d c3 07 30 3e
       0.23074414 0.21970423 0.119748615 0.17190461
000100 90 2d 67 3d 8d 40 7d bd c6 eb d5 bd f0 54 43 bd
       0.056439936 -0.06182914 -0.10445361 -0.047688425
000110 1f 67 ca bd 95 ee af 3c d9 c6 bf 3d 47 07 f6 bb
       -0.0988295 0.02147607 0.09364099 -0.0075081917
000120 7d 1f 86 3d 4a c6 7f bd f4 e8 9e 3b d5 0b d8 bd
       0.06548975 -0.062444963 0.0048495475 -0.10549132
000130 1f 9f 85 bd f2 ee ec bc b8 11 22 bc ea 4c 45 bd
       -0.065244906 -0.028922532 -0.00989192 -0.048169054
000140 67 96 68 bd 78 e8 92 3d 64 10 d6 3c 99 77 6f 3b
       -0.05678406 0.07173246 0.026130863 0.0036539792
000150 2e 2a f1 bd 7f 39 c8 bc 2b a3 22 bd 05 a5 0c 3d
       -0.11775623 -0.024441479 -0.03970639 0.034337062
000160 f3 d4 88 3d 02 1e 73 3d 05 d7 46 bd 17 c5 3d bd
       0.06681242 0.05935479 -0.048544902 -0.046330538
000170 8c c7 3b bd 48 0c 00 3e 96 de 61 3d 03 80 a8 bd
       -0.0458446 0.12504685 0.055143915 -0.08227541
000180 8e 4f 33 3c 34 a3 21 bd 65 ca c7 3b f5 a8 a7 3d
       0.01094426 -0.039462283 0.0060971254 0.08186523
000190 b0 ac 29 bd b4 ff f5 bc e3 19 8d 3d c7 95 b5 3c
       -0.041424453 -0.030029155 0.06889703 0.022166146
0001a0 dd 32 81 bc 0a 79 a9 3d c7 a3 ae 3d e8 70 86 3d
       -0.015771324 0.082750395 0.08527332 0.06564504
0001b0 66 c7 b8 3d 56 fc 01 3c 08 5c 0c bb d4 c5 61 3d
       0.09022407 0.007933697 -0.002141716 0.055120304
0001c0 43 c9 ee 3d f7 be 92 3c ca de 78 3d 54 f8 9f bc
       0.116594814 0.017913325 0.060759343 -0.019527592
0001d0 ed 6d 93 3d 91 14 94 3d d7 8b cb 3d ec 16 b3 bb
       0.07198701 0.07230485 0.09938782 -0.005465379
0001e0 01 b1 e1 bd 32 ba cd bc 26 16 90 3d 2b 4d e1 3d
       -0.11020089 -0.025113199 0.070354745 0.11001047
0001f0 b9 c6 2c bc 85 ec f2 3d 70 4d 45 3d 89 8a 2a 3c
       -0.010545426 0.11861519 0.048169553 0.010409006
000200 96 62 84 bc 05 4f 70 bb 26 cb 83 3d 40 38 0c bd
       -0.01616029 -0.0036668193 0.06435232 -0.03423333
000210 0e b4 1c 3d 29 56 fc bd 6a 0b 8c bd cd aa 90 bd
       0.03825765 -0.12321121 -0.068381146 -0.07063828
000220 9b f9 c9 bc 45 f7 85 bd f7 7c 04 bd d4 9b 93 bd
       -0.024655154 -0.065413035 -0.03234574 -0.07207456
000230 e2 0e ff bd 90 f9 ed bd ec c9 05 be 41 66 d0 3c
       -0.124540105 -0.11619866 -0.13065308 0.025439383
000240 a9 90 ee 3b 7a 7e a0 3b ae e3 f4 bd d0 74 65 bd
       0.0072804284 0.0048978897 -0.11957489 -0.056019604
000250 88 6c f4 bc 28 23 c4 bd 5e 49 fb 3d dd 6a 87 3d
       -0.029836908 -0.09577018 0.12269853 0.066121794
000260 d1 42 e4 3d 84 53 bf 3d 4b a3 9d 3c eb ec 08 be
       0.11145557 0.09342101 0.019242903 -0.13371627
000270 38 57 19 3c 32 e0 85 3c d7 57 89 3d d5 75 73 3d
       0.0093591735 0.016342256 0.06706207 0.059438545
000280 83 22 b3 bd 68 dd d3 bc e9 da 02 3e 2d b7 eb 3d
       -0.08746817 -0.02586241 0.1277882 0.115095474
000290 1d 4c 41 bd a0 38 78 3d dd 1b 91 bd b9 0b 7a bd
       -0.047191728 0.060600877 -0.070853926 -0.061046336
0002a0 4f ee c3 3d 0c 34 3d 3d b1 dc 56 bd 48 bc 23 be
       0.09566938 0.046192214 -0.05245656 -0.15989792
0002b0 97 1f 9c bd 14 e1 c5 3b 45 4c 68 3c f0 10 9e bd
       -0.07623213 0.0060387943 0.01417834 -0.07718074
0002c0 e5 0d 05 3d a2 e2 2a bd bf 81 20 3d 33 ac fb 3b
       0.032483954 -0.04172004 0.039186236 0.00768044
0002d0 39 eb 38 bd 2e 25 90 bd 42 18 59 bd 61 07 1c 3d
       -0.0451462 -0.070383415 -0.05300165 0.038092975
0002e0 bc 7c 5c 3d 48 ce b0 bd 86 19 76 bd d9 25 87 3d
       0.053829893 -0.08633095 -0.060082935 0.06599016
0002f0 21 35 d9 3c 96 18 06 bd 19 bf dc bc b4 74 82 3d
       0.026514592 -0.03273829 -0.026946591 0.063699156
000300 83 48 91 bd e4 6d 82 bd 00 27 ac bd 0f 50 80 bc
       -0.07093909 -0.06368616 -0.08405876 -0.015663175
000310 75 08 93 bc 5c 5d 05 bd 02 72 e8 3d 85 69 39 bd
       -0.017948369 -0.032559738 0.1134987 -0.045266647
000320 65 52 91 3d 9c a3 27 bd c0 b8 24 3d 6e 09 52 3d
       0.07095794 -0.040927514 0.040215254 0.051278524
000330 8f aa 08 bd b7 19 80 bc ac 4f d5 bd a4 02 cd bd
       -0.033365782 -0.015637262 -0.10415587 -0.10010269
000340 13 dd 21 be 67 51 bc bd 3a ca 60 3d fc 0e a9 3d
       -0.1580699 -0.09195214 0.05488036 0.08254811
000350 f7 0f 8f 3c f3 29 53 bd b9 b4 c2 3d 64 f0 c7 3c
       0.017463667 -0.051553678 0.09507126 0.02440662
000360 b0 49 39 3d fb b0 93 bd cb 7b d6 bd 19 6d b4 bd
       0.04523629 -0.07211491 -0.104728304 -0.08809871
000370 8f 25 21 3e 52 e1 f2 3c a7 ff 45 bd 87 41 44 bd
       0.15736984 0.029648457 -0.048339512 -0.047914054
000380 1a 7e 53 bd 59 92 20 bb 32 ef 95 3c e0 28 8a bd
       -0.05163393 -0.0024501293 0.018302534 -0.067460775
000390 84 81 4f bc d0 72 96 bd 61 48 83 bc 7e a1 93 bd
       -0.012665156 -0.073461175 -0.016025724 -0.072085366
0003a0 95 13 a2 bb d0 f5 8a 3d 82 94 78 3d 14 96 b7 3c
       -0.004946182 0.06785166 0.060688503 0.02241043
0003b0 b8 ec 0f 3d cc ef f7 3d ba ab e7 3d e9 7f 89 3d
       0.035137862 0.121062845 0.11312051 0.0671385
0003c0 38 19 66 3c 06 85 0c 3e d3 e5 82 3d 2b 6e 08 be
       0.014044099 0.1372262 0.06391492 -0.13323276
0003d0 c8 ac ae bd 1c 17 4c 3c 0f 06 e3 3d ed 56 24 3c
       -0.08529049 0.012456682 0.1108514 0.01003049
0003e0 75 fd 73 3d 28 f3 a6 bd 4f 3e 8c 3d e5 fa d4 3d
       0.059567887 -0.08151847 0.06847822 0.10399417
0003f0 2f a9 bb bb 03 71 85 3d af 40 26 bd ec 25 5a bd
       -0.0057269554 0.06515696 -0.04058903 -0.05325882

tcn.layers.0.conv2.bias f4 [16]
000000 50 7d 97 bd 62 4f 1b bd c7 55 d6 bd 56 59 3d bd
       -0.07396948 -0.037917502 -0.104655795 -0.046227776
000010 3b e2 bf bd 41 3e 99 3d b4 df 76 bc de ab fe 3d
       -0.09369322 0.07482577 -0.015067983 0.12435125
000020 f9 d1 db 38 a7 2a 92 3d 84 b3 a4 3d 65 9b 9c bd
       0.00010481844 0.071370415 0.080420524 -0.07646827
000030 f5 fd 05 3e aa 5d 79 3d bf 19 0a bd ce ed 92 bd
       0.13085158 0.06088034 -0.03371596 -0.07174264

tcn.layers.0.conv2.weight_g f4 [16, 1, 1]
000000 9f 82 80 3f eb 7d 20 3f c5 16 5a 3f 43 49 1c 3f
       1.0039862 0.62692136 0.85190994 0.6104929
000010 e8 87 51 3f 08 6b 33 3f a0 4e 46 3f 10 47 31 3f
       0.81848 0.7008519 0.7746372 0.6924906
000020 31 4d 49 3f f0 13 21 3f 1a e8 18 3f 84 cd 6f 3f
       0.7863341 0.6292105 0.5972916 0.93672967
000030 99 37 2a 3f d0 58 26 3f 3a 97 44 3f 1c 1d 45 3f
       0.66491085 0.6497927 0.76793253 0.7699754

tcn.layers.0.conv2.weight_v f4 [16, 16, 5]
000000 ce 51 de 3d bf 17 00 3d bf b8 0f 3c 2f 8e 81 bd
       0.10855447 0.031272646 0.008772074 -0.063259475
000010 de 57 9f bd 08 2d 76 3d 82 6d c1 3d 24 f2 00 3d
       -0.07780431 0.06010154 0.09444715 0.031480923
000020 8c c9 8c 3c a0 10 fb 3c 48 e6 2b 3d 6a 39 52 3d
       0.017185949 0.030647576 0.04196766 0.051324286
000030 0a 46 2a 3d dd dc 2c 3d 45 72 b7 3d 6b 93 c5 bd
       0.0415707 0.04220282 0.08957342 -0.09647258
000040 9d 89 a3 bd 6e 9b 03 bd cd 73 48 bd 56 30 9c 3c
       -0.07985232 -0.03213065 -0.04893856 0.019066017
000050 3b de 0b 3c 78 54 a5 bc 00 9d 3e 3c 5e 5e 4f 3d
       0.008536871 -0.02018188 0.011634111 0.050627105
000060 7e 6f 13 3d 64 c4 2a bc 13 6e 3e bc fc e0 66 bd
       0.035995 -0.0104228 -0.011622923 -0.056366906
000070 8a 5d 11 bd 9d f1 7e bd 42 83 c9 3d 7f 2d 27 3d
       -0.035489596 -0.06224214 0.098394886 0.040814873
000080 4f 66 32 3d 9f e0 1e 3d 00 72 37 bd 04 cb d3 3c
       0.0435546 0.038788434 -0.044786453 0.025853641
000090 3d ca 13 be fa 08 06 be 3c 3e 2a be a0 89 a9 bd
       -0.14432617 -0.13089362 -0.16625303 -0.08278203
0000a0 d4 cb e1 bd 1c f9 b3 bd f6 25 59 bd 81 f2 96 3d
       -0.11025205 -0.08787748 -0.053014718 0.07370473
0000b0 e3 03 a4 3d 2c 99 ce bd 8c bf 49 be 89 f7 1d be
       0.08008554 -0.10087809 -0.19701976 -0.15426458
0000c0 35 d7 de bd cd bf 7e 3c 80 8c 63 3c 5c 6a 86 3d
       -0.10880891 0.015548659 0.013888478 0.06563255
0000d0 36 c9 b5 3d 77 6e 9c 3d 70 ca a7 3d f1 dc 62 3c
       0.088762686 0.07638257 0.08192909 0.013846622
0000e0 f8 e2 e0 3d e2 28 49 3d 34 d9 d0 3d a7 10 35 3d
       0.10980791 0.049111255 0.10197678 0.044205334
0000f0 9c 43 c6 3b cd a0 3c bc 69 bf b0 bd 68 e3 35 be
       0.00605054 -0.011512947 -0.086302586 -0.1776253
000100 5e 5b 16 be 29 b7 ec bd 11 cf 6a bd d5 35 ae 3c
       -0.14683291 -0.115583725 -0.05732638 0.021265903
000110 d7 8f 26 3d 7c b5 e3 3d 8c 4c a7 bd 30 a7 90 bb
       0.04066452 0.111186 -0.08168897 -0.0044144616
000120 8e 4a fa 3c 8c 2f a0 3d 90 17 eb 3d 39 76 b8 3d
       0.030553129 0.07821569 0.114791036 0.09006924
000130 e2 82 0f 3d 86 8d 98 bb db d3 51 bd e1 47 d3 bd
       0.03503693 -0.004655543 -0.05122743 -0.10316444
000140 9d 7c 8d 3d 82 29 64 3c d3 a7 49 3d 4e 91 c5 3d
       0.06908534 0.013925912 0.049232315 0.09646855
000150 9b d4 36 3d 64 b9 9e 3d 4f 74 60 3d bc d5 9c 3d
       0.04463635 0.07750204 0.05479842 0.07657954
000160 98 49 5a 3c 98 a6 d3 3c 99 4a 43 bd 69 44 28 bc
       0.01332321 0.025836274 -0.047678564 -0.0102702165
000170 ca ed b7 bd d6 ad aa ba 45 a2 05 be 72 b4 b1 bd
       -0.089809015 -0.0013021778 -0.13050182 -0.08676995
000180 26 6c b2 bd 91 96 8a 3d b8 d8 55 bd a6 9e 46 bc
       -0.08712034 0.067669995 -0.052208632 -0.012122786
000190 91 c1 61 bc e7 3a 8f 3d 19 3d ca bb 89 89 b8 bc
       -0.01377906 0.069936566 -0.006171834 -0.02252652
0001a0 04 8c 98 3d a4 b7 8d bd b7 63 e0 3c 78 df db 3d
       0.07448581 -0.06919792 0.027391298 0.10735983
0001b0 1e e5 b3 3d 7d 56 c4 3b 36 8f 31 bc fb 00 8f bc
       0.08783935 0.0059917555 -0.010837367 -0.017456522
0001c0 2f 19 8a 3d bc fa 31 be a5 4d 12 be 2e a4 18 bd
       0.06743085 -0.17380804 -0.14287432 -0.03726595
0001d0 4d 46 62 3c 5e 0a 8c 3d 15 fb 4b 3d b9 1e 8e 3c
       0.013810706 0.06837915 0.049799997 0.017348634
0001e0 2b e0 aa bd c5 98 60 bd dd c1 4f bd a6 0f a6 bc
       -0.08343538 -0.054833192 -0.05072199 -0.020271134
0001f0 9e de ee 3c 85 7d 00 bd 4e f7 a8 3c ac 3f 6b bc
       0.029158887 -0.031369705 0.020625737 -0.014358442
000200 28 86 7c 3c d5 d1 50 3b 3c 97 aa 3c 7d 5c 6d 3c
       0.015412845 0.003186335 0.020824067 0.014487383
000210 cd 2d 83 3d 47 7b e0 3d 26 ce 05 3e 09 ef 0e 3c
       0.0640522 0.10961013 0.1306692 0.008723983
000220 7b 83 69 3d 19 8b 5c bd fc 76 ff 3d 33 60 d7 bd
       0.057010155 -0.05384359 0.12473866 -0.105163954
000230 30 41 8b 3d 66 44 8b bd 0b be 34 bd f8 18 aa 3b
       0.06799543 -0.06800155 -0.04412655 0.005190965
000240 7a 15 6f bd 73 37 ab bc ab ce fc 3d 87 95 5b 3d
       -0.05837009 -0.020900464 0.12344106 0.053609397
000250 27 ee d5 3d 88 33 11 bc e7 1e 46 bd 35 ef 0c bd
       0.104458146 -0.008862384 -0.048369315 -0.034407813
000260 99 bc 8f bb 68 dd 81 bd 33 57 ef bb 6c 10 d2 3d
       -0.0043864963 -0.06341058 -0.007304096 0.102570385
000270 ef 2d 7c bd 4c ed 58 3d 8a 9e 8d bc e1 5c 29 3c
       -0.061567243 0.05296068 -0.017287511 0.010337085
000280 9b 16 be bc 4a 53 7f bd fd 42 1c bd 2a bf 28 bd
       -0.023204139 -0.06233529 -0.038149823 -0.041197933
000290 f6 e2 b6 bb e2 78 6c 3d 30 3f 99 3d b8 cf 13 bc
       -0.005581255 0.05773247 0.07482755 -0.009021692
0002a0 8c 8f b8 bd 90 8c 97 bd e6 64 05 3d f9 cf 86 3d
       -0.090117544 -0.07399857 0.032566927 0.065826364
0002b0 69 2d 31 bd 15 6c 91 bd ba c9 94 bc a2 5f 6d bd
       -0.043256197 -0.07100693 -0.018162597 -0.05795253
0002c0 f6 c0 9a bc 0a d3 3a 3d 9c 0b 8c 3d c1 dc bc bc
       -0.01889084 0.04561142 0.06838152 -0.023054482
0002d0 be 0e 85 bd fe 21 ae 38 89 d7 de 3c bd ec 73 3b
       -0.064969525 8.303298e-05 0.027202385 0.0037219964
0002e0 e2 fe 7c bd 03 93 b9 3c 7e 99 ce 3c 3f 94 13 3d
       -0.061766513 0.022653108 0.025219675 0.03603005
0002f0 30 d9 a1 3c da 43 ce 3d 45 98 dd 3d 9e 29 c1 3b
       0.019756883 0.100715354 0.10820059 0.0058948537
000300 04 bd 0b be 0e 07 e3 bd f7 3e 46 bd 5f cb 86 bd
       -0.13646322 -0.1108533 -0.04839989 -0.06581759
000310 4a fb a3 bd 84 62 f3 bc 7f 03 9e bb ff d2 4c 3d
       -0.08006914 -0.029710062 -0.004822194 0.05000591
000320 f8 24 05 bd 52 c1 7f 3d 9c 7d e4 3d 13 9d e8 3d
       -0.03250596 0.062440224 0.111567706 0.113580845
000330 13 46 1d bd 83 9e 29 be 59 1c d0 bd b6 66 25 3c
       -0.038396906 -0.16564374 -0.10161657 0.010095289
000340 43 70 ff 3d d2 05 31 3d 26 0e 8a 3d 5d 70 87 3d
       0.12472584 0.04321844 0.0674098 0.066132285
000350 10 38 71 3d 55 11 28 bd b0 2a 40 bd 54 36 2b 3e
       0.058891356 -0.041032154 -0.04691571 0.16719943
000360 f8 d0 43 3e dc 06 e9 bc 30 41 e1 bd 05 d5 1c bd
       0.19122684 -0.028445654 -0.10998762 -0.03828909
000370 ed 8d cf bd aa ae 04 be 47 c3 a4 bd 3a 82 7b bd
       -0.10134492 -0.12957254 -0.08045059 -0.06140349
000380 d8 a0 76 3d 2d a0 36 3c de c6 ab 3d a9 47 38 3e
       0.060211986 0.011146587 0.0838754 0.17996086
000390 e1 76 51 3c 89 21 b9 bd 03 26 ab bc 4e f4 12 bd
       0.012784691 -0.090395994 -0.020892149 -0.03587752
0003a0 d5 cc dd 3c b3 03 88 bd f9 be 6d bc 97 18 7a 3d
       0.02707521 -0.066413306 -0.014510863 0.061058607
0003b0 49 02 92 bd 8e 4c 1c be 1b a0 64 bd 34 3b a6 3c
       -0.07129342 -0.15263578 -0.05581675 0.020291902
0003c0 7a f7 0e 3e 4e 88 48 ba 62 62 7c 3d bd a6 37 3d
       0.13961592 -0.00076497055 0.061617263 0.04483675
0003d0 4e 88 73 3d 9c e4 03 3d 58 bb d0 bd 7e 6d 49 bc
       0.059456162 0.03220044 -0.10191983 -0.012294171
0003e0 e0 8c 7e bd 20 5e 13 3c 3a 41 25 3c 63 b9 8e 3c
       -0.062146068 0.008994609 0.010086352 0.017422384
0003f0 b9 70 d4 bc 43 69 75 3d e3 ff b3 bd c5 42 b4 3b
       -0.025932657 0.05991484 -0.08789041 0.0055011236

tcn.layers.1.conv1.bias f4 [16]
000000 36 f6 fd bd 02 39 bc bd 75 ed da 3d cc 3f fe bc
       -0.12400477 -0.09190561 0.106898226 -0.03103628
000010 b0 c7 b8 bd 74 2d 8e bc 04 c7 17 bd 34 63 bf bd
       -0.09022462 -0.017355658 -0.03705503 -0.09345093
000020 98 27 d6 bd 21 e4 82 bd 9e ca 30 be 76 34 21 be
       -0.10456771 -0.063911684 -0.17264792 -0.15742669
000030 e5 d4 10 3d d5 aa bd 3d 25 fe 80 3d f1 87 1b bd
       0.035359282 0.09261099 0.06298474 -0.03797144

tcn.layers.1.conv1.weight_g f4 [16, 1, 1]
000000 b9 50 18 3f 23 49 4a 3f 6f 03 34 3f df f6 1c 3f
       0.59498173 0.7901785 0.7031774 0.61314195
000010 a5 8c 4f 3f a7 61 19 3f d2 56 18 3f f7 f6 7d 3f
       0.8107398 0.5991463 0.5950748 0.99204963
000020 bb c4 72 3f 46 64 30 3f 1f 8a 34 3f da 79 3b 3f
       0.94831437 0.68903005 0.70523256 0.73232806
000030 63 76 51 3f 7c 68 4a 3f 0d fa 56 3f df 79 69 3f
       0.8182127 0.7906568 0.839753 0.91201586

tcn.layers.1.conv1.weight_v f4 [16, 16, 5]
000000 ff a0 d5 bb d8 d3 4b 3d 98 5c ff 3c da 78 aa 3b
       -0.0065194364 0.049762577 0.031172082 0.005202395
000010 e9 00 8f 3d 59 8b bd 3d 8b 58 bd 3d ec 09 56 bb
       0.069825955 0.09255094 0.09245404 -0.0032659722
000020 8b 45 49 3d cd 06 78 bd 31 d5 ea bd fe 49 18 3d
       0.049138587 -0.06055336 -0.11466444 0.03717994
000030 a1 5a b3 bd 50 cb bb 3c a9 e6 dd bd 6a 6e 27 3d
       -0.087575205 0.022924095 -0.108350106 0.040876783
000040 78 55 ea 3c 63 13 99 bd 3e f7 85 3d b8 38 a9 bd
       0.028605208 -0.07474401 0.06541298 -0.08262771
000050 d2 23 0c 3d 49 20 80 3d 2d f9 88 bd 65 9d 0f 3e
       0.03421385 0.06256158 -0.066881515 0.14024885
000060 c8 48 93 bd d6 cd 0a bd fa 42 0b 3e 15 49 5f 3c
       -0.07191616 -0.033887707 0.13599768 0.013628264
000070 0a 41 5e 3b a0 75 45 3d c2 75 c5 bb 02 5f ba 3d
       0.0033913278 0.04820788 -0.0060260007 0.091001526
000080 b0 6d d8 3d 37 9a 38 3d 24 75 fa 3c de 01 22 3b
       0.10567796 0.045068946 0.030573435 0.0024720351
000090 83 ce d9 39 bf 94 a9 ba 8d 3b 4e 3b 91 15 79 3d
       0.0004154333 -0.0012938007 0.00314686 0.060811583
0000a0 53 50 1e 3d ee c4 b9 bc 30 d4 eb 3c f8 0a 6c 3b
       0.038650822 -0.022676911 0.028787702 0.003601728
0000b0 11 26 f3 3c c1 48 cd 3d a5 39 16 bd 14 64 27 3d
       0.029681237 0.10023642 -0.036676068 0.040866926
0000c0 c9 5c e9 bc 84 ef 52 bd 11 4a c3 bd 17 85 9f bc
       -0.028486626 -0.05149795 -0.095356114 -0.019472642
0000d0 92 1d a7 3d ad fa a3 bd e5 1c 00 3d 3e bd a3 3d
       0.08159937 -0.08006797 0.031277556 0.079950795
0000e0 ee 81 aa bd b5 0e 90 3d 16 f4 98 3c 64 d6 97 bd
       -0.08325563 0.07034055 0.018671077 -0.07413939
0000f0 b9 2f 98 bc bb 3d fe bd 99 fd 60 3d 0a 92 57 3d
       -0.018577443 -0.12414118 0.05492935 0.052629508
000100 73 2d c0 3d c2 c9 af 3d 86 3c 84 3d c0 ed d4 3d
       0.09383669 0.08583404 0.064568564 0.1039691
000110 d2 bc e1 3c b6 43 97 bd 40 b2 e5 3d 16 92 89 3d
       0.027555857 -0.07385962 0.11215639 0.06717317
000120 8d 02 e6 3c 34 67 ac bc 70 9a c7 3d a7 f7 0c 3a
       0.028077388 -0.021045305 0.097462535 0.0005377479
000130 d9 1a 6d 3d 2c e0 9d bc 01 45 b8 3d 8c f7 a2 bd
       0.057886932 -0.019271933 0.089975365 -0.07957372
000140 05 91 ce 3c 47 f1 71 3d 28 98 e9 bc b4 28 cc 3c
       0.025215635 0.05906799 -0.028514937 0.024921753
000150 9d 1b 47 bd cf d4 62 3c 59 d9 89 3d 2a 02 5c 3d
       -0.04861032 0.013844683 0.06730909 0.053713
000160 5f a4 00 3d 83 b0 3f bd 38 51 f0 bd ba 73 d3 bd
       0.031406756 -0.046799194 -0.11734241 -0.103248075
000170 d3 6a ae 3d d9 fc 8d 3d 46 fc 62 bd 55 39 81 bd
       0.08516469 0.069329925 -0.055416368 -0.06309763
000180 8f 2f cf 3d 30 c9 ca bc 92 72 b9 3d 9d fc c0 3d
       0.10116493 -0.024754137 0.09055056 0.09423182
000190 22 92 97 bd bb e2 bf bd 91 1f 70 3d 3a e6 15 3d
       -0.074009195 -0.09369417 0.058623854 0.036596514
0001a0 3e 60 7f 3d 14 1a 68 3d c6 98 38 3d c5 aa d4 bd
       0.062347643 0.056665495 0.04506757 -0.10384134
0001b0 bb e7 f4 bc 1b ac cf bc bf 4b 8c 3d 14 e8 22 bd
       -0.029895654 -0.025350621 0.06850385 -0.03977211
0001c0 6d f6 75 bd 02 43 db bd e4 67 d4 bd c1 66 25 3d
       -0.060049463 -0.1070614 -0.10371378 0.040381197
0001d0 6d 27 cd 3c 39 03 05 3d 59 f9 de bc ff 51 20 bd
       0.025043214 0.032473776 -0.027218508 -0.039140698
0001e0 ae 48 e7 bc a4 be 84 3d bb 2c 6a bd 81 df a6 bb
       -0.028232899 0.06481674 -0.057171565 -0.0050925617
0001f0 3b d3 0e bb 9f 0f 1b 3d 87 c6 69 bd 13 88 0e 3d
       -0.0021793384 0.037856694 -0.057074096 0.03479774
000200 30 c4 df bc 58 de 6e 3d 97 a7 85 3d 81 2b 30 bc
       -0.02731523 0.058317512 0.06526106 -0.01075256
000210 91 ef 77 bb 0e 72 ef bd 8f 1c 73 bd 89 4c 8a bd
       -0.0037832002 -0.11691676 -0.059353407 -0.06752879
000220 26 0e 29 be 22 1a 1e bd ad 97 d1 3d 65 9b 2d 3d
       -0.16509303 -0.03859914 0.10234008 0.042384524
000230 88 c3 16 bd c0 3b 3b be d7 0c 94 ba 29 40 14 3e
       -0.036807567 -0.18284512 -0.001129533 0.144776
000240 98 68 f0 3d 47 27 73 bd 6e 29 02 be a2 f6 7a bd
       0.117387 -0.05936363 -0.12711117 -0.061270364
000250 78 31 9b 3d 86 4c 43 3c df 84 d6 3d 7c 69 8a bd
       0.07577795 0.0119201 0.10474562 -0.06758401
000260 c6 f3 ca bd 11 66 20 bb bc 43 d6 3c 21 f4 fe bd
       -0.09909777 -0.0024474899 0.026155345 -0.12448908
000270 87 4c 87 3d 06 c8 b6 bc 9f 58 5e bd 2f 61 4a 3d
       0.06606393 -0.022312175 -0.054283734 0.049409088
000280 62 dd 86 bd 96 af 86 bd cf 75 01 bd ba 11 b6 3d
       -0.06585194 -0.06576459 -0.03160649 0.088901
000290 f8 9e 09 3e d9 c1 49 3d 75 7f 5b bd 47 f1 f7 bb
       0.13439548 0.049257133 -0.05358835 -0.0075666043
0002a0 d0 63 df 3d 04 42 16 bd bd 13 69 3c c2 e9 6f bd
       0.109077096 -0.03668405 0.014225897 -0.05857254
0002b0 9f 03 2a be 91 b5 4a bd c4 7e 9e 3d 12 fc d7 ba
       -0.16602944 -0.04948956 0.077390224 -0.0016478321
0002c0 ab f8 04 bc 14 85 40 3d 88 3b ab 3d b1 5f c9 3d
       -0.008115928 0.047001913 0.08360964 0.09832705
0002d0 48 12 c0 3d e0 c9 7a bc 54 df ca bc 9a 03 9a 3d
       0.09378487 -0.01530692 -0.024764694 0.07520218
0002e0 5d 78 97 3b 6b f6 f8 3b 21 4e 0f bd 61 ab 76 bd
       0.0046225027 0.0075977347 -0.03498662 -0.060222033
0002f0 07 54 c0 3d f4 44 eb bc 1a c4 76 bd f6 95 a1 bd
       0.09391027 -0.028719403 -0.06024561 -0.07889931
000300 71 c8 86 bd 1b d4 7e 3c 0f db 40 3d 20 ee 60 bd
       -0.065812 0.0155535 0.04708391 -0.054914594
000310 8f f5 93 3c 66 65 4f bd 62 d8 87 3d ba b0 d2 3d
       0.018061427 -0.05063381 0.066330686 0.10287614
000320 db a6 cc bc d1 4f 19 bd fd 5c 92 3d 9f 8a b9 3b
       -0.024981907 -0.037429634 0.07146642 0.005662277
000330 a0 c4 65 3d e8 22 3d bd 42 ba 93 3d 0d 0f 10 3d
       0.05609572 -0.046175867 0.0721326 0.035170604
000340 5e 87 28 bd 92 28 7e 3d fb ba c1 3d b3 6f 55 3d
       -0.04114472 0.06205041 0.09459492 0.052108478
000350 91 01 6d bd d0 ee e2 bc 2b 96 a0 3d 05 c3 cc 3d
       -0.057862822 -0.027701765 0.07841142 0.099981345
000360 47 9d ff 3c 01 ac dc 3d 6a e6 03 3c cb 33 1b 3e
       0.031202925 0.10774995 0.00805054 0.15156476
000370 3d d4 e0 3d f8 73 37 3d 2e c4 c6 bc 38 56 15 3e
       0.10977981 0.04478833 -0.024263468 0.14583671
000380 7f 25 6a 3e b2 64 b2 3d cf 0d 53 bd c2 30 9a bc
       0.22865866 0.08710612 -0.05152684 -0.018822078
000390 51 ec 65 bc 8c 91 34 3b 92 15 76 3a 53 40 3a bc
       -0.014033393 0.0027552573 0.00093873695 -0.011367875
0003a0 6c cd 6d 3d 08 fa 1d 3d 35 33 be bc 72 75 4f 3d
       0.058057234 0.038568527 -0.023217777 0.050649114
0003b0 26 76 ca bd eb ba a8 bd 86 96 4b 3c 32 dc 87 3c
       -0.09885816 -0.08238777 0.012426024 0.01658449
0003c0 e0 40 21 3b dc d6 a2 bd 2f cd 9a bd f6 ce 01 be
       0.002460532 -0.079511374 -0.07558667 -0.12676606
0003d0 c1 c5 b4 bd f1 05 b7 bd de aa 16 bd ac eb 82 3c
       -0.08826781 -0.0893668 -0.036784045 0.015981518
0003e0 a1 79 ae 3d 0a 98 94 bd b8 0d 7b bb f9 a4 15 3e
       0.085192926 -0.07255562 -0.0038307738 0.14613713
0003f0 4e 51 e7 bd c5 51 9d bb b7 42 65 bc 25 4c 90 bd
       -0.112948045 -0.0048010075 -0.013992957 -0.070457734

tcn.layers.1.conv2.bias f4 [16]
000000 45 f7 0b 3b 14 b7 6b 3d 0c 96 a9 bb 6a 3c 16 3c
       0.00213571 0.057547644 -0.0051753577 0.009169677
000010 4a 14 5c bd 5d a4 ca 3d fe ab 3f 3d ce f6 73 3d
       -0.053730287 0.09894631 0.046794884 0.059561543
000020 cd a2 72 bd b5 96 be 3d 25 42 8f 3d 57 5c d6 3c
       -0.05923729 0.09306089 0.06995038 0.026167078
000030 c4 27 81 3d 8a 84 a3 3d e0 ef 82 3d 37 f4 b4 b8
       0.06306413 0.07984264 0.06393409 -8.6285574e-05

tcn.layers.1.conv2.weight_g f4 [16, 1, 1]
000000 56 0f 23 3f c8 40 12 3f 8e aa 23 3f 11 89 39 3f
       0.63695276 0.571301 0.6393212 0.7247477
000010 eb e9 45 3f cb 8b 2d 3f 15 7a 2c 3f 2c 22 0f 3f
       0.77310055 0.6779143 0.6737378 0.5591152
000020 c4 64 25 3f 7e 8a 66 3f c5 f5 20 3f 9e f4 35 3f
       0.6460688 0.9005507 0.62875015 0.7107638
000030 59 42 22 3f 47 72 1b 3f ec e6 51 3f e3 9f 51 3f
       0.6338249 0.6072125 0.81992984 0.8188459

tcn.layers.1.conv2.weight_v f4 [16, 16, 5]
000000 eb f2 e2 3d d7 52 c6 3d 3a 1c a8 bc 38 0b 88 bd
       0.11081489 0.09683769 -0.020521272 -0.06642765
000010 c1 de 53 bd 1c 5a c4 bd 2a 29 bd bb 54 99 03 3d
       -0.051726107 -0.095874995 -0.0057727294 0.032128647
000020 f2 03 55 3c f3 75 b6 3d 9f a7 64 bd 39 ac f6 3c
       0.013001429 0.08909216 -0.05582392 0.030111419
000030 06 a9 c5 3d 68 cb 95 3c c7 bc 3a 3d d4 d9 04 bd
       0.09651379 0.018285468 0.04559019 -0.0324343
000040 bc 04 c4 3b 59 86 cc bd 1f a6 0d 3b 49 45 5e 3d
       0.0059820097 -0.09986562 0.0021613908 0.054265294
000050 8b ea b8 3d 78 dd 7f 3d 75 80 e6 3c b0 3a 21 3c
       0.090291105 0.06246707 0.028137425 0.009840652
000060 ba 49 05 3d 88 b1 4b 3d 0c 5a a0 3b 92 5e 76 3c
       0.032541014 0.049729854 0.004893547 0.015037196
000070 44 12 45 bd a1 f6 e5 bb 8e 70 66 3d 68 fa 83 3d
       -0.048113123 -0.007017926 0.056259684 0.064442456
000080 24 30 65 3d 64 ae 57 bd a0 ef b5 3d 43 0f 0e bc
       0.055954114 -0.052656546 0.088835955 -0.008670631
000090 cd 98 11 3d e0 f1 7b 3d 7e d7 df 3d 42 f2 ad bc
       0.035546113 0.061509967 0.10929774 -0.021233682
0000a0 6b fa 95 bd f7 b1 0a bd 82 34 98 bc b8 43 94 3d
       -0.07323154 -0.033861127 -0.018579725 0.07239479
0000b0 02 6b 59 3d 64 60 d4 bd 14 d4 b8 bc 4d ac 38 bd
       0.053080566 -0.103699476 -0.022562064 -0.045086194
0000c0 74 71 3d bd 47 73 da bc 5e fb 99 bd d5 30 4d 3d
       -0.046250775 -0.026666297 -0.075186476 0.050095398
0000d0 22 60 7a bd 6d c3 60 bd d7 76 b0 bb 7a 5c 5f 3d
       -0.061126836 -0.054873873 -0.0053852606 0.054531552
0000e0 c2 78 29 3e 67 40 c8 3d ff 1d 44 3d f2 d6 a2 3c
       0.16549972 0.09777909 0.04788017 0.019877885
0000f0 c0 ba b9 3d 94 95 68 bd 89 e8 9d bd c4 aa b6 3a
       0.09068823 -0.056783274 -0.07710368 0.001393639
000100 6a 1f 4d bd c0 ef dd bd fd f1 a4 bd b6 d1 b1 bc
       -0.050078787 -0.10836744 -0.08053968 -0.021706443
000110 c7 85 04 bc de 41 19 be d2 81 16 3e c2 63 88 bb
       -0.008088536 -0.14966533 0.1469796 -0.0041622827
000120 d0 f5 15 3e cd c7 af 3d 3b 1e e6 bd 30 4b c4 bc
       0.14644551 0.08583031 -0.11236235 -0.023961633
000130 91 88 ba bc 1e 3a 6b bc 52 9f ed 3d 55 5b a2 3c
       -0.022770198 -0.014357118 0.116026536 0.019818941
000140 dd 08 14 3c 79 6d ec ba 09 fb 64 bd d7 79 80 3d
       0.009035316 -0.0018037996 -0.05590347 0.06273239
000150 8a 4b 9e 3d de 09 e3 bd cf 63 4e 3c 1b 05 68 bd
       0.07729252 -0.110858664 0.012597038 -0.056645494
000160 06 58 90 3d 1e 15 9e bd f2 19 44 3d 38 b7 1b bd
       0.07048039 -0.077188715 0.047876306 -0.038016528
000170 45 17 97 3d e1 51 7e bd c8 86 b8 3b 5f 7e dc ba
       0.07377485 -0.062089805 0.0056313016 -0.001682233
000180 5c 0a b5 3c 88 b7 a9 3c 07 d9 23 3d c8 14 a2 bc
       0.022099666 0.020717397 0.040001895 -0.0197853
000190 84 17 2a bd 2c b0 6e 3d 43 af 11 3e 13 87 d8 3d
       -0.041526332 0.05827348 0.14227013 0.10572638
0001a0 4b 17 82 bc 4c 08 4a bb 24 23 15 bc 2c ca 59 bc
       -0.015880248 -0.00308277 -0.009102616 -0.01329283
0001b0 2a 08 47 3d af b8 3c bd 1b 9e 16 3c ab 6f 9c bd
       0.04859177 -0.046074566 0.009192969 -0.076384865
0001c0 ec 70 b8 bc 1e 18 ed 3d 32 5e 80 3d 69 59 78 bd
       -0.022514783 0.115768656 0.06267966 -0.060632143
0001d0 d8 77 25 bd e9 fa 6a bc f3 dd 18 be 76 5b e6 bd
       -0.040397495 -0.014342048 -0.14928417 -0.112479135
0001e0 dd d0 52 3d e3 d4 09 3e de e6 f8 3d c4 a6 db bc
       0.05146872 0.13460116 0.121534094 -0.026812918
0001f0 50 7f d1 bd 60 41 da 3d 5a 54 df 3c 21 49 bb 3d
       -0.10229361 0.106570005 0.027261902 0.091448076
000200 ba 19 f3 3d ef 8f d9 bc cc bf e7 3c 2f 5b af 3c
       0.11870141 -0.02655789 0.028289698 0.021405784
000210 a7 47 bf bc b5 58 a8 3d f3 83 b1 3c 57 5d 57 bc
       -0.023349596 0.082200445 0.021669364 -0.013144813
000220 6b 9b 4e bd 16 d8 e5 3d 9a e6 58 bd 46 81 e0 3d
       -0.050441187 0.11222856 -0.052954294 0.10962157
000230 22 b0 b3 bd a4 3d 65 bd 37 01 20 bd ad 1a 4d 3d
       -0.08773829 -0.05596699 -0.03906366 0.050074268
000240 d1 90 d1 bd b0 4b e2 bc b3 36 88 3d 41 6d 33 be
       -0.102327 -0.027623981 0.06651058 -0.17522146
000250 85 18 b7 bd 3c 75 88 3b 53 34 1a bd 12 ce a2 3d
       -0.089402236 0.004164366 -0.037647557 0.07949461
000260 55 81 b1 bc d2 22 87 3d 8a 7a e0 3d 32 2f a2 bc
       -0.021668116 0.06598438 0.109608725 -0.019797895
000270 f1 51 ce bc 69 1d 8e 3c 06 ff f7 3c 88 d5 cb bd
       -0.025185557 0.017348008 0.030272972 -0.09952837
000280 ff 72 d4 3d e0 a7 12 bd d5 87 9c 3d 20 ed cb bc
       0.10373496 -0.03580463 0.076430954 -0.024893343
000290 c7 98 e9 b9 48 62 56 3d 89 68 bf 3d 8b 48 5d 3c
       -0.0004455505 0.052339822 0.093461104 0.013506065
0002a0 99 9a d9 3d ee 65 34 3d 99 50 cf bd 6c cd 4a 3d
       0.1062519 0.04404252 -0.10122795 0.04951231
0002b0 ef 90 4c 3c 26 66 53 bc d9 ac 26 bd c2 36 ce bd
       0.012485727 -0.012902772 -0.040692184 -0.10069038
0002c0 ab 2f cb bd 9f 61 a5 bc ac a9 d2 bd 9a 91 1c bb
       -0.09921201 -0.02018815 -0.102862686 -0.0023890496
0002d0 c4 cd fb bc e4 4e 1d bd 23 57 c8 bc b0 22 3e 3d
       -0.030737765 -0.038405314 -0.024455613 0.0464198
0002e0 9c 10 c3 3d 7b f1 b8 bd 0f f1 b7 bd 03 50 a4 3d
       0.09524652 -0.09030434 -0.08981525 0.080230735
0002f0 a6 e8 1e bd c0 9e b6 bd 8d 0f 09 3d 5e 15 bb bd
       -0.03879609 -0.08916998 0.033462096 -0.09134935
000300 ec c0 a6 3b 6d aa 2f 3d 27 d5 9e 3d 06 bd 33 bd
       0.005088916 0.04288714 0.07755499 -0.04388144
000310 d6 aa 47 bc dd 8f 5c bd 86 0c 47 bd 9f 20 5e bc
       -0.012186727 -0.053848136 -0.048595928 -0.013557582
000320 ff d1 37 3d 71 4d ca 3d 0c 94 50 3d 01 cb 86 3d
       0.044878002 0.09878052 0.05092244 0.06581689
000330 c8 81 8a bd 1f a7 d1 3d ac 0a a5 3d d6 bb a1 3d
       -0.06763035 0.10236954 0.08058676 0.07897155
000340 16 96 02 3e 0a 35 96 3d d4 68 8d bd ed b3 7c bd
       0.12752566 0.07334335 -0.0690476 -0.061695028
000350 7e 2b 7e bc 8d be 75 3d 82 66 36 3d da e1 27 3d
       -0.015513299 0.059996177 0.044531353 0.040986873
000360 4d cc 19 3d 67 d0 a3 3c 82 90 a4 3c 7b ba 59 bd
       0.037548352 0.019996835 0.020088438 -0.053156357
000370 61 01 2a bd b6 6b 0b be f1 ef f0 bd 33 20 9e 3c
       -0.04150522 -0.13615307 -0.11764515 0.019302463
000380 5c 5d 93 3c ca 54 81 bd 91 98 3c bc f3 e4 6b be
       0.017988853 -0.06315 -0.011510984 -0.23036556
000390 14 f6 2d 3b 3d 94 63 bc 4e 13 ad 3d ce b1 c3 3c
       0.002654438 -0.013890323 0.08450948 0.023888495
0003a0 28 40 55 3d d9 61 02 be 63 58 91 bd 83 b0 d0 3c
       0.052063137 -0.12732638 -0.070969366 0.025474792
0003b0 51 41 27 3d 25 df 8d 3d a1 19 b2 bd ad 89 1b be
       0.040833775 0.06927327 -0.086962946 -0.15189238
0003c0 ce 1e 9a 3c 86 dc a1 3d c0 b7 b5 3d 47 a6 49 3d
       0.018813517 0.0790339 0.08872938 0.04923084
0003d0 f1 43 bb bc e7 b3 35 bc 6d 18 99 3c 0c 65 32 3d
       -0.022859545 -0.011090255 0.018688405 0.043553397
0003e0 a6 41 e6 3c 69 65 65 3c eb 9d 08 3d 78 48 40 3d
       0.028107475 0.014001229 0.033353727 0.04694411
0003f0 9e 5d e8 bd c0 42 56 3c 9b 99 ef bd a4 ce c3 3c
       -0.11345981 0.013077438 -0.1169922 0.023902245

tcn.layers.2.conv1.bias f4 [16]
000000 6b c1 83 bd c5 14 9c 3c 2d 63 bc 3d 80 cc 47 3d
       -0.06433376 0.019052872 0.09198604 0.04877901
000010 9d 35 f2 bc e8 75 75 bd ed 9f ef 3d b1 82 43 bd
       -0.02956658 -0.059926897 0.11700425 -0.04773206
000020 bf a4 91 bd cc 52 b3 3d a7 7d d1 39 66 4f 19 bb
       -0.07111501 0.087560266 0.00039957205 -0.0023393272
000030 0b 4c c9 bd 1e 01 c0 3d 5a 9b 83 bd e9 cc ad 3b
       -0.09828957 0.09375213 -0.06426115 0.005303968

tcn.layers.2.conv1.weight_g f4 [16, 1, 1]
000000 42 d8 3b 3f 79 17 27 3f 9a e5 3f 3f b4 88 52 3f
       0.7337686 0.6527019 0.7495972 0.8223984
000010 93 d8 54 3f 20 aa 63 3f 01 74 78 3f e3 c3 66 3f
       0.83142966 0.88931465 0.9705201 0.9014265
000020 ad 21 1d 3f a4 72 2a 3f f7 ab 08 3f 1c 43 16 3f
       0.6137951 0.6658118 0.533874 0.5869615
000030 f2 b8 27 3f 88 48 5a 3f cd c8 34 3f 38 d2 50 3f
       0.6551658 0.85266924 0.706189 0.8157077
