model_save/down_beat_tracker_0.0467.pt (torch, 154186 bytes, 71 tensors)

frontend.conv1.0.weight f4 [16, 1, 3, 3]
0.36637327 0.4929829 0.09102917 0.3487155 0.05403905 0.13780576 0.058712754 0.4566124
0.48616716 -0.12171153 0.6463765 0.4365674 0.17249475 0.17390993 0.2693407 0.1546934
0.5407035 0.24751994 -0.12475753 0.11286323 -0.11201051 -0.0046740877 -0.10823773 0.2543847
-0.25531518 -0.1444394 -0.07199545 -0.23004667 0.011876268 -0.34086418 0.3074311 -0.2738634
0.26759756 0.048324056 -0.12595752 0.18259443 0.17606668 0.47732204 0.23358728 -0.085693836
0.17585914 -0.02552605 0.3805279 0.56000364 0.4066735 -0.12141629 0.21347684 0.10028117
0.11738824 -0.24034527 -0.34536394 -0.10215969 -0.23374471 0.29451463 0.31633362 0.3284292
0.24740954 0.16811863 0.38159803 -0.1795292 0.13921848 -0.16215017 0.07177838 -0.1502008
0.06270793 -0.11207684 0.24582177 -0.21511073 -0.21071152 -0.11586436 0.36394328 0.17967036
0.31845808 -0.25654605 -0.30380842 -0.27112848 -0.24784848 0.097393215 0.15833718 0.30598736
-0.12809344 -0.22391425 0.18029943 -0.1112371 0.2533371 -0.03520559 0.2400417 -0.26139164
-0.17117897 0.10288548 0.15510513 -0.03777496 0.21205004 0.18207456 -0.2742351 -0.21712175
0.31493422 -0.08958083 -0.08679386 -0.2952047 -0.17243393 0.10311469 -0.02003721 -0.22191909
0.031680316 -0.21094039 -0.26852497 -0.16401123 -0.3013049 -0.22070688 0.3281817 0.05646455
0.1040604 -0.2977659 -0.22924623 -0.11488906 0.05663695 -0.2806152 -0.13308103 -0.18996589
0.012345155 -0.11412013 -0.014394151 -0.21643063 -0.22170928 -0.18848468 -0.22258611 -0.23985647
0.4616207 -0.28546524 0.20277569 0.110423 -0.28307694 0.30688405 0.0041772784 -0.12829062
-0.2849722 -0.35103276 0.12716405 -0.05102191 0.14342892 -0.24600011 0.25925225 -0.2314828
00000000: 4795 bb3e 4168 fc3e 806d ba3d d78a b23e
00000010: 0d58 5d3d f41c 0d3e c97c 703d 1ac9 e93e
00000020: e7ea f83e e543 f9bd ee78 253f c385 df3e
00000030: 77a2 303e 7215 323e 06e7 893e f267 1e3e
00000040: 8b6b 0a3f de75 7d3e e080 ffbd d624 e73d
00000050: c465 e5bd 1729 99bb beab ddbd b63e 823e
00000060: acb8 82be ece7 13be 5a72 93bd 5b91 6bbe
00000070: ae94 423c c085 aebe 9c67 9d3e d337 8cbe
00000080: 8c02 893e 72ef 453d 02fb 00be 09fa 3a3e
00000090: d34a 343e 8e63 f43e 8131 6f3e 4080 afbd
000000a0: 6b14 343e 021c d1bc 8ed4 c23e 665c 0f3f
000000b0: 8237 d03e 1ba9 f8bd ac99 5a3e 3760 cd3d
000000c0: 3f69 f03d 121d 76be 8bd3 b0be 1939 d1bd
000000d0: c65a 6fbe 9fca 963e 7bf6 a13e df27 a83e
000000e0: ed58 7d3e 4a27 2c3e d160 c33e 81d6 37be
000000f0: 4a8f 0e3e b20a 26be 8b00 933d 3dce 19be
00000100: 046d 803d 8b88 e5bd b4b8 7b3e fd45 5cbe
00000110: c3c4 57be 4b4a edbd c656 ba3e 82fb 373e
00000120: f00c a33e 015a 83be c78c 9bbe 5ad1 8abe
00000130: fecb 7dbe 1876 c73d 2423 223e 60aa 9c3e
00000140: ed2a 03be c749 65be 6aa0 383e 47d0 e3bd
00000150: 66b5 813e bd33 10bd 7ecd 753e 20d5 85be
00000160: 8a49 2fbe 9fb5 d23d e1d3 1e3e ebb9 1abd
00000170: a523 593e c171 3a3e 8b68 8cbe 2a55 5ebe
00000180: 0f3f a13e 2776 b7bd fbc0 b1bd 1225 97be
00000190: 8592 30be cb2d d33d 1325 a4bc c23e 63be
000001a0: 38c3 013d c200 58be 1b7c 89be 8ff2 27be
000001b0: a344 9abe fc00 62be 6f07 a83e 5f47 673d
000001c0: 9e1d d53d c674 98be 86bf 6abe f54a ebbd
000001d0: 25fc 673d ccac 8fbe 6546 08be 6b86 42be
000001e0: 5543 4a3c d1b7 e9bd 72d5 6bbc fe9f 5dbe
000001f0: c207 63be 2102 41be 9ded 63be ef9c 75be
00000200: 8c59 ec3e 8028 92be 6ea4 4f3e 7425 e23d
00000210: 76ef 90be e81f 9d3e 8de1 883b 9e5e 03be
00000220: e0e7 91be 91ba b3be 4b37 023e 5afc 50bd
00000230: 08df 123e 74e7 7bbe b6bc 843e d409 6dbe

frontend.conv1.0.bias f4 [16]
-0.21756637 -0.069773965 0.188616 0.3493792 0.3703696 -0.24310318 0.21640185 -0.09813776
-0.00396457 -0.18542261 0.36071497 -0.25005433 0.19960143 0.12120257 0.06822812 -0.20321757
00000000: b8c9 5ebe a7e5 8ebd 8d24 413e d5e1 b23e
00000010: 16a1 bd3e 0af0 78be 7298 5d3e 73fc c8bd
00000020: 39e9 81bb 6ddf 3dbe a2af b83e 1f07 80be
00000030: 5164 4c3e 0e39 f83d 2fbb 8b3d 4418 50be

frontend.conv2.0.weight f4 [16, 16, 3, 3]
0.011602388 -0.004720869 0.0763249 -0.14709571 -0.007026053 0.04593363 0.005514417 0.10566495
0.072555214 -0.086936764 -0.040080544 0.110477395 -0.073685266 -0.03249582 0.090166405 0.027895859
0.028600808 0.13337475 0.06617128 -0.080045246 -0.004348628 0.060208987 0.023680817 -0.044159386
0.06308987 0.054881535 0.024451861 -0.025481207 -0.055393115 -0.07027245 -0.010768578 -0.059598744
-0.03245637 0.08355201 -0.036813088 -0.09780444 -0.09001177 -0.060859196 0.07845603 -0.13096398
-0.13151324 0.050480124 0.07490784 0.06882922 0.077950016 -0.02149258 -0.045572177 -0.115223214
0.010268009 0.028008563 0.004084053 0.07986893 -0.05198658 -0.058576137 -0.10624863 -0.059002828
-0.05554312 -0.14813274 -0.07185985 -0.017180514 -0.07408271 0.023512986 -0.01828994 -0.017902523
-0.12748235 0.023729358 -0.06254502 -0.17993876 -0.26446968 0.12085948 0.032395195 0.08914115
0.057832167 0.04706401 -0.011821841 0.04465897 -0.02883809 -0.13481683 -0.0073474273 -0.0517662
0.021677438 -0.012671706 0.020130953 -0.050542593 0.04911327 0.012563866 -0.019589067 0.07764305
0.0114182215 0.041205816 -0.01664572 -0.14052385 -0.16466479 -0.06295467 -0.1396306 -0.25161934
0.041028462 -0.11695764 -0.03377291 0.0518714 0.062427036 -0.08847451 0.085326076 -0.030259302
0.006566578 0.11459113 0.012244814 0.0013608132 -0.0086763315 -0.05713891 0.034648616 -0.055683035
0.07192168 0.05785298 0.11232629 0.010992064 -0.053701848 0.025553932 0.03631646 -0.117365256
-0.00043546286 -0.054080993 -0.042617008 -0.0127027035 -0.022103926 -0.034132857 -0.058057025 0.25582805
0.38526052 0.086501926 0.30842417 0.41232255 0.03128714 0.16032033 0.30143166 -0.04010027
-0.074177645 -0.056092877 -0.002839501 -0.03642123 -0.042555343 0.006848603 -0.028838886 -0.06365702
-0.063860305 0.12256001 0.03549534 0.019863067 -0.0044625606 0.035814185 0.10304345 0.055611093
-0.051015742 0.059767947 0.14467125 0.10286895 0.059812922 0.09713535 0.0056278505 0.039344657
-0.043421563 -0.016007263 0.052581903 0.027310371 -0.07077095 -0.08167176 -0.07476259 -0.09992447
-0.07971349 -0.03777122 0.039336946 -0.01886584 -0.096082285 -0.09456173 0.020846304 -0.08354262
-0.03150104 0.012063779 -0.06507592 -0.03344588 -0.025259582 -0.0051250313 -0.014761305 -0.08369377
-0.06907319 -0.04782351 0.08119747 -0.046581164 -0.072885185 0.001045485 -0.0034999193 0.018679671
0.036333386 0.01739621 -0.10643293 -0.018964024 0.022578757 -0.030308384 -0.08031065 0.08067726
-0.009687135 -0.07033794 -0.07662866 0.006935047 0.046426874 0.020611247 0.0066156653 -0.10746374
-0.06769632 0.054102536 0.07679734 0.040506594 -0.049066406 -0.036232337 -0.08871605 -0.06452807
-0.006310496 0.021331003 0.047256824 -0.08944081 0.04008397 -0.07221026 0.004476139 0.045678746
-0.018636905 0.06652999 -0.10348558 -0.09024924 0.01143867 -0.070473395 -0.07558848 -0.07469126
-0.014819734 -0.03264919 -0.012219403 -0.07467938 -0.07710173 -0.01345774 0.009024203 -0.047664218
-0.035567153 0.045540806 -0.0018145362 -0.006998201 -0.034926556 -0.09011845 -0.0912507 -0.055441264
-0.057447653 0.010993084 -0.040264223 -0.04695339 0.0732622 0.015699765 0.042319864 -0.04754589
00000000: f117 3e3c 85b1 9abb 3b50 9c3d 42a0 16be
00000010: ce3a e6bb e724 3c3d 48b2 b43b de66 d83d
00000020: d497 943d e70b b2bd 7f2b 24bd f941 e23d
00000030: 4de8 96bd 561a 05bd 2aa9 b83d db85 e43c
00000040: 3e4c ea3c 6493 083e cf84 873d c3ee a3bd
00000050: f07e 8ebb b39d 763d 46fe c13c 79e0 34bd
00000060: 4335 813d 76cb 603d 454f c83c f7bd d0bc
00000070: e4e3 62bd 01eb 8fbd b16e 30bc d01d 74bd
00000080: f8f0 04bd 511d ab3d 52c9 16bd b24d c8bd
00000090: 1758 b8bd 7e47 79bd 8ead a03d 6c1b 06be
000000a0: 68ab 06be 3fc4 4e3d 4869 993d 56f6 8c3d
000000b0: 42a4 9f3d 3511 b0bc e4a9 3abd 26fa ebbd
000000c0: 273b 283c 3772 e53c 85d3 853b 5292 a33d
000000d0: e1ef 54bd 88ed 6fbd e298 d9bd f3ac 71bd
000000e0: 2f81 63bd 1cb0 17be 422b 93bd 26be 8cbc
000000f0: adb8 97bd 4e9e c03c c9d4 95bc 50a8 92bc
00000100: bc8a 02be 1264 c23c 9a17 80bd de41 38be
00000110: 9268 87be 2d85 f73d d3b0 043d a38f b63d
00000120: 6ce1 6c3d 31c6 403d 65b0 41bc 53ec 363d
00000130: dc3d ecbc 6c0d 0abe b0c2 f0bb cc08 54bd
00000140: e294 b13c fd9c 4fbc abe9 a43c c005 4fbd
00000150: ff2a 493d acd8 4d3c 4079 a0bc 5203 9f3d
00000160: 7e13 3b3c 6ec7 283d 9b5c 88bc 7ce5 0fbe
00000170: e39d 28be 61ee 80bd 53fb 0ebe 40d4 80be
00000180: 760d 283d 7d87 efbd 7655 0abd 1b77 543d
00000190: 7eb3 7f3d 2032 b5bd 70bf ae3d 5be2 f7bc
000001a0: 732c d73b c1ae ea3d 799e 483c 505d b23a
000001b0: 2c27 0ebc 7d0a 6abd b5eb 0d3d e513 64bd
000001c0: ac4b 933d 3ff7 6c3d 530b e63d 0f18 343c
000001d0: 78f6 5bbd 7b56 d13c 92c0 143d 325d f0bd
000001e0: d64e e4b9 0884 5dbd 2c8f 2ebd 001f 50bc
000001f0: 4b13 b5bc e5ce 0bbd 34cd 6dbd e5fb 823e
00000200: de40 c53e ec27 b13d c6e9 9d3e f11b d33e
00000210: f226 003d 032b 243e 4055 9a3e 2e40 24bd
00000220: 73ea 97bd a5c1 65bd ec16 3abb 6d2e 15bd
00000230: 834e 2ebd 3f6a e03b 873f ecbc 9d5e 82bd
00000240: 31c9 82bd be00 fb3d 9063 113d dfb7 a23c
00000250: ac3a 92bb e5b1 123d 7208 d33d 75c8 633d
00000260: e2f5 50bd 3ccf 743d b324 143e f5ac d23d
00000270: 65fe 743d e6ee c63d d569 b83b dd27 213d
00000280: cfda 31bd aa21 83bc 1f60 573d 00ba df3c
00000290: 5cf0 90bd 8643 a7bd 211d 99bd 33a5 ccbd
000002a0: d440 a3bd ffb5 1abd c71f 213d 898c 9abc
000002b0: cac6 c4bd 95a9 c1bd dec5 aa3c 6518 abbd
000002c0: 3c07 01bd 28a7 453c 8646 85bd 8cfe 08bd
000002d0: 2fed cebc e1ef a7bb 67d9 71bc a467 abbd
000002e0: 3f76 8dbd 96e2 43bd dc4a a63d e4cb 3ebd
000002f0: d444 95bd a808 893a e75e 65bb 1c06 993c
00000300: 51d2 143d 7f82 8e3c 82f9 d9bd 715a 9bbc
00000310: 16f7 b83c 4a49 f8bc e979 a4bd 1f3a a53d
00000320: cab6 1ebc 560d 90bd 7def 9cbd 643f e33b
00000330: 1b2a 3e3d ebd8 a83c 39c8 d83b f315 dcbd
00000340: 5ea4 8abd 9f9a 5d3d ec47 9d3d 3eea 253d
00000350: dbf9 48bd 5c68 14bd c3b0 b5bd 4b27 84bd
00000360: 47c8 cebb 5bbe ae3c 5f90 413d be2c b7bd
00000370: 172f 243d f9e2 93bd 93ac 923b a319 3b3d
00000380: 6cac 98bc e040 883d 3ff0 d3bd 98d4 b8bd
00000390: 4269 3b3c 5b54 90bd 22ce 9abd bbf7 98bd
000003a0: 78ce 72bc 28bb 05bd e433 48bc 81f1 98bd
000003b0: 83e7 9dbd da7d 5cbc 40da 133c 8e3b 43bd
000003c0: ddae 11bd ff88 3a3d bbd5 edba 2a51 e5bb
000003d0: 260f 0fbd 0690 b8bd a6e1 babd 6116 63bd
000003e0: 3b4e 6bbd 561c 343c 19ec 24bd 3352 40bd
000003f0: 7e0a 963d cb9c 803c 9857 2d3d 7bbf 42bd

frontend.conv2.0.bias f4 [16]
-0.006620134 -0.047600977 -0.016129253 -0.050895914 0.006985065 -0.07493739 -0.026461508 -0.072731994
-0.040389385 0.044244375 -0.05782536 -0.086274 -0.006762859 0.058733538 -0.006463485 -0.09581051
00000000: b6ed d8bb 3ef9 42bd 7f21 84bc 3c78 50bd
00000010: f9e2 e43b c678 99bd cec5 d8bc 83f4 94bd
00000020: 576f 25bd 9739 353d 49da 6cbd 6cb0 b0bd
00000030: f99a ddbb 9492 703d a4cb d3bb 4d38 c4bd

tcn.layers.0.conv1.bias f4 [16]
-0.058596995 -0.13676915 0.009737583 0.060718328 0.08418343 -0.002950797 0.08893701 -0.08851129
0.09300137 -0.039423823 -0.08857938 0.06934916 0.015951086 0.05411899 -0.059903935 0.080583505
00000000: 6703 70bd 360d 0cbe 628a 1f3c c8b3 783d
00000010: 5d68 ac3d 2962 41bb 9b24 b63d 6845 b5bd
00000020: 8177 be3d e07a 21bd 1b69 b5bd ef06 8e3d
00000030: daab 823c e0ab 5d3d d45d 75bd f708 a53d

tcn.layers.0.conv1.weight_g f4 [16, 1, 1]
0.6224687 0.7478829 0.5700188 0.61439514 0.6147654 0.5602099 0.9367304 0.7526338
0.77320224 0.64096487 0.5246005 0.5621072 0.95775527 0.61303645 0.54753864 0.60802406
00000000: 1c5a 1f3f 4175 3f3f c1ec 113f 0049 1d3f
00000010: 4461 1d3f ea69 0f3f 90cd 6f3f 9cac 403f
00000020: 95f0 453f 4616 243f 384c 063f 42e6 0f3f
00000030: 732f 753f f5ef 1c3f 7e2b 0c3f 77a7 1b3f

tcn.layers.0.conv1.weight_v f4 [16, 16, 5]
-0.080792986 -0.0700827 0.019389223 -0.07280417 -0.064079136 -0.046458513 -0.02575775 0.05688045
0.07168681 0.006068877 -0.005505272 0.07838583 -0.02228975 -0.05173924 -0.10018949 -0.011464573
0.053898685 0.04135444 0.081645556 -0.0011609328 0.0899633 -0.039508153 -0.049239613 -0.028549194
-0.10554189 -0.061057445 -0.08838038 0.010709947 0.01557205 1.9553403e-05 -0.05540337 0.10807791
-0.00249025 0.066316836 0.11161687 -0.092697434 -0.04206295 0.032740843 0.07401122 -0.042242125
0.072590016 -0.08783249 -0.07497266 0.08228148 -0.018249169 0.13078614 0.020267585 -0.03744335
0.08968536 0.08699059 0.014152035 -0.060117073 0.009556584 -0.047128994 0.09467369 0.019552462
0.015335354 0.047216125 0.014323055 -0.11949814 0.10667612 0.078297295 -0.06139881 0.07537291
0.0043483214 -0.016577566 -0.07361075 -0.016810646 -0.10589407 0.05603808 0.078568846 -0.030521141
0.09774523 -0.046705462 0.023695158 -0.07200534 -0.014932939 0.027569389 0.029466053 -0.028202353
-0.0035492461 0.11292938 0.104083575 0.0638971 -0.0041428185 0.04987407 0.0432752 0.11102917
0.08223883 0.07957872 0.0036664307 -0.023583122 -0.01632736 0.08458873 0.05880089 -0.08762746
-0.010820887 -0.09153833 -0.07750902 0.018608801 -0.04756809 -0.08588174 -0.0032087131 -0.11275368
-0.11542255 0.02760531 0.047842458 0.040462866 0.07949493 -0.022042783 -0.05415947 0.0062285117
0.073002525 -0.013748469 0.031253655 0.02358736 0.09334055 0.08300844 0.10444157 0.027903533
-0.07706613 -0.036817934 0.039824825 0.084689364 -0.016875163 0.10698322 0.047283247 0.03866336
0.0048289215 0.012803187 0.06942933 -0.024773246 0.03678639 -0.12707333 -0.083581194 0.044351246
0.07447082 0.053420354 0.036795508 -0.07019204 -0.031247217 -0.09596018 -0.11002117 -0.034796037
-0.080334224 0.0691189 -0.062497247 0.02556188 0.05674139 -0.06731886 0.05983808 0.023357391
0.07561778 0.097412445 -0.012749252 -0.07471306 0.014124524 -0.034088016 -0.032102436 0.038172916
-0.08104675 -0.025727935 0.07505578 0.051802102 -0.06899307 0.037740063 -0.08745018 -0.065106876
0.06964449 -0.027464112 -0.021027505 -0.04441772 -0.0023192293 -0.09200104 -0.012566787 -0.105353974
0.032296594 -0.06685839 0.016872982 -0.014635916 -0.06977185 -0.043140817 -0.09063848 -0.055907134
0.0071278494 -0.112042315 -0.087099396 0.12628089 0.03645146 -0.041105125 -0.017050812 0.091299355
-0.07543789 -0.048156593 -0.07329443 -0.0143107595 -0.009917061 -0.086449325 0.08538745 -0.0714165
0.105320305 -0.07757287 -0.010679264 0.030297963 -0.03954591 0.05202654 -0.09880482 -0.024122862
-0.11122409 -0.002648604 0.07672146 0.098864295 0.014348681 -0.06065817 0.10707037 0.027067084
0.072173655 -0.053732306 -0.06847487 -0.09383647 0.1069645 0.0028190617 -0.09255543 -0.0150869135
-0.0568464 0.008992568 0.04132546 -0.05109504 0.023284283 -0.06469832 0.0150513165 -0.09926266
0.029139115 0.13359696 0.1095528 0.042334564 0.0769739 0.10377545 0.034950987 0.047054905
0.007790252 0.074730694 0.019393533 -0.16598652 -0.07476774 -0.022945028 0.060558334 -0.07679909
0.03835627 -0.0433983 0.0992077 0.13112172 0.031332903 0.14696969 0.0073953783 -0.08785613
00000000: cb76 a5bd 8587 8fbd 26d6 9e3c 5a1a 95bd
00000010: ec3b 83bd 484b 3ebd eb01 d3bc 7afb 683d
00000020: 89d0 923d 6edd c63b 9265 b4bb c088 a03d
00000030: fe98 b6bc 86ec 53bd 2630 cdbd e8d5 3bbc
00000040: dec4 5c3d 4663 293d c935 a73d 712a 98ba
00000050: ae3e b83d 4dd3 21bd 7aaf 49bd 00e0 e9bc
00000060: 5926 d8bd 5f17 7abd c600 b5bd c678 2f3c
00000070: e921 7f3c 9d06 a437 a5ee 62bd f457 dd3d
00000080: 7633 23bb 1fd1 873d 6397 e43d 27d8 bdbd
00000090: 334a 2cbd 431b 063d 3293 973d 1406 2dbd
000000a0: 13aa 943d 85e1 b3bd 448b 99bd 3183 a83d
000000b0: 487f 95bc cdec 053e 3508 a63c 335e 19bd
000000c0: f5ac b73d 1f28 b23d f0dd 673c 523d 76bd
000000d0: 3893 1c3c 550a 41bd 48e4 c13d 7c2c a03c
000000e0: 2341 7b3c b265 413d 3fab 6a3c 71bb f4bd
000000f0: 0279 da3d 555a a03d 527d 7bbd 1d5d 9a3d
00000100: 5d7c 8e3b adcd 87bc 3cc1 96bd 7bb6 89bc
00000110: fdde d8bd 3088 653d b4e8 a03d 7907 fabc
00000120: a72e c83d 3a4e 3fbd 591c c23c 8977 93bd
00000130: 49a9 74bc 33d9 e13c cb62 f13c 9f08 e7bc
00000140: 789a 68bb 8547 e73d c529 d53d 7cdc 823d
00000150: 7bc0 87bb c148 4c3d 5641 313d 4363 e33d
00000160: d56c a83d 2bfa a23d 8048 703b 6431 c1bc
00000170: f5c0 85bc db3c ad3d 34d9 703d 0776 b3bd
00000180: 174a 31bc 7378 bbbd 0dbd 9ebd 7c71 983c
00000190: c2d6 42bd c4e2 afbd 4649 52bb 67eb e6bd
000001a0: a862 ecbd 8824 e23c 74f6 433d 64bc 253d
000001b0: 3dce a23d 1193 b4bc 52d6 5dbd 8b18 cc3b
000001c0: 5982 953d 4241 61bc d503 003d 473a c13c
000001d0: 5529 bf3d 5400 aa3d 76e5 d53d f395 e43c
000001e0: d9d4 9dbd 67ce 16bd 5b1f 233d 9e71 ad3d
000001f0: c83d 8abc 051a db3d 14ac 413d 795d 1e3d
00000200: ee3b 9e3b 75c4 513c f730 8e3d 43f1 cabc
00000210: 53ad 163d 831f 02be 9e2c abbd a7a9 353d
00000220: 2884 983d 4dcf 5a3d e3b6 163d d8c0 8fbd
00000230: 2afa ffbc c586 c4bd c752 e1bd 4a86 0ebd
00000240: 4586 a4bd 368e 8d3d 1dfd 7fbd 2667 d13c
00000250: a969 683d 78de 89bd c618 753d 0058 bf3c
00000260: 7fdd 9a3d 2d80 c73d 3de2 50bc 2903 99bd
00000270: 8c6a 673c e09f 0bbd d87d 03bd 345b 1c3d
00000280: d7fb a5bd 64c3 d2bc d8b6 993d 712e 543d
00000290: 3d4c 8dbd 5395 1a3d 1419 b3bd c156 85bd
000002a0: c5a1 8e3d 6bfc e0bc e041 acbc 5bef 35bd
000002b0: 36fe 17bb 0b6b bcbd ede4 4dbc d3c3 d7bd
000002c0: 6f49 043d 0ded 88bd 3539 8a3c 7bcb 6fbc
000002d0: 8be4 8ebd 6db4 30bd aba0 b9bd e1fe 64bd
000002e0: bc90 e93b 7176 e5bd 2b61 b2bd c74f 013e
000002f0: 204e 153d d95d 28bd 25ae 8bbc 28fb ba3d
00000300: 2e7f 9abd d93f 45bd 641b 96bd ad77 6abc
00000310: 2b7b 22bc 580c b1bd 9edf ae3d d042 92bd
00000320: 2cb2 d73d 86de 9ebd 14f8 2ebc 6f33 f83c
00000330: e4fa 21bd c819 553d 2e5a cabd 4f9d c5bc
00000340: 75c9 e3bd 3494 2dbb 2420 9d3d 5d79 ca3d
00000350: bb16 6b3c b474 78bd b647 db3d cabb dd3c
00000360: c8cf 933d 6816 5cbd 8d3c 8cbd 562d c0bd
00000370: 3410 db3d 02c0 383b b48d bdbd 1a2f 77bc
00000380: c5d7 68bd 9055 133c e344 293d 0849 51bd
00000390: aebe be3c 8e80 84bd cc99 763c 394a cbbd
000003a0: 27b5 ee3c a4cd 083e 385d e03d 0267 2d3d
000003b0: 7ea4 9d3d 3988 d43d c428 0f3d a5bc 403d
000003c0: 5f45 ff3b 680c 993d 30df 9e3c 5ff8 29be
000003d0: d41f 99bd 36f7 bbbc 040c 783d d748 9dbd
000003e0: 771b 1d3d 6ac2 31bd 682d cb3d c644 063e
000003f0: ee56 003d 397f 163e ee54 f23b eaed b3bd

tcn.layers.0.conv2.bias f4 [16]
-0.06709785 -0.009778354 -0.024862314 -0.035280347 -0.04293325 0.047860693 -0.064505056 0.11335053
-0.01538713 0.04666495 0.061500248 -0.05189779 0.09859521 0.021839578 0.0053110286 -0.11194249
00000000: 996a 89bd 6435 20bc 0dac cbbc 2082 10bd
00000010: c7da 2fbd 9309 443d 3a1b 84bd 5324 e83d
00000020: 4d1a 7cbc bf23 3f3d afe7 7b3d c792 54bd
00000030: 49ec c93d eae8 b23c 2308 ae3b 1b42 e5bd

tcn.layers.0.conv2.weight_g f4 [16, 1, 1]
0.6490423 0.588195 0.7278796 0.5392344 0.8217676 0.6107988 0.6877251 0.6451467
0.6709995 0.5714332 0.58535945 0.7055738 0.6658636 0.5758254 0.6514076 0.66743255
00000000: a327 263f f393 163f 5156 3a3f 440b 0a3f
00000010: 5d5f 523f 4f5d 1c3f c10e 303f 5628 253f
00000020: a0c6 2b3f 7249 123f 1eda 153f 7ca0 343f
00000030: 0976 2a3f 4b69 133f a6c2 263f dcdc 2a3f

tcn.layers.0.conv2.weight_v f4 [16, 16, 5]
0.15843058 0.07950062 0.08245407 -0.058734447 0.004865534 0.097897135 0.13419606 0.037483692
0.13636455 0.13573708 -0.015538106 0.028196285 -0.0376764 -0.0569014 0.0563514 0.019735262
0.020218486 -0.040245008 -0.102541015 -0.05108166 0.08959839 -0.033262506 0.014575737 0.053296495
0.06390857 -0.073022276 -0.03845375 -0.09354103 0.053822566 -0.10367071 -0.06081959 -0.046165332
0.09886748 0.08363845 0.027054297 0.048944358 -0.13818328 -0.11716721 -0.16100031 -0.049991593
-0.0031967422 -0.024350794 -0.11596049 -0.015167181 -0.055861056 0.04267395 -0.05000757 -0.009660062
-0.044992473 0.11555919 -0.045003805 0.025694849 0.059015635 0.038518373 0.069698885 0.030214971
0.040094856 -0.010089289 0.037284184 -0.061922625 -0.049667705 0.049768925 0.01997322 -0.05191268
-0.14597918 0.0027712218 0.022596411 -0.052449405 -0.026927853 0.017808974 -0.06051141 0.033863697
0.011128647 0.009612608 0.11754577 0.077205524 -0.0043122047 0.0564239 -0.049833838 0.005014023
0.022853 -0.049398627 0.05562428 0.072133034 0.031355143 0.14219518 0.1123114 0.12408664
0.03740344 0.025143364 -0.008618497 -0.0004720023 -0.07293213 -0.01424108 -0.08775036 -0.082279086
-0.10139143 0.07387327 -0.06982605 -0.017419305 0.04329461 0.101192385 0.029614652 -0.06681015
0.028373398 -0.10433033 0.015906543 0.09901665 0.094427 -0.025482228 -0.11812009 0.018312639
0.052247833 -0.103385374 -0.06437729 -0.050191093 0.055082466 0.05546498 0.08773078 -0.00056089606
-0.12666042 -0.061608676 -0.096457355 -0.040087603 0.02692153 -0.052626528 0.019638121 -0.054935172
-0.051197544 -0.04594481 -0.018252287 -0.03727426 0.034596022 0.08199063 0.10051845 0.04726124
0.012390077 -0.0028228885 0.09612815 -0.049424503 0.05267466 -0.09545633 -0.062118042 0.032362595
0.0029016493 0.0255561 0.094226636 0.059795704 0.10879212 -0.034657698 -0.05817323 -0.025391676
-0.029088553 -0.060651533 -0.011647646 0.09090253 -0.06436809 0.047505215 0.038395684 0.053561036
0.07973301 0.02097511 0.040381063 0.0053115794 -0.0070434995 0.024214767 -0.01189066 -0.07612002
-0.0736826 -0.07979623 -0.010900078 0.030693116 -0.059355028 -0.054604564 0.023896614 0.003909829
0.013555531 0.016833652 0.112833254 0.04296911 -0.033215128 -0.037458 -0.036877025 -0.055104636
-0.046784922 -0.056103203 -0.020781849 -0.018835984 -0.06278359 0.057076596 0.041158352 -0.07678468
-0.1688537 -0.13458245 -0.122149915 0.037198756 0.07177421 0.05838736 0.095864534 0.06761233
0.058163352 0.15482259 0.14504318 0.1285522 0.08393629 -0.029853744 0.08164541 0.10084304
0.061778635 0.07304736 0.036239885 -0.039883193 -0.02199807 -0.0645703 -0.058848426 0.05133052
0.037672944 -0.012600349 -0.0029082724 -0.004423655 -0.040949654 -0.11866059 -0.10807796 -0.08799858
-0.01999864 0.054173347 0.037915625 0.04773391 -0.016562838 -0.017512074 0.0628292 -0.01268699
0.027669767 -0.10038419 -0.026190288 0.011840402 -0.055432536 -0.06185139 -0.019293807 -0.03762181
0.07128492 -0.103706256 0.0605181 -0.041692365 0.0032256139 0.043593887 -0.121888235 -0.022029111
-0.1228988 0.013952219 0.035895985 0.018991673 -0.03653116 0.048009977 -0.053335506 0.015774142
00000000: a03b 223e 39d1 a23d aedd a83d 8893 70bd
00000010: 0f6f 9f3b 4b7e c83d b16a 093e 8088 193d
00000020: 26a3 0b3e a9fe 0a3e 8a93 7ebc e5fb e63c
00000030: 9252 1abd 7111 69bd bad0 663d d8ab a13c
00000040: 3da1 a53c f3d7 24bd 0601 d2bd 013b 51bd
00000050: 5c7f b73d 443e 08bd 12cf 6e3c 6d4d 5a3d
00000060: 7fe2 823d b48c 95bd ae81 1dbd 7192 bfbd
00000070: 0d75 5c3d 4f51 d4bd f61d 79bd dc17 3dbd
00000080: 097b ca3d a34a ab3d f9a0 dd3c e179 483d
00000090: eb7f 0dbe 5df5 efbd 44dd 24be fcc3 4cbd
000000a0: 6f80 51bb 517b c7bc b27c edbd c57f 78bc
000000b0: 90ce 64bd e1ca 2e3d bdd4 4cbd 3d45 1ebc
000000c0: 074a 38bd 4caa ec3d e955 38bd 017e d23c
000000d0: 61ba 713d 71c5 1d3d 4abe 8e3d 6385 f73c
000000e0: 813a 243d 8c4d 25bc 4db7 183d 94a2 7dbd
000000f0: 5d70 4bbd 80da 4b3d e19e a33c 64a2 54bd
00000100: 917b 15be 639d 353b 1c1c b93c 30d5 56bd
00000110: cd97 dcbc 20e4 913c d0da 77bd a9b4 0a3d
00000120: ee54 363c 337e 1d3c d6bb f03d ee1d 9e3d
00000130: 654d 8dbb bf1c 673d 911e 4cbd ac4c a43b
00000140: 3736 bb3c 3756 4abd 49d6 633d 7cba 933d
00000150: 406e 003d 9d9b 113e 8503 e63d 2321 fe3d
00000160: 5934 193d 75f9 cd3c 9934 0dbc 1477 f7b9
00000170: 715d 95bd 6b53 69bc 76b6 b3bd f081 a8bd
00000180: 4fa6 cfbd de4a 973d f600 8fbd eeb2 8ebc
00000190: b055 313d f43d cf3d 6d9a f23c c3d3 88bd
000001a0: 546f e83c 24ab d5bd 704e 823c 3ec9 ca3d
000001b0: f162 c13d 1bc0 d0bc f2e8 f1bd 6304 963c
000001c0: d301 563d b6bb d3bd 3ed8 83bd 2d95 4dbd
000001d0: 279e 613d 3f2f 633d 32ac b33d 1909 13ba
000001e0: 45b3 01be 6159 7cbd 6f8b c5bd e632 24bd
000001f0: 8a8a dc3c ea8e 57bd 20e0 a03c b403 61bd
00000200: 84b4 51bd a030 3cbd d285 95bc e5ac 18bd
00000210: 8fb4 0d3d b4ea a73d 9edc cd3d 0195 413d
00000220: c0ff 4a3c 3600 39bb d6de c43d 5971 4abd
00000230: 62c1 573d 9c7e c3bd 7d6f 7ebd a48e 043d
00000240: 9929 3e3b 075b d13c e5f9 c03d 57ec 743d
00000250: 67ce de3d 3bf5 0dbd 0e47 6ebd 3402 d0bc
00000260: 1e4b eebc be6d 78bd c5d5 3ebc 1b2b ba3d
00000270: 6bd3 83bd d494 423d cb44 1d3d d162 5b3d
00000280: 0f4b a33d fed3 ab3c 9d66 253d c20c ae3b
00000290: 28cd e6bb 0c5e c63c 0bd1 42bc d0e4 9bbd
000002a0: e7e6 96bd 356c a3bd 3e96 32bc 2170 fb3c
000002b0: 421e 73bd 09a9 5fbd d5c2 c33c 061e 803b
000002c0: 0518 5e3c bae6 893c 1f15 e73d 6100 303d
000002d0: 960c 08bd 8f6d 19bd 5d0c 17bd 66b5 61bd
000002e0: 8ca1 3fbd 79cc 65bd b23e aabc ec4d 9abc
000002f0: af94 80bd 26c9 693d a995 283d 4941 9dbd
00000300: fce7 2cbe fbcf 09be bc29 fabd b95d 183d
00000310: 5bfe 923d 9627 6f3d a054 c43d 5578 8a3d
00000320: b23c 6e3d d089 1e3e 3386 143e 30a3 033e
00000330: cae6 ab3d d78f f4bc b535 a73d cc86 ce3d
00000340: 980b 7d3d db99 953d 4670 143d 8f5c 23bd
00000350: 4c35 b4bc 6f3d 84bd 0c0b 71bd f43f 523d
00000360: f24e 1a3d b271 4ebc b798 3ebb 4ff4 90bb
00000370: d3ba 27bd 5304 f3bd fa57 ddbd 9938 b4bd
00000380: 30d4 a3bc dfe4 5d3d 6a4d 1b3d a284 433d
00000390: caae 87bc 7b75 8fbc 98ac 803d 18dd 4fbc
000003a0: b5ab e23c 3a96 cdbd 048d d6bc 3ffe 413c
000003b0: 3a0d 63bd e257 7dbd 0c0e 9ebc 5419 1abd
000003c0: d4fd 913d f263 d4bd d4e1 773d 9dc5 2abd
000003d0: d264 533b 818f 323d 8aa0 f9bd 6576 b4bc
000003e0: 5eb2 fbbd d997 643c ab07 133d 6d94 9b3c
000003f0: b3a1 15bd 1ca6 443d 5576 5abd c638 813c

tcn.layers.1.conv1.bias f4 [16]
-0.11262154 -0.07976571 0.06594214 -0.022641022 -0.04781957 0.0042324075 -0.031241564 -0.06718798
-0.0826042 -0.06265731 -0.13673155 -0.124157265 -0.0056856414 0.07013449 0.08435338 0.006625838
00000000: 1fa6 e6bd 345c a3bd ac0c 873d aa79 b9bc
00000010: 74de 43bd 02b0 8a3b 4fee ffbc da99 89bd
00000020: 642c a9bd 7a52 80bd 5b03 0cbe 2a46 febd
00000030: 9e4e babb aca2 8f3d 77c1 ac3d 8f1d d93b

tcn.layers.1.conv1.weight_g f4 [16, 1, 1]
0.57219446 0.78110015 0.56031424 0.5920933 0.613508 0.558498 0.5767299 0.6833093
0.79038596 0.61909175 0.6108751 0.65398747 0.99136484 0.7370448 0.6002278 0.5926136
00000000: 567b 123f 2ef6 473f c170 0f3f 6d93 173f
00000010: dc0e 1d3f baf9 0e3f 92a4 133f 5ced 2e3f
00000020: bc56 4a3f cc7c 1e3f 5062 1c3f b96b 273f
00000030: 16ca 7d3f f8ae 3c3f 87a8 193f 86b5 173f

tcn.layers.1.conv1.weight_v f4 [16, 16, 5]
0.024639452 0.046989854 0.029981304 0.0070069744 0.10144516 0.097986676 0.0880298 -0.004807341
0.03171463 -0.06563746 -0.08168557 -0.022631655 -0.012068688 -0.07748526 -0.10956418 0.041640166
0.030842626 -0.08250134 0.064852074 -0.09077671 0.07798236 0.04695606 -0.053837895 0.0842506
-0.0774011 -0.050618578 0.084200464 -0.021426076 -0.04372523 0.018052392 -0.026213793 0.05635789
0.092561364 0.049718395 0.03656804 0.02014797 -0.0058665853 0.0040757162 -0.0045406236 0.06843456
0.055077154 -0.020444168 0.029764503 -0.0038591702 0.029420435 0.100357644 -0.059513934 0.027157888
-0.01631201 -0.10174639 -0.11226425 -0.029113898 0.07161257 -0.08261596 0.03351843 0.06023797
-0.08477137 0.040974755 0.012146809 -0.110652596 -0.0021444273 -0.109014824 0.08515873 0.03168959
0.017925257 0.07803762 0.0778535 0.10328919 0.03967195 -0.08568353 0.110004544 0.04161723
-0.023346743 -0.02088779 0.1163502 0.01320245 0.06638107 -0.0060888706 0.086336665 -0.0937334
0.049672768 0.06494636 0.008201437 0.072351836 -1.8840583e-05 0.014215667 0.08015708 0.013927929
0.009668288 -0.07200396 -0.124712504 -0.11100558 0.0942059 0.13951099 -0.05278013 -0.07121513
0.09843768 -0.047918156 0.08824367 0.0954692 -0.075718865 -0.10203548 0.062587425 0.052286107
0.07151902 0.020325981 0.025724238 -0.09651951 -0.004513161 0.018028185 0.08829336 -0.031811576
-0.0343233 -0.09148291 -0.08520384 0.04095117 0.026640464 0.047678385 -0.009740276 -0.016605418
-0.01877227 0.065255605 -0.059677 0.017778877 0.041001298 0.05879454 -0.054440908 0.07778796
-0.029429361 0.0769725 0.077791244 0.0032258278 0.023938237 -0.10663316 -0.050590172 -0.069903724
-0.12357689 -0.014364672 0.09869144 0.005651608 -0.034052774 -0.19740024 0.039735347 0.1542807
0.11609398 -0.045059424 -0.10410154 -0.04606996 0.07436358 0.004116726 0.12914991 -0.044976216
-0.06677312 0.030619247 0.021739742 -0.09507313 0.089324266 -0.026653925 -0.07856497 0.026288964
-0.07637003 -0.051654555 -0.057269957 0.03890904 0.07523551 0.06525455 -0.07151945 -0.03840061
0.09074171 -0.07299055 -0.004049183 -0.025166744 -0.10392637 -0.09671368 0.08743053 0.018782495
0.015249382 0.044071786 0.06909227 0.08019429 0.09313811 0.017983893 0.059036095 0.055687595
-0.013465845 0.0067780535 -0.05469078 -0.076399624 0.10580832 -0.08122685 -0.0713249 -0.099626884
-0.07537793 0.031887382 0.060156208 -0.0899403 0.0052225525 -0.07998727 0.026636016 0.082854
-0.04841267 -0.071550414 0.05337352 -0.071126625 0.0001799067 -0.086181596 0.0793368 0.025007494
-0.049633544 0.06176723 0.104162134 0.05314942 -0.070610166 -0.020496218 0.10029947 0.11179539
-0.0100130085 0.06871416 -0.075237796 -0.00056732557 0.14402457 0.036866933 -0.106104046 -0.0037270945
0.036657657 0.08421214 -0.06682959 -0.014681883 -0.0032847284 -0.017519712 -0.0355145 -0.03999353
0.038404327 0.044955518 -0.03548565 0.093026906 -0.021062609 0.0052251494 0.009596987 -0.02894519
-0.004993832 -0.024381865 0.03392173 -0.06129677 -0.039575722 -0.09249522 -0.034540642 0.047406297
0.09661337 -0.10205623 0.00790117 0.13660933 -0.05381848 0.05023055 0.0020768961 -0.09935996
00000000: add8 c93c 6f78 403d 5a9b f53c c39a e53b
00000010: 7bc2 cf3d 3dad c83d f848 b43d e686 9dbb
00000020: 33e7 013d ef6c 86bd c44a a7bd 0566 b9bc
00000030: bfbb 45bc 98b0 9ebd 2f63 e0bd e18e 2a3d
00000040: ada9 fc3c 76f6 a8bd 2ad1 843d 24e9 b9bd
00000050: 37b5 9f3d ff54 403d 2085 5cbd 948b ac3d
00000060: 7884 9ebd 6d55 4fbd 4b71 ac3d bd85 afbc
00000070: 3a19 33bd 9ce2 933c 4fbe d6bc 88d7 663d
00000080: d090 bd3d 84a5 4b3d 5ec8 153d 5b0d a53c
00000090: 7c3c c0bb 968d 853b 83c9 94bb 6b27 8c3d
000000a0: 9598 613d 877a a7bc b0d4 f33c 22ea 7cbb
000000b0: 2003 f13c 4f88 cd3d e2c4 73bd 387a de3c
000000c0: c4a0 85bc 6960 d0bd cdea e5bd 4580 eebc
000000d0: 9ca9 923d 8e32 a9bd 9f4a 093d 17bc 763d
000000e0: 9d9c adbd 25d5 273d 6903 473c d49d e2bd
000000f0: 8589 0cbb 2a43 dfbd b367 ae3d f2cc 013d
00000100: fdd7 923c 30d2 9f3d a871 9f3d 4889 d33d
00000110: 0e7f 223d d97a afbd 104a e13d d476 2a3d
00000120: ab41 bfbc df1c abbc 0349 ee3d 174f 583c
00000130: ccf2 873d 2685 c7bb 47d1 b03d 4cf7 bfbd
00000140: ac75 4b3d 9902 853d 525f 063c 332d 943d
00000150: d80b 9eb7 d4e8 683c 6529 a43d f831 643c
00000160: bd67 1e3c d076 93bd 4569 ffbd e556 e3bd
00000170: 06ef c03d f8db 0e3e fa2f 58bd 3dd9 91bd
00000180: b299 c93d d445 44bd 19b9 b43d 5b85 c33d
00000190: 7e12 9bbd faf7 d0bd d62d 803d f529 563d
000001a0: 9078 923d ac82 a63c a3bb d23c 05ac c5bd
000001b0: 23e3 93bb d8af 933c 26d3 b43d db4c 02bd
000001c0: 9796 0cbd 645b bbbd 5a7f aebd 6abc 273d
000001d0: 1a3d da3c 694a 433d ae95 1fbc 1608 88bc
000001e0: 4ec8 99bc bba4 853d df6f 74bd 02a5 913c
000001f0: faf0 273d 8bd2 703d 6efd 5ebd 4b4f 9f3d
00000200: d815 f1bc c2a3 9d3d 0451 9f3d 6968 533b
00000210: 1f1a c43c 7c62 dabd a437 4fbd af29 8fbd
00000220: e115 fdbd cd59 6bbc bd1e ca3d 2031 b93b
00000230: ec7a 0bbd 4a23 4abe 88c1 223d c3fb 1d3e
00000240: aec2 ed3d 3b90 38bd 3033 d5bd dbb3 3cbd
00000250: ef4b 983d 9ae5 863b e03f 043e fb38 38bd
00000260: 58c0 88bd 37d5 fa3c 8b17 b23c b4b5 c2bd
00000270: a4ef b63d 5559 dabc ace6 a0bd f45b d73c
00000280: e467 9cbd ba93 53bd e793 6abd 165f 1f3d
00000290: 1315 9a3d 2da4 853d ca78 92bd f549 1dbd
000002a0: cad6 b93d 127c 95bd 02af 84bb 7d2a cebc
000002b0: 59d7 d4bd d211 c6bd c70e b33d bfdd 993c
000002c0: 8bd8 793c 9e84 343d 4080 8d3d e73c a43d
000002d0: 32bf be3d f552 933c d5cf 713d ad18 643d
000002e0: d99f 5cbc 6f1a de3b 7003 60bd 6877 9cbd
000002f0: 08b2 d83d 435a a6bd ca12 92bd 2e09 ccbd
00000300: bf5f 9abd 589c 023d 5b66 763d 9f32 b8bd
00000310: f221 ab3b 5ed0 a3bd c633 da3c 5caf a93d
00000320: 5d4c 46bd 0689 92bd 319e 5a3d d6aa 91bd
00000330: 56a5 3c39 fa7f b0bd 557b a23d 84dc cc3c
00000340: 8b4c 4bbd a3ff 7c3d f552 d53d 35b3 593d
00000350: 109c 90bd afe7 a7bc cf69 cd3d fbf4 e43d
00000360: 9a0d 24bc 02ba 8c3d 4616 9abd 93b8 14ba
00000370: 2d7b 133e c801 173d 144d d9bd 4542 74bb
00000380: 5726 163d 6a77 ac3d f4dd 88bd 488c 70bc
00000390: 9944 57bb 8085 8fbc a777 11bd 41d0 23bd
000003a0: db4d 1d3d 4723 383d 6759 11bd e484 be3d
000003b0: 7e8b acbc bb37 ab3b ae3c 1d3c 771e edbc
000003c0: 4da3 a3bb 7abc c7bc 83f1 0a3d 5212 7bbd
000003d0: 271a 22bd 226e bdbd 7d7a 0dbd 1b2d 423d
000003e0: 3bdd c53d db02 d1bd e973 013c 51e3 0b3e
000003f0: c470 5cbd 8dbe 4d3d 891c 083b 3c7d cbbd

tcn.layers.1.conv2.bias f4 [16]
0.0045803324 0.07476613 0.026610104 0.028901534 -0.0030515322 0.07066067 0.0076813907 0.045791153
-0.062626265 0.08114511 0.052880723 0.04460741 0.02394573 0.074169934 0.08428939 0.0036892802
00000000: 9d16 963b fc1e 993d 6ffd d93c e9c2 ec3c
00000010: 37fc 47bb 8bb6 903d 2db4 fb3b 818f 3b3d
00000020: 3342 80bd 682f a63d 7599 583d 42b6 363d
00000030: d629 c43c 68e6 973d ea9f ac3d dac7 713b

tcn.layers.1.conv2.weight_g f4 [16, 1, 1]
0.5303776 0.5795862 0.5933178 0.5266789 0.77908903 0.59903824 0.6751555 0.67522585
0.6466967 0.78516465 0.5254517 0.61768526 0.600712 0.5910319 0.74468476 0.58323944
00000000: d4c6 073f c35f 143f ade3 173f 6ed4 063f
00000010: 6172 473f 925a 193f fed6 2c3f 9adb 2c3f
00000020: ea8d 253f 8d00 493f 0184 063f 9f20 1e3f
00000030: 43c8 193f de4d 173f a9a3 3e3f 2e4f 153f

tcn.layers.1.conv2.weight_v f4 [16, 16, 5]
0.090996034 0.07156139 -0.06770589 -0.054898586 -0.027152143 -0.19842216 -0.05524121 -0.026913537
-0.11581164 0.033489235 -0.078774594 0.08857945 0.05836577 -0.04324362 0.091087185 -0.07893633
0.08111807 -0.042458266 0.045488164 0.081489146 0.033881545 0.0126717 -0.021187468 -0.006712168
0.07895432 -0.032432344 -0.014712091 0.009220674 -0.06195472 -0.06337314 0.017269347 0.08962627
0.036772333 -0.061035924 0.07962052 -0.0285753 0.023399549 0.006656936 0.046578135 -0.017191852
-0.06409814 -0.038010385 -0.03932081 -0.05542346 0.08468909 -0.035618242 0.0036212748 -0.076595716
-0.008220128 -0.015948502 -0.057664365 0.050691284 -0.08380408 0.022988407 -0.008348875 -0.071462534
0.078224264 0.043690532 0.015879361 -0.013481654 0.05639636 -0.07240514 -0.11625342 0.050191175
-0.059533574 -0.004806514 -0.11072671 -0.011999523 0.04410078 -0.10434931 0.0024177202 -0.112553306
0.04816746 0.08627131 -0.06323441 0.022575682 -0.0021375776 -0.027309224 0.077596515 -0.03805808
-0.0182415 -0.006414924 -0.094631284 0.043257527 0.064746976 -0.1258574 -0.0044167377 -0.074725084
0.0520639 -0.113430806 0.08606155 -0.054888133 0.06890436 -0.06758225 0.009596673 0.013448668
0.05524328 0.0382239 0.043312404 -0.0389621 -0.060479037 0.026505703 0.12114743 0.11298258
-0.04735246 0.06026472 0.041799195 -0.020697588 0.04981857 -0.023432938 0.010136141 -0.07890615
-0.020591985 0.102890044 0.063247114 -0.1127578 -0.021958062 0.04542222 -0.057040043 -0.021592846
0.056229804 0.0970015 0.09467715 -0.079565786 -0.10057655 0.076022066 -0.016257321 0.08505338
0.08108958 -0.050805032 0.049112316 0.0530868 -0.0151747 0.11699373 0.027940296 -0.026698882
-0.08691795 0.096594445 -0.09852487 0.10072629 -0.06273328 -0.04589282 -0.023489444 0.074620515
-0.1008191 -0.1098146 0.073919654 -0.082672834 -0.018869225 0.049547333 -0.048219908 0.06725378
-0.04179453 0.09042806 0.1229606 -0.0049481634 -0.057538547 0.0368207 0.008861762 -0.0072866883
0.08368855 -0.027164929 0.026991563 -0.044868372 -0.046660725 0.036873646 0.0071255933 -0.018751413
0.030032726 0.0039517614 -0.057738584 0.1076897 0.06642237 0.04427626 0.00854985 -0.062277935
-0.07303064 -0.007859035 -0.09959138 0.022323003 -0.053744584 -0.06713323 -0.02834632 0.08448712
0.10791544 -0.101453885 -0.089198925 0.027764462 -0.035150256 -0.106079236 0.03222784 -0.096914336
0.0020973282 0.03838789 0.09565333 -0.09416729 0.088143304 0.0050878054 0.095363796 0.0855473
-0.010930548 -0.01134301 -0.036361657 0.06298153 -0.066773854 0.101026975 0.07152556 0.11535659
0.09700838 0.09903121 -0.07417293 -0.046951775 -0.069810316 0.0539188 0.026303258 0.018792663
0.013052426 -0.020042397 0.018858436 -0.07829266 0.11613291 -0.04592368 -0.08503791 0.054341167
0.040105615 0.0069902795 0.12579404 -0.074925385 -0.041992426 -0.034995776 0.062443763 -0.053932436
0.09920559 -0.066146225 -0.049295723 -0.03998684 -0.08373876 0.10095522 -0.08913717 -0.095920004
-0.03866933 0.081965625 0.054944783 0.030998807 -0.046133675 -0.01962545 -0.0011937333 0.09452958
0.09052087 0.15239917 0.071138784 0.013915411 -0.12238883 0.017429255 -0.09242045 0.011198027
00000000: 215c ba3d c78e 923d 63a9 8abd 57dd 60bd
00000010: 2c6e debc 2e2f 4bbe 9b44 62bd c779 dcbc
00000020: a72e edbd 022c 093d 9354 a1bd 2569 b53d
00000030: f210 6f3d 3920 31bd eb8b ba3d 5fa9 a1bd
00000040: 3b21 a63d b8e8 2dbd cc51 3a3d c8e3 a63d
00000050: 60c7 0a3d f69c 4f3c 5791 adbc bff1 dbbb
00000060: cdb2 a13d c7d7 04bd fb0a 71bc 4f12 173c
00000070: 3cc4 7dbd c7c9 81bd 7278 8d3c fa8d b73d
00000080: 969e 163d ce00 7abd 1510 a33d bf16 eabc
00000090: 69b0 bf3c 6d22 da3b b7c8 3e3d edd5 8cbc
000000a0: e345 83bd c7b0 1bbd dc0e 21bd b603 63bd
000000b0: 7971 ad3d 6fe4 11bd e952 6d3b 37de 9cbd
000000c0: b7ad 06bc 6fa6 82bc 7831 6cbd aaa1 4f3d
000000d0: 79a1 abbd 2f52 bc3c b8c9 08bc f35a 92bd
000000e0: 0b34 a03d d8f4 323d 6f15 823c 28e2 5cbc
000000f0: dfff 663d 2549 94bd 4616 eebd 4395 4d3d
00000100: 7ad9 73bd f67f 9dbb afc4 e2bd a699 44bc
00000110: 05a3 343d 17b5 d5bd 9d72 1e3b 5982 e6bd
00000120: 3e4b 453d 03af b03d 0b81 81bd a3f0 b83c
00000130: 9a16 0cbb 98b7 dfbc ecea 9e3d cae2 1bbd
00000140: 336f 95bc 4834 d2bb 0cce c1bd ce2e 313d
00000150: 109a 843d c3e0 00be 48ba 90bb 7709 99bd
00000160: f540 553d 694e e8bd 0a41 b03d 61d2 60bd
00000170: bb1d 8d3d 9068 8abd 5d3b 1d3c cd57 5c3c
00000180: c746 623d aa90 1c3d 5968 313d b996 1fbd
00000190: deb8 77bd 7d22 d93c 251c f83d 6963 e73d
000001a0: a7f4 41bd 24d8 763d a235 2b3d fd8d a9bc
000001b0: 8f0e 4c3d 6ff6 bfbc 0f12 263c 8c99 a1bd
000001c0: 86b0 a8bc 04b8 d23d b487 813d 90ed e6bd
000001d0: 65e1 b3bc a60c 3a3d d2a2 69bd 7be3 b0bc
000001e0: 3951 663d b9a8 c63d 18e6 c13d 63f3 a2bd
000001f0: 14fb cdbd 75b1 9b3d 132e 85bc 7730 ae3d
00000200: 4b12 a63d f018 50bd ff29 493d 8b71 593d
00000210: 4e9f 78bc 699a ef3d 0ce3 e43c 9db7 dabc
00000220: 0a02 b2bd 4fd3 c53d 68c7 c9bd 9649 ce3d
00000230: 4e7a 80bd 1cfa 3bbd ef6c c0bc a4d2 983d
00000240: 3f7a cebd 7ae6 e0bd 3063 973d 6050 a9bd
00000250: a293 9abc 25f2 4a3d 3d82 45bd 5abc 893d
00000260: be30 2bbd 5932 b93d c4d2 fb3d 3424 a2bb
00000270: 8aad 6bbd 4dd1 163d ec30 113c 2cc5 eebb
00000280: e764 ab3d fc88 debc 691d dd3c e6c7 37bd
00000290: 511f 3fbd d208 173d cf7d e93b 909c 99bc
000002a0: 3107 f63c c77d 813b 4b7f 6cbd 6b8c dc3d
000002b0: 7408 883d 065b 353d ac14 0c3c 2617 7fbd
000002c0: 1791 95bd 2fc3 00bc 91f6 cbbd bbde b63c
000002d0: 4823 5cbd 267d 89bd 8b36 e8bc 9507 ad3d
000002e0: c502 dd3d 0ec7 cfbd edad b6bd 4c72 e33c
000002f0: b7f9 0fbd 1240 d9bd 5701 043d 067b c6bd
00000300: 5473 093b 9f3c 1d3d e5e5 c33d c8da c0bd
00000310: 7a84 b43d 9bb7 a63b 184e c33d 6c33 af3d
00000320: 0b16 33bc 08d8 39bc f6ef 14bd 76fc 803d
00000330: bbc0 88bd 3be7 ce3d fe7b 923d 1340 ec3d
00000340: 54ac c63d e0d0 ca3d fae7 97bd 8150 40bd
00000350: b6f8 8ebd f6d9 5c3d ee79 d73c 12f3 993c
00000360: d8d9 553c f42f a4bc 027d 9a3c e757 a0bd
00000370: 17d7 ed3d 781a 3cbd 5b28 aebd d894 5e3d
00000380: c945 243d b70e e53b 27d0 003e 7b72 99bd
00000390: 4000 2cbd bb57 0fbd 08c5 7f3d 42e8 5cbd
000003a0: 4d2c cb3d ac77 87bd 50ea 49bd 3ec9 23bd
000003b0: 3a7f abbd 9cc1 ce3d 8c8d b6bd b571 c4bd
000003c0: bb63 1ebd 98dd a73d c80d 613d 36f1 fd3c
000003d0: aaf6 3cbd 8dc5 a0bc 0b77 9cba b998 c13d
000003e0: 0263 b93d 870e 1c3e 36b1 913d 77fd 633c
000003f0: ffa6 fabd ccc7 8e3c ef46 bdbd ee77 373c

tcn.layers.2.conv1.bias f4 [16]
-0.051768094 0.033958826 0.09794191 0.026858553 -0.033850998 -0.08104028 0.06931855 -0.056659784
-0.08626014 0.081937835 0.010385863 -0.024727555 -0.094521165 -0.016319131 -0.053749476 -0.0070868214
00000000: c80a 54bd 6918 0b3d c595 c83d 7806 dc3c
00000010: 58a7 0abd 72f8 a5bd e2f6 8d3d 1714 68bd
00000020: 28a9 b0bd 06cf a73d 7729 2a3c 7191 cabc
00000030: 5094 c1bd b3af 85bc 6928 5cbd 9138 e8bb

tcn.layers.2.conv1.weight_g f4 [16, 1, 1]
0.6775457 0.6118802 0.5994161 0.9423597 0.9302886 0.6200246 0.6979278 0.95084745
0.566789 0.5631349 0.5118626 0.5673093 0.5721707 0.72132546 0.58804643 0.8779818
00000000: a373 2d3f 2ea4 1c3f 5573 193f 7c3e 713f
00000010: 6527 6e3f efb9 1e3f 65ab 323f bd6a 733f
00000020: 1519 113f 9c29 103f 6d09 033f 2f3b 113f
00000030: c779 123f c9a8 383f 368a 163f 6ac3 603f

tcn.layers.2.conv1.weight_v f4 [16, 16, 5]
0.095563285 -0.110249124 -0.023319919 -0.0869266 0.021040529 0.032553162 0.055190217 -0.018388322
0.0666273 -0.029128375 -0.030946434 0.09087969 -0.089359745 0.026610127 -0.0833762 0.03622643
-0.102616206 -0.11322442 -0.039489824 0.07999731 0.044201314 0.10089381 -0.04945509 0.0566224
-0.062709875 -0.01686965 -0.105782546 0.0047860253 0.026644617 -0.102279164 0.0806963 0.0034572901
0.09259946 -0.0487396 -0.007293628 -0.0383887 0.079621755 -0.0819146 0.044357065 -0.09478144
0.080027394 -0.10488308 -0.07259673 -0.07217349 -0.032952853 0.007662326 0.054474328 0.121351525
0.09228761 -0.045932945 0.096052036 -0.023059158 -0.070738904 0.025138538 -0.03711928 0.094390064
0.024948085 0.06182717 0.015941214 -0.082970634 0.024538334 -0.034933496 -0.012856954 -0.014667314
-0.06449797 0.032103036 0.06920724 -0.11994403 0.043116592 -0.10242271 -0.10411872 0.033913746
0.0159163 -0.037653342 0.111727625 0.00052124134 -0.068259254 0.044458106 0.0005204085 -0.024934778
-0.069526054 -0.001156689 0.066794254 -0.04836043 0.049264595 -0.085343726 -0.018561864 -0.013483934
-0.082439445 0.05310753 -0.07439402 0.060232267 0.012582861 -0.007619669 -0.06202459 -0.042746842
0.021226363 0.09923369 -0.059685268 -0.08234662 -0.04135705 -0.085171126 -0.034322117 -0.084503576
0.07432573 0.05278878 -0.086116605 0.07930189 0.0047109434 -0.092924796 -0.012308981 -0.14525679
-0.09383284 -0.10004664 -0.099253245 -0.030077662 0.017381914 0.01114247 -0.11568595 -0.11534373
-0.016532855 0.08875925 0.032441884 0.09368323 -0.05803814 0.02385654 -0.0862476 0.055913128
-0.0082418835 -0.015162328 -0.084905945 -0.11964854 -0.06586117 -0.025951257 -0.07493065 0.048101887
-0.020431098 0.00717333 -0.1104496 0.02380349 -0.038956232 -0.07332966 -0.036899634 -0.09017926
-0.07156248 0.074577145 0.081794694 -0.08388012 0.015714556 -0.065020636 0.0860326 0.07267056
0.056317214 -0.08025142 -0.04971426 -0.025901625 -0.102593794 -0.07170682 0.022890106 -0.09335237
0.03308839 0.0046984046 -0.009017558 -0.03315193 -0.05048309 -0.07755539 -0.043425426 0.10897253
0.012343453 0.10621061 -0.0030792106 -0.032915454 0.044784233 -0.118526354 -0.09108159 0.055845436
-0.034229755 0.08000398 -0.01682258 0.072906256 -0.009400071 -0.0019137353 -0.11759217 -0.05653853
-0.0079392865 0.03574194 0.0023232412 -0.042867575 -0.009205093 0.09783237 0.047826886 0.01619623
-0.096170925 -0.033697404 0.09575558 0.08878258 -0.061133984 0.038067233 -0.032930873 0.06438668
-0.028816856 -0.09033288 -0.11710938 -0.013203045 0.026658125 -0.045672845 0.07024122 0.0391024
0.05566967 0.025336001 -0.11803773 -0.0394149 0.0340105 0.035547048 -0.10539606 -0.06626206
0.066927485 -0.09174191 0.0703411 -0.037870385 0.010786201 0.03926941 0.02162835 -0.06656378
0.033259477 -0.10796778 -0.06598065 -0.026226526 -0.02822451 0.07517828 -0.04277116 0.119898714
0.07824821 0.05707919 0.104511686 -0.08536756 -0.10653513 -0.0097574545 0.04208173 0.039180487
-0.031523027 0.0066653243 0.048204612 0.090109386 0.017778046 -0.011223179 -0.0028824015 -0.06796279
0.0013814054 0.05286391 -0.034535363 -0.015914818 -0.049873758 0.088964164 0.042281155 -0.0067889323
00000000: afb6 c33d 4bca e1bd 6a09 bfbc 9306 b2bd
00000010: 305d ac3c 7756 053d 230f 623d 1ba3 96bc
00000020: e573 883d a19e eebc 6083 fdbc 221f ba3d
00000030: 3e02 b7bd 7bfd d93c 24c1 aabd 2a62 143d
00000040: 7228 d2bd 34e2 e7bd 15c0 21bd a1d5 a33d
00000050: 700c 353d 6aa1 ce3d 6c91 4abd e4ec 673d
00000060: 096e 80bd 3832 8abc 85a4 d8bd 17d4 9c3b
00000070: d045 da3c bd77 d1bd 1a44 a53d b493 623b
00000080: c9a4 bd3d 2da3 47bd 63ff eebb 783d 1dbd
00000090: bb10 a33d d8c2 a7bd c1af 353d c61c c2bd
000000a0: 67e5 a33d f1cc d6bd 98ad 94bd b2cf 93bd
000000b0: 92f9 06bd 4014 fb3b 7920 5f3d 2687 f83d
000000c0: 4901 bd3d 2f24 3cbd eeb6 c43d 8fe6 bcbc
000000d0: 8fdf 90bd 56ef cd3c 630a 18bd 944f c13d
000000e0: ed5f cc3c 7d3e 7d3d 2697 823c 82ec a9bd
000000f0: 9e04 c93c 6d16 0fbd f9a5 52bc 2c4f 70bc
00000100: 8317 84bd 797e 033d 87bc 8d3d 37a5 f5bd
00000110: 069b 303d ffc2 d1bd 323c d5bd 24e9 0a3d
00000120: e662 823c 643a 1abd 74d1 e43d eaa3 083a
00000130: 82cb 8bbd b419 363d 066c 083a 0544 ccbc
00000140: ad63 8ebd 0b9c 97ba 6dcb 883d 9615 46bd
00000150: acc9 493d b1c8 aebd 0d0f 98bc b8eb 5cbc
00000160: 03d6 a8bd 4887 593d e45b 98bd 1cb6 763d
00000170: 5828 4e3c 6bae f9bb 7f0d 7ebd 5017 2fbd
00000180: e9e2 ad3c 083b cb3d 8a78 74bd 58a5 a8bd
00000190: 0366 29bd 336e aebd 5995 0cbd 3610 adbd
000001a0: 1738 983d 0c39 583d e75d b0bd 0869 a23d
000001b0: 425e 9a3b 5b4f bebd 9cab 49bc 32be 14be
000001c0: 6f2b c0bd 41e5 ccbd 4945 cbbd 6e65 f6bc
000001d0: 8464 8e3c e88e 363c c1ec ecbd 5539 ecbd
000001e0: e96f 87bc 69c7 b53d c8e1 043d fedc bf3d
000001f0: 67b9 6dbd ca6e c33c 95a2 b0bd 2a05 653d
00000200: f708 07bc 6a6b 78bc 2be3 adbd 4b0a f5bd
00000210: 39e2 86bd bb97 d4bc 3e75 99bd 7c06 453d
00000220: 1e5f a7bc 410e eb3b 6633 e2bd 89ff c23c
00000230: 9290 1fbd dc2d 96bd 1224 17bd e7af b8bd
00000240: 598f 92bd e7bb 983d fa83 a73d 57c9 abbd
00000250: d0bb 803c 8a29 85bd dc31 b03d 4dd4 943d
00000260: e1ac 663d db5a a4bd 2ea1 4bbd a52f d4bc
00000270: b21c d2bd 06db 92bd 0884 bb3c 872f bfbd
00000280: b187 073d 13f5 993b 61be 13bc 51ca 07bd
00000290: 5bc7 4ebd 5cd5 9ebd dcde 31bd fd2c df3d
000002a0: 323c 4a3c f384 d93d 95cc 49bb 5bd2 06bd
000002b0: ac6f 373d f2bd f2bd fc88 babd 2fbe 643d
000002c0: 8034 0cbd 20d9 a33d 82cf 89bc e04f 953d
000002d0: c102 1abc 4dd6 faba 2ad4 f0bd f294 67bd
000002e0: c813 02bc 2466 123d 8541 183b e995 2fbd
000002f0: f5d0 16bc 565c c83d 20e6 433d f5ad 843c
00000300: 43f5 c4bd 4a06 0abd 801b c43d a4d3 b53d
00000310: a167 7abd 63ec 1b3d 86e2 06bd 2add 833d
00000320: 5411 ecbc 7200 b9bd 0bd7 efbd 9651 58bc
00000330: 2462 da3c 7313 3bbd a1da 8f3d d729 203d
00000340: e105 643d 728d cf3c c4bd f1bd 8571 21bd
00000350: 984e 0b3d c899 113d e4d9 d7bd 67b4 87bd
00000360: 4711 893d 2fe3 bbbd ff0e 903d fa1d 1bbd
00000370: 9bb8 303c f6d8 203d f02d b13c 9752 88bd
00000380: 173b 083d 361e ddbd dd20 87bd 03d9 d6bc
00000390: 1637 e7bc 12f7 993d d030 2fbd 758d f53d
000003a0: 9940 a03d decb 693d 390a d63d 30d5 aebd
000003b0: 172f dabd bbdd 1fbc e45d 2c3d b87b 203d
000003c0: 4a1e 01bd cb68 da3b 3372 453d 458b b83d
000003d0: 44a3 913c 6de1 37bc ace6 3cbb 1330 8bbd
000003e0: 4610 b53a d487 583d f474 0dbd cb5f 82bc
000003f0: 6d48 4cbd d832 b63d 012f 2d3d b175 debb

tcn.layers.2.conv2.bias f4 [16]
-0.027595855 -0.023737526 0.03842772 -0.054966692 -0.01619592 -0.08965114 -0.01368849 -0.10840318
0.027623499 -0.07160092 -0.0315502 -0.08991889 0.096378595 -0.02461425 0.10043103 -0.0675572
00000000: b410 e2bc 3375 c2bc 6366 1d3d c124 61bd
00000010: 4ead 84bc 049b b7bd b045 60bc 7d02 debd
00000020: ad4a e23c 81a3 92bd c83a 01bd 6527 b8bd
00000030: 2462 c53d d3a3 c9bc c9ae cd3d 6e5b 8abd

tcn.layers.2.conv2.weight_g f4 [16, 1, 1]
0.65757 0.5932848 0.6881284 0.60050833 0.77384025 0.56978977 0.6774343 0.5913764
0.5805156 0.61711943 0.60363823 0.5820199 0.6222345 0.62733185 0.8222338 0.5747671
00000000: 8256 283f 83e1 173f 2f29 303f eaba 193f
00000010: 651a 463f bedd 113f 566c 2d3f 7264 173f
00000020: ac9c 143f 8afb 1d3f 0988 1a3f 42ff 143f
00000030: c34a 1f3f d298 203f ea7d 523f f023 133f
