model_save/down_beat_tracker_0.0457.pt (torch, 154186 bytes, 71 tensors)

frontend.conv1.0.weight f4 [16, 1, 3, 3]
0	0x3ebd491c	0.3696984
1	0x3f001c2a	0.50042975
2	0x3dbae079	0.09124846
3	0x3eb39f6e	0.35082573
4	0x3d7307c8	0.059333593
5	0x3e0c0adb	0.13676016
6	0x3d862159	0.06549329
7	0x3eee2bab	0.4651769
8	0x3efb3884	0.49066556
9	0xbe01fb7d	-0.12693591
10	0x3f276a4f	0.6539659
11	0x3ee48bc2	0.44637877
12	0x3e292a53	0.16520052
13	0x3e3574e4	0.17720371
14	0x3e8b2a49	0.271807
15	0x3e205109	0.15655912
16	0x3f0c0213	0.54690665
17	0x3e802993	0.2503172
18	0xbdfe6243	-0.12421086
19	0x3de8596e	0.11345182
20	0xbde2d3f9	-0.11075587
21	0xbba04523	-0.0048910542
22	0xbdde2873	-0.10847559
23	0x3e822991	0.25422338
24	0xbe83c25c	-0.25734222
25	0xbe15d904	-0.14633566
26	0xbd96af26	-0.07357626
27	0xbe6d7c19	-0.23191871
28	0x3c391788	0.011297114
29	0xbeae5866	-0.34051818
30	0x3e9d4b7c	0.30721653
31	0xbe8b99af	-0.2726569
32	0x3e8a0dc5	0.2696363
33	0x3d40631e	0.046969526
34	0xbe01c744	-0.1267367
35	0x3e3ae7fd	0.18252559
36	0x3e384a11	0.17997004
37	0x3ef8718e	0.48524135
38	0x3e738425	0.23780878
39	0xbdb945be	-0.090465054
40	0x3e3490e9	0.17633404
41	0xbce6825b	-0.02813833
42	0x3ec6d5f6	0.38835114
43	0x3f11e9fd	0.5699766
44	0x3ed3b383	0.41347894
45	0xbdf37730	-0.118879676
46	0x3e5da027	0.21643125
47	0x3dd7feff	0.105466835
48	0x3deba871	0.11506737
49	0xbe76ea85	-0.241129
50	0xbeb033e3	-0.34414586
51	0xbdce1c94	-0.100640446
52	0xbe6d8fdd	-0.2319941
53	0x3e97f834	0.2968155
54	0x3ea538a2	0.3226977
55	0x3eab42a9	0.33449295
56	0x3e7e14c1	0.24812604
57	0x3e323aae	0.17405197
58	0x3ec47f90	0.38378572
59	0xbe3bb02b	-0.18328921
60	0x3e147b4e	0.14500162
61	0xbe23b8a6	-0.15988407
62	0x3d88f1fc	0.0668678
63	0xbe1a69e6	-0.1507946
64	0x3d7e723a	0.062120654
65	0xbde619f5	-0.1123542
66	0x3e7d2395	0.24720605
67	0xbe5b703e	-0.21429536
68	0xbe57c2b2	-0.21070364
69	0xbde5322a	-0.11191209
70	0x3ebbaa6a	0.36653453
71	0x3e3a2b2d	0.18180533
72	0x3ea23c7d	0.31686774
73	0xbe82de20	-0.25560093
74	0xbe9a63f8	-0.30154395
75	0xbe8c0a7a	-0.27351743
76	0xbe801545	-0.25016227
77	0x3dc1f19c	0.094699115
78	0x3e230da1	0.15923168
79	0x3e9da65e	0.3079099
80	0xbdfd6d93	-0.12374415
81	0xbe686f7f	-0.22698782
82	0x3e35d917	0.17758594
83	0xbde4473e	-0.11146401
84	0x3e82a720	0.2551813
85	0xbd068934	-0.03284569
86	0x3e79d0ba	0.24396029
87	0xbe86b976	-0.2631337
88	0xbe311174	-0.17291814
89	0x3dcdfcc1	0.100579746
90	0x3e237c39	0.15965356
91	0xbd0e57d6	-0.034751736
92	0x3e5abb6a	0.21360555
93	0x3e375eda	0.17907277
94	0xbe8d2c6b	-0.2757295
95	0xbe6005b3	-0.21877174
96	0x3ea183a3	0.31545743
97	0xbdb3292a	-0.08748086
98	0xbdab73fa	-0.0837173
99	0xbe9686c0	-0.2939968
100	0xbe2fc19e	-0.17163703
101	0x3dd570bf	0.10421895
102	0xbc9ce0f8	-0.019150242
103	0xbe62466e	-0.2209718
104	0x3d074f2e	0.033034496
105	0xbe574133	-0.21020965
106	0xbe891112	-0.26770836
107	0xbe269e0e	-0.1627123
108	0xbe9ac67e	-0.30229563
109	0xbe627cc9	-0.22117914
110	0x3ea7fd30	0.32810354
111	0x3d634291	0.055483405
112	0x3dd562dc	0.104192466
113	0xbe97cb15	-0.29647127
114	0xbe6bd20b	-0.23029344
115	0xbdebb18c	-0.11508474
116	0x3d6a4d9a	0.057202913
117	0xbe8f69a7	-0.28010294
118	0xbe07f8a5	-0.13278444
119	0xbe424e27	-0.18975125
120	0x3c52f4df	0.012875765
121	0xbde8e9a3	-0.11372688
122	0xbc672516	-0.014107963
123	0xbe5d25f0	-0.21596503
124	0xbe62c9bd	-0.2214727
125	0xbe40da00	-0.1883316
126	0xbe6a1e39	-0.22863092
127	0xbe762c3f	-0.24040316
128	0x3eef55ca	0.4674514
129	0xbe9522b9	-0.29128054
130	0x3e4dfa07	0.20114909
131	0x3de5eafa	0.11226459
132	0xbe9173bf	-0.2840862
133	0x3e9d6ead	0.307485
134	0x3b7c503d	0.0038499974
135	0xbe050b89	-0.12992682
136	0xbe928d40	-0.2862339
137	0xbeb40e52	-0.35167176
138	0x3e02e922	0.12784246
139	0xbd4e0ead	-0.050306965
140	0x3e142c1e	0.14469954
141	0xbe7ad036	-0.24493489
142	0x3e850189	0.25977734
143	0xbe6b3cb7	-0.2297238

frontend.conv1.0.bias f4 [16]
0	0xbe5d2e5f	-0.2159972
1	0xbd8bee6f	-0.06832587
2	0x3e43097e	0.1904659
3	0x3eb55d31	0.35422662
4	0x3ec19d76	0.37815446
5	0xbe76117f	-0.24030112
6	0x3e626815	0.22110017
7	0xbdcabd71	-0.09899414
8	0xba9fce5f	-0.0012192241
9	0xbe3a2976	-0.18179879
10	0x3eba5d40	0.3639927
11	0xbe80d327	-0.25161096
12	0x3e4e84c0	0.20167828
13	0x3df8abd2	0.12142147
14	0x3d8481cf	0.064700715
15	0xbe4f3e74	-0.20238668

frontend.conv2.0.weight f4 [16, 16, 3, 3]
0	0x3c5e68fc	0.013574835
1	0xbb3dc88f	-0.0028958654
2	0x3da2299c	0.079180926
3	0xbe146cb3	-0.1449459
4	0xbba6c220	-0.0050890595
5	0x3d5047b4	0.05084963
6	0x3bace10a	0.00527585
7	0x3dd59cb6	0.10430281
8	0x3d92c088	0.07165629
9	0xbdaf2fa8	-0.085540116
10	0xbd1e76b2	-0.038687415
11	0x3dee2e60	0.11629939
12	0xbd949f94	-0.072569996
13	0xbce5a474	-0.028032519
14	0x3dc61b8d	0.09673224
15	0x3ceba63a	0.028765786
16	0x3cf0db8d	0.029401565
17	0x3e089b78	0.13340557
18	0x3d85fd21	0.06542421
19	0xbda4a5ba	-0.08039422
20	0xbba5af0f	-0.005056269
21	0x3d78e8db	0.060768943
22	0x3cc5e79c	0.024158292
23	0xbd352121	-0.044221047
24	0x3d81e8f9	0.06343264
25	0x3d614c45	0.055004377
26	0x3cc5fa6b	0.02416726
27	0xbcd249f5	-0.025670031
28	0xbd6405d5	-0.055669624
29	0xbd91eb15	-0.071249165
30	0xbc305a05	-0.01076365
31	0xbd780358	-0.060550064
32	0xbd0d1978	-0.034448117
33	0x3dad2061	0.084534414
34	0xbd18c9bb	-0.03730176
35	0xbdcdad66	-0.10042839
36	0xbdb12bd6	-0.08650939
37	0xbd6aafca	-0.05729655
38	0x3da2f8a0	0.07957578
39	0xbe0783e7	-0.1323391
40	0xbe06dbf1	-0.13169838
41	0x3d5cc1a9	0.053895626
42	0x3d9752f0	0.07388866
43	0x3d894e1b	0.067043506
44	0x3d97ce10	0.0741235
45	0xbcafa94a	-0.021443028
46	0xbd3b208a	-0.04568533
47	0xbdee16f9	-0.116254754
48	0x3c3a8a43	0.011385503
49	0x3ce596bd	0.02802598
50	0x3b3e5380	0.002904147
51	0x3da598a1	0.08085752
52	0xbd516d1b	-0.05112944
53	0xbd70242c	-0.058628246
54	0xbdd3a3f6	-0.103340074
55	0xbd718323	-0.058962952
56	0xbd633b87	-0.05547669
57	0xbe159fbc	-0.14611715
58	0xbd91e605	-0.07123951
59	0xbc658726	-0.014009273
60	0xbd916f98	-0.07101363
61	0x3ccb1a54	0.024792828
62	0xbc8f05ed	-0.01745888
63	0xbc462f23	-0.012096199
64	0xbdfdd569	-0.123942204
65	0x3cde351d	0.027124936
66	0xbd7f3404	-0.062305465
67	0xbe3d65e1	-0.18495895
68	0xbe8967cb	-0.26837
69	0x3df86d38	0.12130207
70	0x3cf2a82b	0.029621204
71	0x3daba5b0	0.08381212
72	0x3d73d201	0.059526447
73	0x3d447dd8	0.047971576
74	0xbc326f35	-0.010890772
75	0x3d3fe00b	0.046844523
76	0xbce47732	-0.027888868
77	0xbe09fe8d	-0.1347601
78	0xbb8e742b	-0.0043473444
79	0xbd4cd533	-0.05000801
80	0x3cb7fa0e	0.022458103
81	0xbc74f9cc	-0.014952134
82	0x3c96b554	0.01839701
83	0xbd5ed63b	-0.054403525
84	0x3d4b1abd	0.049586046
85	0x3c5fbaa6	0.01365534
86	0xbca6bc33	-0.020353412
87	0x3d9f3fc8	0.07775837
88	0x3c2e52af	0.0106398305
89	0x3d188208	0.037233382
90	0xbc49b009	-0.012310036
91	0xbe0fe79c	-0.14053196
92	0xbe2b2ca1	-0.16716243
93	0xbd75f1c8	-0.060045034
94	0xbe0f658c	-0.14003581
95	0xbe82588d	-0.25458184
96	0x3d2aa1c5	0.04165818
97	0xbdf2add5	-0.11849562
98	0xbd122ef3	-0.035689306
99	0x3d53db32	0.051722713
100	0x3d80106f	0.062531345
101	0xbdb5143a	-0.088417485
102	0x3db0e1f8	0.0863685
103	0xbcf19ea0	-0.029494584
104	0x3bdda823	0.006764428
105	0x3dec2311	0.11530126
106	0x3c4fb0f5	0.012676467
107	0x3adf7ad6	0.0017050158
108	0xbc101862	-0.008794876
109	0xbd6790bd	-0.056534518
110	0x3d102f0c	0.035201117
111	0xbd602898	-0.054726213
112	0x3d9539e7	0.072864346
113	0x3d6f33da	0.05839906
114	0x3de8022c	0.11328539
115	0x3c46f9e4	0.0121445395
116	0xbd57b963	-0.052667033
117	0x3cd164ab	0.025560698
118	0x3d14e282	0.036348827
119	0xbdf01bf6	-0.11724083
120	0x39ce8467	0.0003939003
121	0xbd5bbbbe	-0.05364584
122	0xbd2e7456	-0.042591415
123	0xbc461de3	-0.0120920865
124	0xbcb0f2a9	-0.021600084
125	0xbd099710	-0.03359133
126	0xbd77221d	-0.060335267
127	0x3e856c4d	0.2605919
128	0x3eca648f	0.39529845
129	0x3db81fae	0.089904174
130	0x3ea3488d	0.3189129
131	0x3ed9f820	0.42572117
132	0x3d1117d8	0.03542313
133	0x3e2d4169	0.16919483
134	0x3e9e2222	0.30885416
135	0xbd25db2c	-0.04049222
136	0xbd98b60a	-0.07456596
137	0xbd664384	-0.05621673
138	0xbaf1a638	-0.0018436378
139	0xbd14b666	-0.03630676
140	0xbd2f3817	-0.0427781
141	0x3bfc504b	0.0077000014
142	0xbce869f0	-0.028370827
143	0xbd81b68c	-0.06333646
144	0xbd879966	-0.06621055
145	0x3df90c54	0.121605545
146	0x3d0f5a84	0.03499843
147	0x3c9b0e60	0.018927753
148	0xbba678ca	-0.005080317
149	0x3d0f4a98	0.034983248
150	0x3dd6bf9e	0.10485767
151	0x3d642ae7	0.055704977
152	0xbd5a6f62	-0.05332888
153	0x3d6fce9e	0.058546655
154	0x3e1419e6	0.14463004
155	0x3dd1828c	0.10229978
156	0x3d737487	0.0594373
157	0x3dc6a286	0.09698968
158	0x3b919508	0.0044428147
159	0x3d2864ea	0.041111864
160	0xbd322564	-0.04349269
161	0xbc962b50	-0.0183312
162	0x3d590355	0.052981693
163	0x3cde46aa	0.027133305
164	0xbd91c606	-0.07117848
165	0xbda72064	-0.08160475
166	0xbd99b363	-0.075049184
167	0xbdcd57cf	-0.10026514
168	0xbda3c30b	-0.07996186
169	0xbd1cf3d2	-0.038318463
170	0x3d1eebdc	0.03879915
171	0xbca504d6	-0.020143908
172	0xbdc8929e	-0.0979359
173	0xbdc59200	-0.09646988
174	0x3ca6d164	0.020363517
175	0xbdac72ac	-0.084203094
176	0xbd042b2a	-0.032267727
177	0x3c3f0e6a	0.011661151
178	0xbd86eeca	-0.06588514
179	0xbd0cd449	-0.03438214
180	0xbcdc9c50	-0.026930004
181	0xbbafc337	-0.0053638476
182	0xbc73bdb5	-0.014876773
183	0xbdab845a	-0.083748534
184	0xbd8d3b25	-0.068960465
185	0xbd464522	-0.048405774
186	0x3da91147	0.082552485
187	0xbd3e1b49	-0.04641274
188	0xbd9930b2	-0.07479991
189	0x394c6cd1	0.00019495493
190	0xbbae4cbe	-0.005319207
191	0x3c8abb1c	0.016934924
192	0x3d0b30db	0.03398214
193	0x3c72ad2c	0.014811795
194	0xbddea1a5	-0.10870675
195	0xbcb34a99	-0.021886157
196	0x3c9cb206	0.019127857
197	0xbd070a2f	-0.032968696
198	0xbda883b3	-0.08228245
199	0x3da46747	0.08027511
200	0xbc14e01b	-0.009086634
201	0xbd927f70	-0.07153213
202	0xbd9dd139	-0.07705922
203	0x3bc8610c	0.0061150845
204	0x3d458bf8	0.048229188
205	0x3caf9ba2	0.021436516
206	0x3bc0d94d	0.0058852793
207	0xbdeed9e4	-0.11662653
208	0xbd9b8036	-0.07592814
209	0x3d3be420	0.045871854
210	0x3d974171	0.07385529
211	0x3d128e55	0.03578027
212	0xbd5fe5b0	-0.054662406
213	0xbd34ad5d	-0.044110645
214	0xbdcb0dbe	-0.099147305
215	0xbd9a9d93	-0.07549586
216	0xbbe5ba8a	-0.0070107626
217	0x3ca63719	0.020289944
218	0x3d3e8cac	0.046520874
219	0xbdb73697	-0.08945959
220	0x3d228bad	0.039683986
221	0xbd944104	-0.07238963
222	0x3b64ebd7	0.003493061
223	0x3d36e79e	0.04465448
224	0xbc9cc125	-0.019135067
225	0x3d85012e	0.06494366
226	0xbddbed8a	-0.10738666
227	0xbdc8191c	-0.09770414
228	0x3bfae228	0.0076563545
229	0xbd9d9e73	-0.076962374
230	0xbdaa7391	-0.08322824
231	0xbda5eeb0	-0.08102167
232	0xbcdb64f1	-0.026781531
233	0xbd3d54fc	-0.046223626
234	0xbc5557f6	-0.01302146
235	0xbd9965ef	-0.074901454
236	0xbd9b33d8	-0.07578248
237	0xbc615871	-0.013753996
238	0x3c17a8b0	0.009256527
239	0xbd40006c	-0.046875402
240	0xbd0ee90a	-0.034890212
241	0x3d3d366e	0.046194486
242	0xba54678b	-0.00081025873
243	0xbbe1bdb9	-0.006889072
244	0xbd0fb2ee	-0.03508275
245	0xbdb8d5eb	-0.090251766
246	0xbdbb0ae5	-0.09132937
247	0xbd64d187	-0.055863883
248	0xbd6c4701	-0.057684902
249	0x3c31065c	0.010804739
250	0xbd269f81	-0.04067946
251	0xbd4176da	-0.047232486
252	0x3d980be2	0.074241415
253	0x3c83e787	0.016101612
254	0x3d2d7e66	0.04235687
255	0xbd3f69dd	-0.04673182

frontend.conv2.0.bias f4 [16]
0	0xbbc99d30	-0.0061527714
1	0xbd3e6a65	-0.046488184
2	0xbc9ef8b6	-0.019405704
3	0xbd54f19a	-0.05198822
4	0x3bb42509	0.005497579
5	0xbd9cfd17	-0.076654606
6	0xbcdc71ff	-0.026909826
7	0xbd97be0b	-0.07409295
8	0xbd24ecdb	-0.040264945
9	0x3d3cc202	0.046083458
10	0xbd7020d9	-0.058625076
11	0xbdb02478	-0.08600706
12	0xbc1c16b3	-0.009526896
13	0x3d707236	0.05870267
14	0xbbf9ae94	-0.0076196883
15	0xbdc8c07b	-0.09802338

tcn.layers.0.conv1.bias f4 [16]
0	0xbd71a98c	-0.058999583
1	0xbe0bcecb	-0.13653104
2	0x3c1b89db	0.0094933165
3	0x3d7cadd6	0.06168922
4	0x3dac8e92	0.08425631
5	0xbb68144f	-0.0035412495
6	0x3db71625	0.089397706
7	0xbdb26a13	-0.08711638
8	0x3dbef7a2	0.09324576
9	0xbd1e0f5a	-0.03858886
10	0xbdb3eb6d	-0.08785138
11	0x3d8d08b5	0.06886426
12	0x3c7a73b3	0.015286374
13	0x3d5dc995	0.05414732
14	0xbd735b03	-0.059412967
15	0x3da7d1e3	0.081943296

tcn.layers.0.conv1.weight_g f4 [16, 1, 1]
0	0x3f1f9630	0.6233854
1	0x3f421302	0.75810254
2	0x3f11e407	0.5698857
3	0x3f1d806d	0.6152409
4	0x3f1e0fde	0.6174296
5	0x3f0f80cf	0.5605592
6	0x3f70829e	0.93949306
7	0x3f43590e	0.7630776
8	0x3f489ef0	0.7836752
9	0x3f2506ed	0.6446369
10	0x3f06dc91	0.5268031
11	0x3f0fff52	0.5624896
12	0x3f78292e	0.96937835
13	0x3f1d42ea	0.6143023
14	0x3f0c3c46	0.5477947
15	0x3f1bbcbc	0.6083486

tcn.layers.0.conv1.weight_v f4 [16, 16, 5]
0	0xbda9697c	-0.08272073
1	0xbd9195a2	-0.07108618
2	0x3c972eac	0.018454872
3	0xbd96c4be	-0.07361744
4	0xbd85893e	-0.065203175
5	0xbd38961d	-0.045065034
6	0xbccb4aee	-0.024816003
7	0x3d6a28b2	0.057167716
8	0x3d942093	0.072327755
9	0x3bdfd53e	0.0068308404
10	0xbbdc175c	-0.006716652
11	0x3d9b1417	0.07572191
12	0xbcc967d3	-0.02458564
13	0xbd528a18	-0.051401228
14	0xbdd06b10	-0.101766706
15	0xbc374efd	-0.011188266
16	0x3d5d5eac	0.054045364
17	0x3d2997ce	0.041404538
18	0x3da75350	0.081701875
19	0xba6f3d7e	-0.00091262895
20	0x3db7cdc9	0.08974797
21	0xbd1d8bbe	-0.038463347
22	0xbd454807	-0.048164394
23	0xbcd9e9b3	-0.026600694
24	0xbdd4f3fc	-0.10398099
25	0xbd7a845f	-0.061161395
26	0xbdb511c2	-0.08841278
27	0x3c30118a	0.010746369
28	0x3c7ee543	0.01555759
29	0x3a3454a6	0.00068790687
30	0xbd646d92	-0.055768557
31	0x3ddb9e7f	0.1072359
32	0xbb2f4eda	-0.002674988
33	0x3d86c1a9	0.065799065
34	0x3de44f8e	0.11147986
35	0xbdc25f7a	-0.09490867
36	0xbd356ada	-0.044291355
37	0x3cfa5f93	0.030563151
38	0x3d9367f7	0.07197564
39	0xbd33fb39	-0.043940756
40	0x3d902fa7	0.07040339
41	0xbdb674a1	-0.08908964
42	0xbd9bc79b	-0.07606431
43	0x3da56231	0.08075369
44	0xbca0f268	-0.019646838
45	0x3e067089	0.13128866
46	0x3ca94e86	0.020667326
47	0xbd16fd99	-0.036862943
48	0x3db72a32	0.08943595
49	0x3db334fb	0.087503396
50	0x3c6159d4	0.013754327
51	0xbd75c89e	-0.060005777
52	0x3c1ab416	0.00944235
53	0xbd4378b4	-0.047722533
54	0x3dc05eef	0.09393107
55	0x3c9cec51	0.019155653
56	0x3c6dd9bf	0.014517247
57	0x3d3e977d	0.04653119
58	0x3c73f45f	0.014889806
59	0xbdf5f62e	-0.12009846
60	0x3dd68a09	0.10475547
61	0x3d9d6b85	0.07686523
62	0xbd7cebf5	-0.061748464
63	0x3d992732	0.07478179
64	0x3b8a701a	0.0042247893
65	0xbc849f3e	-0.016189214
66	0xbd960eb9	-0.07327027
67	0xbc89f737	-0.016841514
68	0xbdd8a171	-0.105776675
69	0x3d63dca4	0.05563034
70	0x3d9f0d88	0.07766253
71	0xbcfefe47	-0.031127108
72	0x3dc69c12	0.09697737
73	0xbd407d1a	-0.046994306
74	0x3cc30f49	0.023811
75	0xbd9582ba	-0.07300325
76	0xbc836795	-0.016040603
77	0x3cd5f046	0.026115548
78	0x3ce94fab	0.028480371
79	0xbceee66a	-0.029162604
80	0xbb84767b	-0.0040424443
81	0x3ddeb727	0.10874777
82	0x3dcec323	0.10095813
83	0x3d7dd9a2	0.06197513
84	0xbbb439ad	-0.0055000396
85	0x3d47798b	0.048699897
86	0x3d2e3715	0.042533
87	0x3ddf0d05	0.10891155
88	0x3dabf409	0.083961554
89	0x3da758bf	0.08171224
90	0x3c0b3ce8	0.008498408
91	0xbca712b8	-0.020394668
92	0xbc51e8f0	-0.012811884
93	0x3db1d4b3	0.08683147
94	0x3d7cf4e7	0.061756995
95	0xbdb40bcc	-0.087913126
96	0xbc46d27e	-0.012135146
97	0xbdbbe2b4	-0.091740996
98	0xbd9e2527	-0.0772193
99	0x3c918c1b	0.017767003
100	0xbd4f7505	-0.050648708
101	0xbdb75fd5	-0.089538254
102	0xbc1ebba8	-0.009688295
103	0xbdece786	-0.11567597
104	0xbdf3b93b	-0.11900564
105	0x3ce9d7b4	0.028545238
106	0x3d44ff6b	0.048095148
107	0x3d23f34a	0.04002694
108	0x3d9a2ea5	0.07528428
109	0xbccad56b	-0.024759969
110	0xbd550ba3	-0.05201305
111	0x3be9fa3e	0.007140427
112	0x3d93c664	0.072155744
113	0xbc73f2b5	-0.014889409
114	0x3cec93ce	0.028879073
115	0x3cc3f188	0.023918882
116	0x3dbe5743	0.092939876
117	0x3dabb38c	0.08383855
118	0x3dd8e069	0.10589678
119	0x3cf76c95	0.030203143
120	0xbd99fc5c	-0.07518837
121	0xbd0ced56	-0.03440603
122	0x3d2a495e	0.041573875
123	0x3db00874	0.08595362
124	0xbc64f621	-0.013974697
125	0x3dde3fb0	0.10851991
126	0x3d473971	0.048638765
127	0x3d1f0efa	0.038832642
128	0x3b6c30c8	0.0036039818
129	0x3c37134d	0.011174035
130	0x3d8adaf8	0.06780046
131	0xbcd7d0ec	-0.026344739
132	0x3d0fbb96	0.035091005
133	0xbe030db7	-0.127982
134	0xbdaca924	-0.084306985
135	0x3d42a3ec	0.04751961
136	0x3d9adcda	0.07561655
137	0x3d5a23e0	0.05325687
138	0x3d148c41	0.03626657
139	0xbd9161d3	-0.070987366
140	0xbcfc6f01	-0.03081465
141	0xbdc1637f	-0.094428055
142	0xbddff2b6	-0.10934965
143	0xbd18fd3c	-0.037350878
144	0xbda2c093	-0.07946887
145	0x3d893d03	0.0670109
146	0xbd7b0e8d	-0.061293174
147	0x3cd8acb7	0.026449544
148	0x3d6ee186	0.058320545
149	0xbd805f2d	-0.06268153
150	0x3d6e3cf9	0.058163617
151	0x3cccc143	0.024994498
152	0x3d9bc001	0.07604981
153	0x3dc4cfed	0.09609971
154	0xbc4ad1f5	-0.012379159
155	0xbd9c8c65	-0.07643966
156	0x3c0b34d8	0.008496486
157	0xbd17484e	-0.03693419
158	0xbd058781	-0.03259993
159	0x3d0f11f0	0.034929216
160	0xbda124ad	-0.078683235
161	0xbcc481cb	-0.023987671
162	0x3da03d05	0.078241386
163	0x3d5b37a0	0.053519845
164	0xbd8b0b29	-0.06789238
165	0x3d1ae226	0.03781333
166	0xbdb2b35f	-0.087256186
167	0xbd8507be	-0.06495617
168	0x3d8d1147	0.06888061
169	0xbce056f1	-0.027385207
170	0xbcb6fa36	-0.022336107
171	0xbd467866	-0.048454665
172	0xbbca2bbd	-0.006169765
173	0xbdc287c5	-0.09498552
174	0xbc40e420	-0.011773139
175	0xbdd82992	-0.10554804
176	0x3d02bfeb	0.03192131
177	0xbd89821a	-0.06714268
178	0x3c88416b	0.016632756
179	0xbc71d9e5	-0.014761423
180	0xbd8e7944	-0.06956723
181	0xbd311756	-0.043235146
182	0xbdb9459b	-0.09046479
183	0xbd633d1e	-0.055478208
184	0x3bfc50cc	0.0077000614
185	0xbde55a16	-0.11198823
186	0xbdaf751d	-0.085672595
187	0x3e038655	0.12844212
188	0x3d1fcb71	0.039012376
189	0xbd214d9c	-0.039380655
190	0xbc8ac2cf	-0.016938595
191	0x3dbbbc37	0.091667585
192	0xbd985830	-0.074386954
193	0xbd4091e7	-0.047014143
194	0xbd937e8a	-0.0720187
195	0xbc718361	-0.014740796
196	0xbc28ba61	-0.010298342
197	0xbdb03253	-0.086033486
198	0x3dafa8d4	0.08577123
199	0xbd909f15	-0.070615925
200	0x3dd5ecc5	0.10445551
201	0xbda029f8	-0.07820505
202	0xbc3055b7	-0.0107626235
203	0x3cfa1672	0.03052828
204	0xbd210878	-0.039314717
205	0x3d447fba	0.047973372
206	0xbdcc7e65	-0.09985045
207	0xbccf07cd	-0.025272274
208	0xbde564a9	-0.1120084
209	0xbb3fd3b3	-0.002927047
210	0x3d9d2351	0.07672752
211	0x3dcb069c	0.0991337
212	0x3c740f35	0.014896204
213	0xbd7702ea	-0.060305513
214	0x3ddc0b12	0.10744299
215	0x3cd976f0	0.026545972
216	0x3d915682	0.07096578
217	0xbd5771f3	-0.052598905
218	0xbd8de1b9	-0.06927819
219	0xbdbe6ad9	-0.09297723
220	0x3dd99cba	0.10625596
221	0x3b22e6fa	0.002485691
222	0xbdbcfd1b	-0.092279635
223	0xbc798add	-0.0152308615
224	0xbd653fa2	-0.055968888
225	0x3c0c71d0	0.008572057
226	0x3d27cac0	0.04096484
227	0xbd521a2b	-0.051294487
228	0x3cbd2571	0.023089143
229	0xbd844449	-0.06458337
230	0x3c650557	0.013978324
231	0xbdca56ef	-0.098798625
232	0x3cf2e76d	0.029651368
233	0x3e09f7ba	0.13473406
234	0x3de1f194	0.110324055
235	0x3d2b8367	0.041873362
236	0x3d9c350e	0.07627307
237	0x3dd35c8d	0.10320387
238	0x3d10f06f	0.035385545
239	0x3d4368f2	0.047707506
240	0x3bbd0167	0.0057679894
241	0x3d988242	0.0744672
242	0x3c9f5353	0.019448912
243	0xbe25822a	-0.16162935
244	0xbd8a73e1	-0.067603834
245	0xbcac2974	-0.02101586
246	0x3d76d289	0.060259376
247	0xbd9c103a	-0.076202825
248	0x3d11af72	0.03556771
249	0xbd40e306	-0.047091506
250	0x3dd001d2	0.10156597
251	0x3e08d1c4	0.13361269
252	0x3cfbb918	0.030727908
253	0x3e131214	0.14362365
254	0x39a22a35	0.00030930495
255	0xbdb06c16	-0.08614366

tcn.layers.0.conv2.bias f4 [16]
0	0xbd8801b9	-0.066409536
1	0xbc2ddf11	-0.010612265
2	0xbcce3a92	-0.025174413
3	0xbd1164cd	-0.03549652
4	0xbd2f69b8	-0.04282543
5	0x3d47aca0	0.048748612
6	0xbd833b23	-0.06407764
7	0x3de93ebc	0.11388919
8	0xbc748aa3	-0.014925632
9	0x3d43a2f7	0.047762837
10	0x3d7eb250	0.06218177
11	0xbd514800	-0.051094055
12	0x3dc88e9a	0.09792824
13	0x3cb5e6d8	0.022204801
14	0x3bae3dd0	0.005317427
15	0xbde556c3	-0.11198189

tcn.layers.0.conv2.weight_g f4 [16, 1, 1]
0	0x3f28d7ae	0.659541
1	0x3f16f332	0.58964837
2	0x3f3ba83e	0.7330359
3	0x3f09f81a	0.538942
4	0x3f53de30	0.82760906
5	0x3f1cb604	0.61215234
6	0x3f311d51	0.6918536
7	0x3f269700	0.6507416
8	0x3f2cb65b	0.6746575
9	0x3f128ebb	0.5724904
10	0x3f167052	0.5876514
11	0x3f36861a	0.7129837
12	0x3f2a69a6	0.66567457
13	0x3f14a746	0.5806774
14	0x3f28229b	0.65677804
15	0x3f2ba630	0.67050457

tcn.layers.0.conv2.weight_v f4 [16, 16, 5]
0	0x3e1d60c0	0.15368938
1	0x3d9cd07e	0.07656954
2	0x3da1c82c	0.07899508
3	0xbd6a5c21	-0.057216767
4	0x3bb76b84	0.0055975337
5	0x3dc83cd8	0.0977723
6	0x3e09a5a6	0.13442096
7	0x3d27d363	0.04097308
8	0x3e1179a2	0.14206555
9	0x3e13a95e	0.14420077
10	0xbc9fc2be	-0.01950204
11	0x3ca8507c	0.02054619
12	0xbd1a49a1	-0.037667874
13	0xbd67b6e4	-0.056570902
14	0x3d639850	0.05556518
15	0x3cc344ce	0.02383652
16	0x3cb67940	0.022274613
17	0xbd1c5098	-0.038162798
18	0xbdcd1b5c	-0.10014984
19	0xbd411e12	-0.047147818
20	0x3dc00d9b	0.09377595
21	0xbcc37cc3	-0.023863202
22	0x3ca1e06b	0.019760331
23	0x3d6cc01b	0.057800394
24	0x3d938428	0.07202941
25	0xbd94ece3	-0.07271745
26	0xbd2027a3	-0.0391003
27	0xbdbda5a1	-0.09260107
28	0x3d563f4a	0.05230645
29	0xbdd0327e	-0.101658806
30	0xbd88372b	-0.066511475
31	0xbd47c5c5	-0.048772592
32	0x3dc3a073	0.09552088
33	0x3daad23a	0.08340879
34	0x3cbca2c1	0.023026826
35	0x3d32fbec	0.043697283
36	0xbe10775a	-0.14108029
37	0xbdf018f8	-0.117235124
38	0xbe24f150	-0.16107678
39	0xbd55811e	-0.05212509
40	0xba973f0f	-0.0011539179
41	0xbcb641e6	-0.02224822
42	0xbde9dd3a	-0.11419149
43	0xbc838cc3	-0.016058331
44	0xbd670b07	-0.056407
45	0x3d4c85e0	0.04993236
46	0xbd30d275	-0.043169457
47	0xbbbb81ed	-0.0057222755
48	0xbd1b2449	-0.0378764
49	0x3de94fe1	0.11392189
50	0xbd328482	-0.0435834
51	0x3cd2293d	0.02565443
52	0x3d6fa36b	0.058505457
53	0x3d251c57	0.04031023
54	0x3d9288e1	0.07155014
55	0x3cf227d8	0.029560015
56	0x3d1bfcb1	0.038082782
57	0xbc220279	-0.009888285
58	0x3d136908	0.035988837
59	0xbd74e38e	-0.059787326
60	0xbd5c5f68	-0.053801924
61	0x3d323b21	0.04351342
62	0x3c5d4b77	0.013506762
63	0xbd6c3bf7	-0.057674374
64	0xbe1777c4	-0.1479178
65	0x3b2ca150	0.0026341267
66	0x3cabcec7	0.020972623
67	0xbd5b2168	-0.053498656
68	0xbceb8d35	-0.028753856
69	0x3c9280d7	0.017883701
70	0xbd730f23	-0.059340607
71	0x3d0ce91d	0.034402
72	0x3c2c2264	0.010506246
73	0x3c29b416	0.010357877
74	0x3deca360	0.11554599
75	0x3da48d36	0.08034746
76	0x3b772228	0.0037709568
77	0x3d853229	0.06503708
78	0xbd1f28c1	-0.038857225
79	0x3c489eb7	0.012244872
80	0x3cbd8480	0.02313447
81	0xbd4921ae	-0.049104385
82	0x3d5e8c4f	0.054333027
83	0x3d905392	0.0704719
84	0x3cf7c6a2	0.030246083
85	0x3e176c3a	0.14787379
86	0x3df20578	0.11817449
87	0x3e0236e2	0.12716249
88	0x3d27f13a	0.041001536
89	0x3cda9f6a	0.026687343
90	0xbc164bdd	-0.009173361
91	0xbab9522f	-0.0014138873
92	0xbd94f0db	-0.07272502
93	0xbc704180	-0.014664054
94	0xbdb3651c	-0.087595195
95	0xbda7f81c	-0.0820162
96	0xbdcf367e	-0.101178154
97	0x3d96bcd1	0.073602326
98	0xbd8e33af	-0.069434516
99	0xbc8d3c0c	-0.017240547
100	0x3d34ee72	0.04417271
101	0x3dcb9da2	0.099421754
102	0x3cf5250c	0.029924892
103	0xbd866137	-0.06561511
104	0x3cd202d5	0.025636116
105	0xbdd37d08	-0.10326582
106	0x3c88f0e9	0.016716437
107	0x3dcb8ef2	0.09939374
108	0x3dc26e4b	0.09493693
109	0xbcc7ffb6	-0.024413925
110	0xbdf0e737	-0.11762851
111	0x3c9067a8	0.017627552
112	0x3d51d82e	0.051231556
113	0xbdd58945	-0.10426573
114	0xbd8617ea	-0.0654753
115	0xbd4a7ec7	-0.04943731
116	0x3d6158f1	0.05501646
117	0x3d6780d9	0.056519363
118	0x3db5c04b	0.088745676
119	0x3a9c5e9e	0.0011930054
120	0xbe029316	-0.12751421
121	0xbd804752	-0.06263603
122	0xbdc5f60f	-0.096660726
123	0xbd257a2f	-0.040399726
124	0x3cdc811a	0.02691703
125	0xbd457bce	-0.048213772
126	0x3cb51d6e	0.02210876
127	0xbd4e616f	-0.05038589
128	0xbd46d409	-0.048542056
129	0xbd33e0da	-0.043915607
130	0xbc8c5688	-0.017131105
131	0xbd136fb0	-0.035995185
132	0x3d11529a	0.035479166
133	0x3da97434	0.08274117
134	0x3dcf34a6	0.10117464
135	0x3d433541	0.04765821
136	0x3c5513ce	0.01300521
137	0xbacc2480	-0.0015574843
138	0x3dc686e9	0.09693701
139	0xbd45ac5b	-0.048260074
140	0x3d504976	0.050851308
141	0xbdc17037	-0.094452314
142	0xbd7877ba	-0.060661055
143	0x3d0b8ac5	0.034067888
144	0x3bbb5cf0	0.005717866
145	0x3cc9ec5c	0.024648838
146	0x3dbc790c	0.09202775
147	0x3d720da7	0.05909505
148	0x3ddb8b79	0.10719962
149	0xbd0c049c	-0.034184083
150	0xbd6e4263	-0.05816878
151	0xbcd22afc	-0.025655262
152	0xbcef2d00	-0.029196262
153	0xbd79a4d5	-0.06094821
154	0xbc41421f	-0.01179555
155	0x3dbb87e2	0.09156777
156	0xbd7cff82	-0.06176711
157	0x3d445e14	0.047941282
158	0x3d1c8b90	0.038219035
159	0x3d59aca8	0.053143173
160	0x3dac4e71	0.08413399
161	0x3cc736c2	0.024318103
162	0x3d334730	0.04376906
163	0x3bdbbfb1	0.006706201
164	0xbbfb9b96	-0.0076784594
165	0x3ce0f21c	0.027459197
166	0xbc1561bf	-0.009117543
167	0xbd9507be	-0.07276867
168	0xbd9774dc	-0.07395336
169	0xbd984aac	-0.074361175
170	0xbc49fef5	-0.012328853
171	0x3ce95d7a	0.028486956
172	0xbd7c955b	-0.061665874
173	0xbd5c89cb	-0.053842347
174	0x3cba5e25	0.02274997
175	0x3bc9df80	0.0061606765
176	0x3c85380f	0.016262082
177	0x3ca6ecce	0.02037659
178	0x3de74840	0.112930775
179	0x3d2a5ee0	0.041594386
180	0xbd12f92e	-0.035882168
181	0xbd205dda	-0.039152004
182	0xbd163e4a	-0.036680497
183	0xbd588e70	-0.052870214
184	0xbd334f68	-0.0437769
185	0xbd60d0b3	-0.05488653
186	0xbcb76ca6	-0.022390675
187	0xbca82ba8	-0.02052863
188	0xbd85268f	-0.06501495
189	0x3d594b7c	0.053050503
190	0x3d3da660	0.046301246
191	0xbd99287d	-0.07478426
192	0xbe29378a	-0.16525093
193	0xbe02d206	-0.1277543
194	0xbded5c0e	-0.11589824
195	0x3d2606b2	0.04053373
196	0x3d98eee2	0.07467438
197	0x3d787658	0.060659736
198	0x3dc87350	0.09787619
199	0x3d77e2eb	0.06051914
200	0x3d7b6b3a	0.061381556
201	0x3e26fd02	0.16307452
202	0x3e1be112	0.15222576
203	0x3e063b40	0.1310854
204	0x3da68d5b	0.0813243
205	0xbcf1170a	-0.029429931
206	0x3dae9224	0.08523968
207	0x3ddc62ba	0.10761018
208	0x3d8e6717	0.069532566
209	0x3d9d9ec4	0.07696298
210	0x3d223184	0.039598003
211	0xbd0e8cb2	-0.034802146
212	0xbc9d1715	-0.019176045
213	0xbd82b2c0	-0.0638175
214	0xbd736bce	-0.059428982
215	0x3d4a1cee	0.049343996
216	0x3d0a0c41	0.033703092
217	0xbc86e613	-0.01646713
218	0xbbf2cbf6	-0.007409568
219	0xbbf66302	-0.007519127
220	0xbd217b85	-0.039424438
221	0xbde378ee	-0.1110705
222	0xbdcef2ba	-0.1010489
223	0xbda47ccb	-0.08031615
224	0xbc9cbb55	-0.019132296
225	0x3d7c3d8f	0.061582144
226	0x3d395d34	0.0452549
227	0x3d499dba	0.049222685
228	0xbc98285a	-0.018573929
229	0xbcc11fb8	-0.023574695
230	0x3d7f8144	0.062379137
231	0xbc639e90	-0.013892785
232	0x3ce802fc	0.028321736
233	0xbdcd07db	-0.10011264
234	0xbccca5fe	-0.024981495
235	0x3c5e05c4	0.013551179
236	0xbd5fb6f1	-0.054617826
237	0xbd753d03	-0.05987264
238	0xbc9c5829	-0.019085007
239	0xbd1a87d3	-0.03772719
240	0x3d9477b7	0.07249396
241	0xbdd23e9f	-0.1026585
242	0x3d766264	0.060152426
243	0xbd2a35d0	-0.041555226
244	0x3b153aee	0.002277072
245	0x3d31b1db	0.043382507
246	0xbdf4b5a6	-0.11948709
247	0xbcb7c271	-0.022431584
248	0xbdfa8767	-0.12232857
249	0x3c0616b6	0.008184126
250	0x3d11e984	0.03562309
251	0x3c99d26d	0.018777097
252	0xbd155e95	-0.036467154
253	0x3d430f44	0.04762198
254	0xbd5c2cab	-0.053753536
255	0x3c81051e	0.01574951

tcn.layers.1.conv1.bias f4 [16]
0	0xbde7c051	-0.11315978
1	0xbda463b1	-0.08026827
2	0x3d878dc8	0.066188395
3	0xbcbad87b	-0.022808304
4	0xbd46903f	-0.048477408
5	0x3b76c986	0.0037656738
6	0xbcfdf444	-0.031000264
7	0xbd8b4c15	-0.06801621
8	0xbdaa7bbb	-0.08324381
9	0xbd805d53	-0.062678
10	0xbe0c1e16	-0.13683352
11	0xbe001899	-0.12509383
12	0xbbe4a5d0	-0.006977774
13	0x3d9008dc	0.0703294
14	0x3da81951	0.08207954
15	0x3bc8b28f	0.0061248015

tcn.layers.1.conv1.weight_g f4 [16, 1, 1]
0	0x3f127bea	0.5722033
1	0x3f494151	0.7861529
2	0x3f0eaf8c	0.55736613
3	0x3f176225	0.5913413
4	0x3f1d994e	0.6156205
5	0x3f0f7ea5	0.5605262
6	0x3f13ae98	0.57688284
7	0x3f32d6e3	0.6985914
8	0x3f4e9dc3	0.80709475
9	0x3f1e61aa	0.61867774
10	0x3f1d624b	0.6147811
11	0x3f2823b7	0.65679497
12	0x3f7fec01	0.9996949
13	0x3f3fb0c1	0.7487908
14	0x3f1ab0da	0.60426104
15	0x3f193aec	0.5985553

tcn.layers.1.conv1.weight_v f4 [16, 16, 5]
0	0x3ccd3f7c	0.025054686
1	0x3d418efc	0.0472555
2	0x3cf658bc	0.030071609
3	0x3bdfb4f1	0.00682699
4	0x3dcfd982	0.10148908
5	0x3dc90890	0.09816086
6	0x3db549b9	0.08851952
7	0xbb7aab13	-0.003824894
8	0x3d05709b	0.032578092
9	0xbd8487db	-0.06471225
10	0xbda7a54a	-0.08185823
11	0xbcb92fe0	-0.022605836
12	0xbc42d479	-0.011891478
13	0xbd9cf490	-0.07663834
14	0xbddf3c50	-0.109001756
15	0x3d2ab7f9	0.041679356
16	0x3cfcd956	0.030865353
17	0xbda8d381	-0.08243466
18	0x3d84bd09	0.06481368
19	0xbdb9b132	-0.090670004
20	0x3da157a5	0.07878045
21	0x3d430f96	0.047622286
22	0xbd5a2946	-0.053262018
23	0x3daca150	0.084292054
24	0xbd9e6c96	-0.07735555
25	0xbd53544b	-0.05159406
26	0x3da79a26	0.08183698
27	0xbcac4ae0	-0.021031797
28	0xbd30ccb0	-0.043163955
29	0x3c9627fd	0.018329615
30	0xbcde60b5	-0.027145723
31	0x3d61562c	0.05501382
32	0x3dbb537c	0.09146783
33	0x3d495ab5	0.04915877
34	0x3d1662d0	0.03671533
35	0x3ca5a93e	0.020222303
36	0xbbbc820c	-0.0057528075
37	0x3b8695a5	0.0041071945
38	0xbb920f3e	-0.0044573834
39	0x3d8bd208	0.0682717
40	0x3d631d2f	0.055447754
41	0xbca42b87	-0.020040287
42	0x3cf44613	0.02981857
43	0xbb7b1d27	-0.0038316937
44	0x3cf1edde	0.02953237
45	0x3dcb63d7	0.09931152
46	0xbd7afd45	-0.061276693
47	0x3cd90584	0.026491888
48	0xbc8cf252	-0.017205391
49	0xbdd26433	-0.10273018
50	0xbde6e3f6	-0.11273949
51	0xbcf6faa6	-0.030148815
52	0x3d908568	0.07056695
53	0xbdab054d	-0.083506204
54	0x3d062ca8	0.03275743
55	0x3d7127d6	0.05887588
56	0xbdaeab53	-0.08528771
57	0x3d283335	0.04106446
58	0x3c47e04b	0.012199472
59	0xbde31fc7	-0.110900454
60	0xbb808781	-0.0039224033
61	0xbddf0a89	-0.10890681
62	0x3dacac94	0.08431354
63	0x3cff5c8e	0.031172063
64	0x3c8ff3b8	0.017572269
65	0x3d9fba81	0.07799245
66	0x3d9f4230	0.07776296
67	0x3dd39764	0.1033161
68	0x3d2358fb	0.03987978
69	0xbdaebfd9	-0.08532686
70	0x3ddfdd29	0.10930855
71	0x3d2862c7	0.041109826
72	0xbcc07091	-0.023491176
73	0xbca88bec	-0.020574532
74	0x3dedd681	0.11613179
75	0x3c531538	0.012883477
76	0x3d874375	0.06604663
77	0xbbcf7aff	-0.006331801
78	0x3db00e41	0.08596469
79	0xbdc02022	-0.09381129
80	0x3d51116f	0.051042017
81	0x3d884bda	0.066550925
82	0x3bd650ae	0.0065403795
83	0x3d8dc5bf	0.06922483
84	0xbaa2fab5	-0.0012434336
85	0x3c7a1f7e	0.015266297
86	0x3da77c5b	0.08178016
87	0x3c8784c7	0.016542805
88	0x3c360bfe	0.011111258
89	0xbd922862	-0.07136609
90	0xbe02204e	-0.12707636
91	0xbde1d6ee	-0.11027323
92	0x3dcd4db4	0.10024586
93	0x3e130431	0.14357068
94	0xbd5034fc	-0.05083178
95	0xbd923780	-0.07139492
96	0x3dc93ee8	0.098264515
97	0xbd42b1b5	-0.047532756
98	0x3db45d35	0.0880684
99	0x3dc32fdf	0.09530615
100	0xbd9dcd05	-0.0770512
101	0xbdd1b495	-0.102395214
102	0x3d7c73be	0.061633818
103	0x3d48e8c2	0.0490501
104	0x3d8827b9	0.066482015
105	0x3cb08b5c	0.021550827
106	0x3cce86cf	0.025210766
107	0xbdc5e175	-0.09662143
108	0xbb75e5ff	-0.0037521122
109	0x3ca1dd61	0.019758882
110	0x3db569cf	0.08858072
111	0xbd02b3b4	-0.03190966
112	0xbd13ad64	-0.03605403
113	0xbdbb7106	-0.09152417
114	0xbdac5b0b	-0.084158026
115	0x3d2975c6	0.041372083
116	0x3ce4abf6	0.027914029
117	0x3d439baf	0.047755893
118	0xbc32b533	-0.010907459
119	0xbc9166d0	-0.01774922
120	0xbc9a4564	-0.018831916
121	0x3d885974	0.06657687
122	0xbd706d2b	-0.05869786
123	0x3c8526a4	0.016253777
124	0x3d20835a	0.039187767
125	0x3d70456a	0.05865995
126	0xbd618f95	-0.05506857
127	0x3d9db709	0.07700927
128	0xbcddd484	-0.027078874
129	0x3d9ec073	0.077515505
130	0x3d9cb51b	0.076517306
131	0x3b13750f	0.0022500192
132	0x3cb8bc3f	0.0225507
133	0xbddb4a71	-0.10707558
134	0xbd4fed97	-0.050763693
135	0xbd8ead21	-0.069666155
136	0xbdfc26a1	-0.123120554
137	0xbc4250e5	-0.011860107
138	0x3dceff75	0.10107318
139	0x3bb41a94	0.0054963324
140	0xbd1b8f70	-0.03797859
141	0xbe4eb76a	-0.20187154
142	0x3d1a443a	0.037662722
143	0x3e1b4933	0.15164642
144	0x3dde5299	0.10855598
145	0xbd3602f2	-0.044436403
146	0xbdd418fc	-0.10356328
147	0xbd3a0ac1	-0.045420412
148	0x3d9923bd	0.0747752
149	0x3b85cf47	0.0040835473
150	0x3e04f0dd	0.12982507
151	0xbd322825	-0.043495316
152	0xbd88a0bd	-0.066712834
153	0x3cfa7946	0.030575406
154	0x3cb57911	0.022152456
155	0xbdc5082c	-0.09620699
156	0x3db66570	0.089060664
157	0xbcd0eb9e	-0.025502976
158	0xbda0c0eb	-0.07849296
159	0x3ccfff9b	0.025390437
160	0xbd9bb226	-0.076023385
161	0xbd4c7f2e	-0.049925976
162	0xbd67b583	-0.056569587
163	0x3d1d18d5	0.03835376
164	0x3d9b16b0	0.07572687
165	0x3d847528	0.06467658
166	0xbd932a31	-0.07185782
167	0xbd1d66ce	-0.03842812
168	0x3dba0f35	0.09084932
169	0xbd96969a	-0.07352944
170	0xbba256fb	-0.0049542165
171	0xbce1c546	-0.027559888
172	0xbdd411ae	-0.10354935
173	0xbdca5e53	-0.09881272
174	0x3dac071a	0.08399792
175	0x3c96999a	0.01838379
176	0x3c71e394	0.0147637315
177	0x3d339120	0.043839574
178	0x3d8c666c	0.06855473
179	0x3da38a23	0.07985332
180	0x3dbe3628	0.09287673
181	0x3c864a82	0.01639295
182	0x3d76ca84	0.060251728
183	0x3d6342df	0.055483695
184	0xbc657d75	-0.014006962
185	0x3bd541de	0.006508096
186	0xbd5f5858	-0.05452761
187	0xbd9c1511	-0.076212056
188	0x3dd8c5fb	0.10584637
189	0xbda59c38	-0.08086437
190	0xbd9118fc	-0.070848435
191	0xbdcb3f28	-0.099241555
192	0xbd9b115d	-0.07571671
193	0x3d017063	0.03160132
194	0x3d77b8da	0.060479023
195	0xbdb81388	-0.089881
196	0x3bb34d22	0.0054718414
197	0xbda2701b	-0.07931539
198	0x3cdc07b9	0.026859151
199	0x3daa2b46	0.08309035
200	0xbd47556f	-0.04866546
201	0xbd947092	-0.072480336
202	0x3d5de110	0.054169714
203	0xbd93b917	-0.072130375
204	0x3979c236	0.0002381884
205	0xbdb1a0f7	-0.0867328
206	0x3da1b880	0.07896519
207	0x3cc66c50	0.02422157
208	0xbd49fdab	-0.049314182
209	0x3d7b350b	0.061329883
210	0x3dd5e87f	0.10444736
211	0x3d5c6e6a	0.053816237
212	0xbd8f9a0f	-0.07011806
213	0xbca913a2	-0.020639244
214	0x3dce3b04	0.1006985
215	0x3de0db14	0.10979286
216	0xbc37ed82	-0.01122606
217	0x3d8df767	0.06931954
218	0xbd96c5f0	-0.07361972
219	0xbb648694	-0.0034870254
220	0x3e11174d	0.14169045
221	0x3d0e76ff	0.034781452
222	0xbdda1fe7	-0.10650616
223	0xbb33ca2d	-0.0027433739
224	0x3d124091	0.035706107
225	0x3dabfc0c	0.083976835
226	0xbd89d835	-0.06730691
227	0xbc78eed5	-0.015193661
228	0xbb54a59e	-0.0032447348
229	0xbc8dfff2	-0.017333958
230	0xbd112f8a	-0.035445727
231	0xbd224f17	-0.039626207
232	0x3d1d43d5	0.038394768
233	0x3d38b41d	0.045093644
234	0xbd0f36ec	-0.034964487
235	0x3dbdbb3b	0.09264227
236	0xbcb8a3ba	-0.022539008
237	0x3ba6f098	0.005094599
238	0x3c053d08	0.008132227
239	0xbcf5bab3	-0.029996252
240	0xbbb064b3	-0.005383098
241	0xbcc8948e	-0.024484899
242	0x3d0a5566	0.03377285
243	0xbd7f4b42	-0.06232763
244	0xbd237c2f	-0.039913353
245	0xbdbdf466	-0.09275131
246	0xbd0cf519	-0.03441343
247	0x3d42e4e8	0.047581583
248	0x3dc66761	0.09687687
249	0xbdd0075f	-0.10157656
250	0x3c16cbdc	0.009203877
251	0x3e0bc563	0.13649516
252	0xbd632667	-0.055456545
253	0x3d427626	0.047475956
254	0x3a351dc3	0.0006909037
255	0xbdcaad21	-0.09896303

tcn.layers.1.conv2.bias f4 [16]
0	0x3b707089	0.003668817
1	0x3d979964	0.07402304
2	0x3cd3aa17	0.025837941
3	0x3ce80984	0.02832485
4	0xbae01dbd	-0.0017098706
5	0x3d91e9bf	0.07124662
6	0x3c07773d	0.008268175
7	0x3d3c11fc	0.04591559
8	0xbd8177f5	-0.06321708
9	0x3da652db	0.08121272
10	0x3d5a5f1a	0.053313352
11	0x3d35c09f	0.04437315
12	0x3cca79dd	0.024716312
13	0x3d99ab32	0.07503356
14	0x3dab4dd8	0.08364457
15	0x3b2ee9cd	0.002668965

tcn.layers.1.conv2.weight_g f4 [16, 1, 1]
0	0x3f0678ac	0.5252788
1	0x3f143c8e	0.579049
2	0x3f177cd7	0.59174865
3	0x3f05c521	0.5225392
4	0x3f4930fd	0.78590375
5	0x3f1a1f35	0.6020387
6	0x3f2d097c	0.67592597
7	0x3f2ee88a	0.68323576
8	0x3f2562cf	0.64603895
9	0x3f4a75e5	0.7908614
10	0x3f06aa06	0.52603185
11	0x3f1e078e	0.6173028
12	0x3f1a4854	0.60266614
13	0x3f194977	0.59877723
14	0x3f435c37	0.76312584
15	0x3f1618f2	0.58631814

tcn.layers.1.conv2.weight_v f4 [16, 16, 5]
0	0x3dbe1b81	0.0928259
1	0x3d97e549	0.074167795
2	0xbd86c2f9	-0.06580157
3	0xbd5a2987	-0.05326226
4	0xbcc88cc7	-0.02448119
5	0xbe4580a8	-0.1928736
6	0xbd4c77ef	-0.049919065
7	0xbcc74099	-0.024322795
8	0xbdeff442	-0.1171651
9	0x3d100bb5	0.035167415
10	0xbda5decf	-0.08099138
11	0x3daefde0	0.085445166
12	0x3d650429	0.05591217
13	0xbd3949be	-0.04523634
14	0x3db792a5	0.08963517
15	0xbda3dee7	-0.080014996
16	0x3da29840	0.07939196
17	0xbd2c8cd6	-0.0421265
18	0x3d3f29e5	0.046670813
19	0x3da6dbdc	0.081474036
20	0x3d0bff16	0.034178816
21	0x3c62d6cc	0.013845157
22	0xbca1c1e0	-0.019745767
23	0xbb8e2860	-0.004338309
24	0x3da4d3c4	0.080482036
25	0xbcfe1329	-0.031014996
26	0xbc3db2cd	-0.011578274
27	0x3c2d47eb	0.010576229
28	0xbd7868c8	-0.060646802
29	0xbd813603	-0.0630913
30	0x3c882519	0.016619252
31	0x3db5993f	0.0886712
32	0x3d14b41e	0.036304586
33	0xbd77b842	-0.060478456
34	0x3da448b2	0.08021678
35	0xbce40733	-0.027835464
36	0x3cc05ab4	0.02348075
37	0x3bbfd63c	0.005854396
38	0x3d2ac905	0.041695613
39	0xbc8aa0c5	-0.016922364
40	0xbd7c3b0c	-0.06157975
41	0xbd149e40	-0.03628373
42	0xbd2556fa	-0.04036615
43	0xbd5bd9cd	-0.053674508
44	0x3daff132	0.08590926
45	0xbd1807c6	-0.03711679
46	0x3b007096	0.0019598356
47	0xbd9e7e4d	-0.07738934
48	0xbc12c63c	-0.008958396
49	0xbc866d29	-0.016409473
50	0xbd6d105a	-0.057876922
51	0x3d4bf1cd	0.049791146
52	0xbda85965	-0.08220176
53	0x3cbfcd47	0.023413314
54	0xbc00a71c	-0.007852342
55	0xbd91c5f6	-0.07117836
56	0x3d9e1fd7	0.07720917
57	0x3d2d01ec	0.04223816
58	0x3c6dff77	0.01452624
59	0xbc6e5d47	-0.014548606
60	0x3d60e602	0.054906853
61	0xbd97d132	-0.07412948
62	0xbdf4e2cc	-0.119573206
63	0x3d3fd6d3	0.04683573
64	0xbd79ccf8	-0.06098649
65	0xbbcccc32	-0.006249928
66	0xbdeaa0bd	-0.1145644
67	0xbc8679dc	-0.016415529
68	0x3d31305d	0.043259013
69	0xbdd1ff5a	-0.102537826
70	0x3b738152	0.0037155938
71	0xbde731b6	-0.112887785
72	0x3d444ab1	0.047922794
73	0x3daf55c2	0.08561279
74	0xbd840f51	-0.06448234
75	0x3cd0f9b8	0.0255097
76	0x3b48a036	0.0030613071
77	0xbcd025f8	-0.02540873
78	0x3da0a538	0.07844013
79	0xbd0c078d	-0.03418689
80	0xbc8ec480	-0.017427683
81	0xbbc2cb3f	-0.005944639
82	0xbdc02de1	-0.09383751
83	0x3d334136	0.043763362
84	0x3d84774a	0.06468065
85	0xbe0245e9	-0.12721981
86	0xbc2bb071	-0.010479079
87	0xbda1618e	-0.07879935
88	0x3d4a2865	0.04935493
89	0xbde4035c	-0.11133453
90	0x3db0e6cd	0.08637772
91	0xbd60bf6e	-0.05487006
92	0x3d8b075a	0.067885116
93	0xbd8aad04	-0.06771281
94	0x3c1699f7	0.0091919815
95	0x3c5f97df	0.013647049
96	0x3d60e6f6	0.05490776
97	0x3d1a42e6	0.037661456
98	0x3d2c6ff3	0.04209895
99	0xbd22ad4e	-0.039716057
100	0xbd70d420	-0.05879605
101	0x3ce7d143	0.028298026
102	0x3dfac63c	0.122448415
103	0x3de8ce6e	0.11367498
104	0xbd3cfb90	-0.046138346
105	0x3d73cee4	0.05952348
106	0x3d2ac978	0.04169604
107	0xbca25ea1	-0.019820513
108	0x3d4d20c0	0.05008006
109	0xbcc29d13	-0.02375654
110	0x3c2c5a7a	0.010519618
111	0xbda0c34f	-0.07849752
112	0xbca8018b	-0.020508548
113	0x3dd2a3b4	0.1028513
114	0x3d817790	0.06321633
115	0xbdea29f2	-0.11433782
116	0xbcbc6149	-0.022995608
117	0x3d37ede9	0.044904623
118	0xbd641755	-0.055686314
119	0xbca55a68	-0.02018471
120	0x3d6186a7	0.055060055
121	0x3dc5a24f	0.096500985
122	0x3dc15f75	0.09442035
123	0xbda20764	-0.07911566
124	0xbdcd0739	-0.10011143
125	0x3d9bf35b	0.07614776
126	0xbc869186	-0.016426813
127	0x3dad9068	0.08474809
128	0x3da632ff	0.081151955
129	0xbd4fc86e	-0.050728254
130	0x3d4b8a69	0.049692545
131	0x3d5bd0ca	0.053665914
132	0xbc67de61	-0.01415214
133	0x3df0744b	0.11740931
134	0x3ce91a97	0.028455062
135	0xbcd8853d	-0.02643072
136	0xbdaf7ec2	-0.08569099
137	0x3dc6b157	0.09701794
138	0xbdc781e9	-0.09741575
139	0x3dd06795	0.10176007
140	0xbd800367	-0.06250649
141	0xbd3a79ad	-0.045526195
142	0xbcbf8c0e	-0.023382213
143	0x3d97cac6	0.07411723
144	0xbdcecba1	-0.10097433
145	0xbddadc34	-0.10686532
146	0x3d9a413a	0.07531972
147	0xbda84727	-0.08216696
148	0xbc8206f7	-0.015872462
149	0x3d4992be	0.04921221
150	0xbd481e87	-0.04885724
151	0x3d889f36	0.06670992
152	0xbd2b6728	-0.041846424
153	0x3db99922	0.09062411
154	0x3dfd6037	0.12371867
155	0xbbde622d	-0.006786606
156	0xbd6ee3ec	-0.058322832
157	0x3d11b51d	0.035573114
158	0x3c1d2f03	0.009593728
159	0xbbbbdb17	-0.0057329047
160	0x3dab6240	0.08368349
161	0xbce4ab0c	-0.027913593
162	0x3ce06550	0.02739206
163	0xbd3731a8	-0.04472509
164	0xbd415ea6	-0.047209404
165	0x3d0d22de	0.03445708
166	0x3b51886e	0.0031972188
167	0xbccb272b	-0.02479895
168	0x3ccbcdf3	0.024878478
169	0xbb06bd79	-0.0020559712
170	0xbd6e5eb2	-0.058195777
171	0x3dddec23	0.10836055
172	0x3d879d5c	0.06621811
173	0x3d39275e	0.04520356
174	0x3c032f16	0.008006832
175	0xbd7bf66d	-0.061514307
176	0xbd958c61	-0.07302166
177	0xbc0cbc7b	-0.008589859
178	0xbdcf768d	-0.10130034
179	0x3ca9e0ce	0.020737078
180	0xbd50b808	-0.050956756
181	0xbd86cec1	-0.06582404
182	0xbcdf718f	-0.027275829
183	0x3dadc243	0.08484318
184	0x3dde32df	0.10849547
185	0xbdd21e29	-0.10259659
186	0xbdba24cc	-0.0908905
187	0x3cf329d6	0.029683035
188	0xbd0efc01	-0.0349083
189	0xbdd945d3	-0.10609021
190	0x3d06b52a	0.032887615
191	0xbdc6155e	-0.09672044
192	0x3afa9fa5	0.0019121064
193	0x3d1ad6d1	0.03780252
194	0x3dc2fd17	0.09520929
195	0xbdc1166a	-0.09428103
196	0x3db15667	0.08659058
197	0x3b6a307c	0.0035734465
198	0x3dc38fee	0.09548937
199	0x3da99293	0.0827991
200	0xbc2978c9	-0.010343739
201	0xbc2dc1de	-0.010605304
202	0xbd1b58c6	-0.037926458
203	0x3d76f86b	0.060295504
204	0xbd8bfcd6	-0.06835334
205	0x3dd11f4c	0.102110475
206	0x3d930257	0.07178181
207	0x3dec14c2	0.11527397
208	0x3dc69080	0.0969553
209	0x3dc722bb	0.09723421
210	0xbd94ee79	-0.072720475
211	0xbd39f6bf	-0.04540133
212	0xbd8dc7e2	-0.0692289
213	0x3d5b2f52	0.053511925
214	0x3cd2b82a	0.025722582
215	0x3c9125f8	0.0177183
216	0x3c4f63d7	0.012658081
217	0xbca0842d	-0.019594276
218	0x3c977e8c	0.01849296
219	0xbd9f6491	-0.077828534
220	0x3df10e5e	0.117703184
221	0xbd2b3711	-0.041800562
222	0xbdaa7301	-0.083227165
223	0x3d67f1f5	0.056627233
224	0x3d1b2b15	0.037882883
225	0x3c4f0340	0.012635052
226	0x3e01602b	0.12634341
227	0xbd9eeb7c	-0.07759759
228	0xbd05cd54	-0.03266652
229	0xbd0f8eee	-0.035048418
230	0x3d80c02d	0.062866546
231	0xbd5f01e0	-0.054445148
232	0x3dc88777	0.09791463
233	0xbd897a2a	-0.06712754
234	0xbd47cb25	-0.048777718
235	0xbd23e8ce	-0.04001694
236	0xbdaa6c62	-0.08321454
237	0x3dc688d1	0.096940644
238	0xbdbf8da0	-0.09353185
239	0xbdcafe15	-0.099117436
240	0xbd1c333f	-0.03813481
241	0x3da7532d	0.081701614
242	0x3d63b5d4	0.055593327
243	0x3d0115ca	0.03151492
244	0xbd3d0418	-0.046146482
245	0xbcafdaff	-0.02146673
246	0xbb6d886c	-0.0036244644
247	0x3dbebbf7	0.09313195
248	0x3db91e7c	0.090390176
249	0x3e146138	0.14490211
250	0x3d9147b8	0.070937574
251	0x3c69e1fb	0.014275069
252	0xbdfb008d	-0.122559644
253	0x3c92c2b5	0.01791511
254	0xbdbcea1f	-0.092243426
255	0x3c377486	0.011197215

tcn.layers.2.conv1.bias f4 [16]
0	0xbd54a6a9	-0.051916752
1	0x3d0a2a4c	0.033731744
2	0x3dc92bf5	0.09822837
3	0x3cd4c94f	0.025974898
4	0xbd0886d3	-0.033331703
5	0xbda56fc0	-0.08077955
6	0x3d8b5e5c	0.06805107
7	0xbd6fe934	-0.05857201
8	0xbdafc7ab	-0.085830055
9	0x3da8149e	0.082070574
10	0x3c292fd3	0.010326344
11	0xbcc82f5a	-0.024436641
12	0xbdc18d91	-0.0945083
13	0xbc8f52b6	-0.017495494
14	0xbd5a49fc	-0.053293213
15	0xbbf651e8	-0.007517088

tcn.layers.2.conv1.weight_g f4 [16, 1, 1]
0	0x3f2dc95b	0.6788537
1	0x3f1cac52	0.6120044
2	0x3f19cbd1	0.60076624
3	0x3f71a2b8	0.94388914
4	0x3f6ebfba	0.932613
5	0x3f1f8526	0.62312543
6	0x3f36d5a1	0.7141972
7	0x3f76edc4	0.9645655
8	0x3f112d1e	0.5670947
9	0x3f105359	0.5637718
10	0x3f030ada	0.51188433
11	0x3f10ee7b	0.5661389
12	0x3f126e38	0.5719943
13	0x3f4018d0	0.7503786
14	0x3f1796f6	0.59214723
15	0x3f64f5d0	0.8943758

tcn.layers.2.conv1.weight_v f4 [16, 16, 5]
0	0x3dc4827e	0.09595202
1	0xbde16361	-0.11005283
2	0xbcc42010	-0.02394107
3	0xbdb4bbcb	-0.08824881
4	0x3c9fe883	0.01952005
5	0x3d067743	0.03282858
6	0x3d62d694	0.05538042
7	0xbc8fa9af	-0.017536966
8	0x3d88531c	0.06656477
9	0xbce8483a	-0.028354753
10	0xbcf08944	-0.029362328
11	0x3dbc08b8	0.091813505
12	0xbdb3e510	-0.087839246
13	0x3ce41897	0.027843757
14	0xbda6155b	-0.08109542
15	0x3d1489c4	0.036264196
16	0xbdd171ce	-0.10226785
17	0xbde72a60	-0.11287379
18	0xbd204e83	-0.039137375
19	0x3da428e9	0.080156155
20	0x3d380a8d	0.044931937
21	0x3dd2507f	0.1026926
22	0xbd4c40a1	-0.049866322
23	0x3d631859	0.05544314
24	0xbd809c0a	-0.06279762
25	0xbc8df43f	-0.01732838
26	0xbdd8f694	-0.10593906
27	0x3b849cf4	0.0040470306
28	0x3cddbd68	0.027067855
29	0xbdd13661	-0.1021545
30	0x3da3045f	0.07959818
31	0x3b1bb8c8	0.0023761261
32	0x3dbb5051	0.091461785
33	0xbd478c07	-0.048717525
34	0xbc12777c	-0.00893962
35	0xbd1bfc8c	-0.038082644
36	0x3da2d890	0.07951462
37	0xbda85ddc	-0.08221027
38	0x3d340067	0.043945696
39	0xbdc337f7	-0.09532159
40	0x3da4b1c3	0.08041718
41	0xbdd59ecc	-0.10430679
42	0xbd951fbd	-0.07281444
43	0xbd95c2e3	-0.07312562
44	0xbd073fc9	-0.033019815
45	0x3bc8aebd	0.006124346
46	0x3d5d93e9	0.054096136
47	0x3df55f00	0.119810104
48	0x3dbf6808	0.09346014
49	0xbd3e1cc2	-0.046414144
50	0x3dc363df	0.09540533
51	0xbcbf678b	-0.023364803
52	0xbd9189a4	-0.07106331
53	0x3cc7590b	0.024334451
54	0xbd1c060f	-0.038091715
55	0x3dc0953f	0.094034664
56	0x3ccda85e	0.025104698
57	0x3d7a5534	0.061116412
58	0x3c83051c	0.015993647
59	0xbdab660d	-0.08369074
60	0x3ccc97db	0.024974754
61	0xbd08a796	-0.033362947
62	0xbc5d389c	-0.013502266
63	0xbc56fe01	-0.013122083
64	0xbd81c7c0	-0.063369274
65	0x3d03b440	0.03215432
66	0x3d8dab87	0.06917482
67	0xbdf6006b	-0.120117985
68	0x3d2f665e	0.042822234
69	0xbdd2c5ce	-0.102916345
70	0xbdd84ea7	-0.10561877
71	0x3d0382f4	0.03210731
72	0x3c67c285	0.014145498
73	0xbd1d343f	-0.038379904
74	0x3de24842	0.11048938
75	0x3a90ad0d	0.0011037901
76	0xbd89bf39	-0.06725926
77	0x3d36e052	0.044647522
78	0x3a06ad24	0.00051374943
79	0xbcc7632b	-0.02433928
80	0xbd8da6c3	-0.06916573
81	0xba443801	-0.0007485152
82	0x3d88d9ba	0.06682153
83	0xbd463086	-0.04838612
84	0x3d47c6a2	0.048773415
85	0xbdacfff2	-0.08447255
86	0xbc92d23e	-0.017922517
87	0xbc513203	-0.012768271
88	0xbda84f46	-0.08218245
89	0x3d56e0f6	0.052460633
90	0xbd96c6d4	-0.07362142
91	0x3d75dd3c	0.06002544
92	0x3c4b5bc3	0.012412014
93	0xbc0187b8	-0.007905893
94	0xbd7b506d	-0.061355997
95	0xbd2e26fa	-0.04251764
96	0x3caecfed	0.021339381
97	0x3dcb3d78	0.099238336
98	0xbd73935c	-0.059466705
99	0xbda814b5	-0.082070746
100	0xbd261a1e	-0.04055225
101	0xbdaf1dd3	-0.085506104
102	0xbd0c9c03	-0.034328472
103	0xbdabbf83	-0.08386137
104	0x3d99487e	0.0748453
105	0x3d56797c	0.05236195
106	0xbdae9d21	-0.08526064
107	0x3da17ce2	0.07885148
108	0x3b93d259	0.0045111594
109	0xbdbf83be	-0.093513
110	0xbc5608fb	-0.013063665
111	0xbe132ae0	-0.14371824
112	0xbdc0a394	-0.094062
113	0xbdcbc928	-0.09950477
114	0xbdcd4e93	-0.100247525
115	0xbcf43a01	-0.029812815
116	0x3c8f6c24	0.01750762
117	0x3c37452d	0.011185926
118	0xbdecbf8e	-0.11559974
119	0xbdec4f82	-0.115386024
120	0xbc851699	-0.016246127
121	0x3db5bb02	0.088735595
122	0x3d049d9f	0.03237688
123	0x3dc02020	0.09381127
124	0xbd6d4189	-0.057923827
125	0x3cc440d8	0.023956701
126	0xbdaf7c8c	-0.08568677
127	0x3d5f071e	0.054450147
128	0xbc2a4805	-0.010393147
129	0xbc8e43d5	-0.01736633
130	0xbdaf509b	-0.08560296
131	0xbdf6179b	-0.12016221
132	0xbd887b07	-0.066640906
133	0xbcd6ed09	-0.026236074
134	0xbd99d788	-0.075118124
135	0x3d4615cf	0.048360642
136	0xbca86917	-0.020557923
137	0x3beb6cbd	0.0071845935
138	0xbde36907	-0.11104017
139	0x3cc0e0e0	0.023544729
140	0xbd1e1e31	-0.03860301
141	0xbd965ccb	-0.073419176
142	0xbd185d74	-0.0371985
143	0xbdb82488	-0.08991343
144	0xbd90ff5a	-0.070799544
145	0x3d9923b1	0.07477511
146	0x3da7943e	0.08182572
147	0xbdab1b27	-0.08354788
148	0x3c813a52	0.01577488
149	0xbd84d119	-0.06485195
150	0x3dae18fb	0.085008584
151	0x3d956234	0.072941214
152	0x3d6935e0	0.056936145
153	0xbda30afa	-0.07961078
154	0xbd4c25ab	-0.04984061
155	0xbcd2d5ae	-0.025736656
156	0xbdd22e7e	-0.10262774
157	0xbd92e22a	-0.071720436
158	0x3cbc7a4d	0.023007536
159	0xbdbde564	-0.092722684
160	0x3d06b80a	0.032890357
161	0x3ba290f0	0.0049611256
162	0xbc2195b3	-0.009862351
163	0xbd0ad5cf	-0.03389531
164	0xbd537728	-0.051627308
165	0xbd9f59e7	-0.077808194
166	0xbd300be2	-0.042980082
167	0x3dde1f7e	0.108458504
168	0x3c443e26	0.011977708
169	0x3dd5feaf	0.10448968
170	0xbb6b6cf8	-0.0035923105
171	0xbd081730	-0.03322524
172	0x3d35f414	0.044422224
173	0xbdf1a876	-0.117997095
174	0xbdb92b84	-0.09041503
175	0x3d63c9d6	0.055612408
176	0xbd0ca927	-0.034341004
177	0x3da356af	0.07975518
178	0xbc89a7bd	-0.016803617
179	0x3d9543e3	0.07288339
180	0xbc294feb	-0.010333995
181	0xbad65f1f	-0.0016355253
182	0xbdf0c22f	-0.117557876
183	0xbd6a604f	-0.057220753
184	0xbc04710e	-0.008083595
185	0x3d1a6f71	0.037703935
186	0x3b319df3	0.0027102202
187	0xbd2a9743	-0.04164816
188	0xbbcca97b	-0.0062457896
189	0x3dcc6c85	0.09981636
190	0x3d4ae0d8	0.049530834
191	0x3c89b633	0.016810512
192	0xbdc0bfa6	-0.09411554
193	0xbcfad903	-0.030621057
194	0x3dc9219f	0.09820866
195	0x3db5681a	0.088577464
196	0xbd796c08	-0.060894042
197	0x3d1b7d5f	0.03796136
198	0xbd076f88	-0.03306535
199	0x3d82eb9c	0.06392595
200	0xbcf3a8c0	-0.029743552
201	0xbdb7ec33	-0.08980598
202	0xbdf2053d	-0.118174054
203	0xbc631963	-0.013861033
204	0x3cd570eb	0.02605482
205	0xbd319746	-0.043357156
206	0x3d914f25	0.07095174
207	0x3d275e91	0.04086167
208	0x3d6fcd1c	0.058545217
209	0x3cdde535	0.027086833
210	0xbdef6de6	-0.11690883
211	0xbd1e7bbe	-0.03869223
212	0x3d0c0812	0.034187384
213	0x3d1288f0	0.035775125
214	0xbdd5ea32	-0.1044506
215	0xbd88396d	-0.06651578
216	0x3d8973fb	0.06711575
217	0xbdb754c1	-0.089517124
218	0x3d8f9027	0.07009917
219	0xbd1a05c4	-0.037603155
220	0x3c35fbae	0.011107368
221	0x3d1ca273	0.03824086
222	0x3cae8305	0.02130271
223	0xbd87593f	-0.06608819
224	0x3d094573	0.033513498
225	0xbddd31fe	-0.10800551
226	0xbd873a26	-0.06602888
227	0xbcd3ec91	-0.02586964
228	0xbce657cf	-0.028118042
229	0x3d9a1f12	0.075254574
230	0xbd2bf89c	-0.04198514
231	0x3df6525b	0.12027427
232	0x3da1d260	0.07901454
233	0x3d7042ec	0.05865757
234	0x3dd95b39	0.106131025
235	0xbdafabba	-0.08577676
236	0xbdda8779	-0.106703706
237	0xbc29716c	-0.010341983
238	0x3d29f1a2	0.041490205
239	0x3d1e8251	0.0386985
240	0xbcf86241	-0.030320289
241	0x3c6aa90d	0.014322531
242	0x3d3dbd49	0.046323095
243	0x3db4aa7d	0.088215806
244	0x3cafba81	0.021451237
245	0xbc568cac	-0.013095062
246	0xb90cff84	-0.00013446627
247	0xbd83d0d1	-0.06436313
248	0x3be89e1b	0.0070989258
249	0x3d6836a0	0.05669272
250	0xbd0cd3fb	-0.034381848
251	0xbc3b205a	-0.011421287
252	0xbd4ae466	-0.049534224
253	0x3dbbbfcf	0.09167444
254	0x3d2dc6f9	0.042426083
255	0xbbdec1dc	-0.006798012

tcn.layers.2.conv2.bias f4 [16]
0	0xbce6f999	-0.02819519
1	0xbcc3f6e8	-0.023921445
2	0x3d1c0f38	0.03810045
3	0xbd61c18a	-0.055116214
4	0xbc826e5c	-0.015921764
5	0xbdb62609	-0.088939734
6	0xbc556a1f	-0.0130257895
7	0xbddeb34e	-0.108740434
8	0x3ce15297	0.027505202
9	0xbd91f8e8	-0.07127553
10	0xbcfcaa3b	-0.030842891
11	0xbdb8038d	-0.08985052
12	0x3dc555dd	0.09635518
13	0xbcc855bf	-0.02445495
14	0x3dcbe2c9	0.09955365
15	0xbd8a9afe	-0.06767844
