model_save/down_beat_tracker_0.0484.pt (torch, 154186 bytes, 71 tensors)

frontend.conv1.0.weight f4 [16, 1, 3, 3]
0.3591228 0.47698268 0.08865577 0.34883893 0.046741996 0.1432375 0.04653942 0.43850014
0.47571644 -0.10827922 0.63202345 0.41624033 0.1919397 0.1697556 0.26553074 0.15238462
0.5257248 0.23753874 -0.12931699 0.1084494 -0.117537364 -0.007595337 -0.110902615 0.25154734
-0.25375882 -0.14297813 -0.07127165 -0.22713275 0.012528153 -0.34167278 0.30713668 -0.27619836
0.26386333 0.05031881 -0.12425415 0.18335626 0.16436572 0.45750546 0.22092533 -0.0806857
0.17138264 -0.022731343 0.3603212 0.53760767 0.39258847 -0.12344083 0.21070422 0.0930742
0.12546265 -0.23496531 -0.34373572 -0.10583885 -0.23774448 0.28973484 0.29791936 0.31072536
0.23970625 0.14998123 0.3693221 -0.1795931 0.12767951 -0.16713724 0.08080315 -0.14438218
0.068815865 -0.106242985 0.24840045 -0.21229897 -0.20661844 -0.12040195 0.3612583 0.17705692
0.32120305 -0.25808448 -0.3076833 -0.2668226 -0.24336804 0.10244625 0.15615062 0.30283785
-0.13525072 -0.22230263 0.18210223 -0.11317641 0.24645737 -0.042114697 0.23125133 -0.25986996
-0.16940747 0.10563041 0.14535363 -0.04382925 0.20924199 0.18820879 -0.27098358 -0.21367179
0.3147441 -0.092901334 -0.09230915 -0.2972221 -0.1735173 0.101640426 -0.021319585 -0.22313535
0.029769856 -0.21163182 -0.26931682 -0.16562457 -0.30017933 -0.22027448 0.3280124 0.05730838
0.103129394 -0.3008563 -0.22801048 -0.11518653 0.054834045 -0.28199065 -0.13395688 -0.19065885
0.010951973 -0.11514847 -0.015185399 -0.21780701 -0.22254245 -0.1890851 -0.2098844 -0.23997685
0.44634432 -0.27219978 0.2049468 0.10380731 -0.28077635 0.30441773 0.0034439284 -0.125725
-0.28226534 -0.34878218 0.12475099 -0.052626226 0.14136639 -0.24935988 0.25763118 -0.23502094
00000000: f2de b73e 1337 f43e 2891 b53d 049b b23e
00000010: 8974 3f3d daac 123e 1ea0 3e3d 1783 e03e
00000020: 1b91 f33e 7fc1 ddbd 4acc 213f 741d d53e
00000030: d78b 443e 69d4 2d3e a5f3 873e b70a 1c3e
00000040: e795 063f 5b3d 733e ac6b 04be b81a de3d
00000050: 6eb7 f0bd 4ee2 f8bb e920 e3bd d0ca 803e
00000060: adec 81be dc68 12be dff6 91bd 7d95 68be
00000070: e242 4d3c bcef aebe 0541 9d3e df69 8dbe
00000080: 1819 873e 191b 4e3d f678 febd bec1 3b3e
00000090: 7d4f 283e 283e ea3e 403a 623e 8b3e a5bd
000000a0: ee7e 2f3e 1537 babc 057c b83e a8a0 093f
000000b0: 5b01 c93e 8cce fcbd d9c2 573e b09d be3d
000000c0: 4879 003e bf9a 70be 21fe afbe 0ac2 d8bd
000000d0: 4a73 73be 2058 943e e388 983e 6517 9f3e
000000e0: 8e75 753e ae94 193e c917 bd3e 41e7 37be
000000f0: 6bbe 023e 0626 2bbe 1f7c a53d ecd8 13be
00000100: 55ef 8c3d ec95 d9bd b05c 7e3e e764 59be
00000110: c993 53be 4c95 f6bd d9f6 b83e 694e 353e
00000120: ba74 a43e a623 84be aa88 9dbe f99c 88be
00000130: 7935 79be 57cf d13d f3e5 1f3e 900d 9b3e
00000140: 2a7f 0abe 4da3 63be 0279 3a3e 09c9 e7bd
00000150: 525f 7c3e 7680 2cbd 26cd 6c3e ad0d 85be
00000160: 2779 2dbe c254 d83d 95d7 143e 4d86 33bd
00000170: 8843 563e ceb9 403e 5cbe 8abe c7cc 5abe
00000180: 2426 a13e 0e43 bebd 940c bdbd 7f2d 98be
00000190: 85ae 31be db28 d03d 69a6 aebc 987d 64be
000001a0: eadf f33c 03b6 58be e5e3 89be 7d99 29be
000001b0: 1bb1 99be a28f 61be 3ef1 a73e 31bc 6a3d
000001c0: 8135 d33d d609 9abe 947b 69be eae6 ebbd
000001d0: aa99 603d 1461 90be fe2b 09be 133c 43be
000001e0: e76f 333c f6d2 ebbd 2ecc 78bc cd08 5fbe
000001f0: 2be2 63be 869f 41be f0eb 56be 7ebc 75be
00000200: 3e87 e43e c55d 8bbe 93dd 513e ed98 d43d
00000210: ebc1 8fbe a4dc 9b3e 88b3 613b 0ebe 00be
00000220: 1585 90be 9493 b2be 727d ff3d 998e 57bd
00000230: 5ac2 103e 3258 7fbe 3ce8 833e 54a9 70be

frontend.conv1.0.bias f4 [16]
-0.2140311 -0.06815136 0.18719742 0.33823276 0.35817334 -0.24501313 0.203408 -0.100900024
-0.009773796 -0.1924341 0.35171875 -0.24791859 0.19643866 0.12097211 0.07793264 -0.20290823
00000000: f82a 5bbe f192 8bbd aeb0 3f3e d82c ad3e
00000010: 7f62 b73e b9e4 7abe 304a 503e aca4 cebd
00000020: 4622 20bc 720d 45be 7b14 b43e 5fde 7dbe
00000030: 3727 493e 3ac0 f73d 269b 9f3d 2dc7 4fbe

frontend.conv2.0.weight f4 [16, 16, 3, 3]
0.01109567 -0.004630981 0.07291879 -0.14626996 -0.010043591 0.036457144 0.011118078 0.11133735
0.07964138 -0.084336825 -0.040928762 0.106092446 -0.0723088 -0.040221628 0.07532742 0.03343496
0.030870428 0.13919212 0.06863985 -0.07829187 -0.0020772933 0.05965399 0.023514107 -0.043246776
0.06131404 0.053876486 0.02420252 -0.022287605 -0.051560115 -0.06359025 -0.00810974 -0.055227682
-0.025421077 0.08644093 -0.030593492 -0.08810341 -0.08514235 -0.055916104 0.08254269 -0.123646505
-0.12914869 0.046989925 0.08631168 0.080730304 0.09138315 -0.021340268 -0.044318598 -0.11202243
0.0070277713 0.027284749 0.0062782285 0.07542262 -0.05470431 -0.06024123 -0.10913478 -0.054771144
-0.051048167 -0.15482289 -0.075947545 -0.027448865 -0.07683664 0.023682125 -0.014469441 -0.024872825
-0.13221535 0.020076994 -0.055189405 -0.16501316 -0.25028473 0.12258552 0.039441217 0.104625784
0.057051618 0.047675878 -0.011467833 0.042110953 -0.027962804 -0.13264811 -0.013470223 -0.05507068
0.020067187 -0.0068678763 0.024321549 -0.041795176 0.046328157 0.009437258 -0.018917331 0.075118855
0.01232207 0.048458572 -0.022211822 -0.13756587 -0.15703708 -0.06401682 -0.13329333 -0.24298266
0.043234803 -0.11187371 -0.028715279 0.052851554 0.063118234 -0.08774915 0.08367401 -0.031053834
0.007141083 0.11122777 0.00943398 -0.00094123755 -0.0073914547 -0.056972455 0.0348667 -0.05699019
0.070926085 0.058156084 0.10872338 0.007652268 -0.056385595 0.02661318 0.03746817 -0.11640957
-0.0012790891 -0.05366825 -0.04157492 -0.015511851 -0.02412561 -0.035977952 -0.05453774 0.24604309
0.36748496 0.07873987 0.28546232 0.38470694 0.0205117 0.14261761 0.28813788 -0.038484853
-0.072435826 -0.054646414 -0.0039491155 -0.03587102 -0.041411426 0.0044792695 -0.02968202 -0.06411577
-0.058434986 0.12427998 0.035928786 0.022239469 -0.003459231 0.036920607 0.09910829 0.05494385
-0.047504738 0.0630626 0.14481843 0.103401445 0.060566533 0.097054034 0.0066639306 0.035572145
-0.043435503 -0.011420348 0.051429443 0.027470786 -0.07005632 -0.08189271 -0.074198835 -0.09921215
-0.079316884 -0.036796715 0.04049586 -0.015670149 -0.091825746 -0.09047996 0.021364812 -0.08251124
-0.030228497 0.013710157 -0.0628688 -0.0310001 -0.021523928 -0.0049695224 -0.015223506 -0.08367655
-0.069515266 -0.047252633 0.077843666 -0.047414705 -0.07023275 0.0030425217 -0.00012887275 0.022354718
0.04097711 0.023236902 -0.10162861 -0.012717725 0.029447984 -0.024091145 -0.07627853 0.08082163
-0.012039447 -0.06702604 -0.07561041 0.0076691657 0.04301316 0.019384298 0.008742398 -0.08533931
-0.04865468 0.0717109 0.08085796 0.04888187 -0.039178662 -0.015320061 -0.063200004 -0.034706786
-0.0047218963 0.023697296 0.048994016 -0.08954198 0.040720798 -0.0718787 0.006897761 0.048138913
-0.01694994 0.068681106 -0.096290275 -0.07652703 0.019256731 -0.058175392 -0.060150307 -0.060425177
0.009931726 -0.00522725 -0.009919296 -0.0738675 -0.07957391 -0.012784736 0.008474671 -0.049537517
-0.037065826 0.04397268 -0.003855778 -0.0073296 -0.034387153 -0.08956892 -0.09116672 -0.054588154
-0.056694467 0.011629992 -0.039264947 -0.046164002 0.071178444 0.014978086 0.042309456 -0.04954665
00000000: 9dca 353c 7cbf 97bb 7256 953d cbc7 15be
00000010: e08d 24bc 1654 153d 9928 363c d604 e43d
00000020: 051b a33d c9b8 acbd eba4 27bd ff46 d93d
00000030: a316 94bd 6fbf 24bd 4345 9a3d 19f3 083d
00000040: fbe3 fc3c 6188 0e3e 0d93 8c3d 7d57 a0bd
00000050: 3323 08bb be57 743d a8a0 c03c 8823 31bd
00000060: 6e24 7b3d 97ad 5c3d 5d44 c63c 7f94 b6bc
00000070: b330 53bd 9b3b 82bd b7de 04bc 6c36 62bd
00000080: dd3f d0bc f107 b13d 349f fabc 906f b4bd
00000090: 1d5f aebd 4908 65bd 240c a93d 613a fdbd
000000a0: 8e3f 04be 8278 403d 2ec4 b03d ee55 a53d
000000b0: 1727 bb3d c9d1 aebc 6b87 35bd 046c e5bd
000000c0: 3849 e63b 4484 df3c 99b9 cd3b 2d77 9a3d
000000d0: a011 60bd 82bf 76bd 0e82 dfbd b557 60bd
000000e0: e217 51bd e489 1ebe 638a 9bbd 71dc e0bc
000000f0: 875c 9dbd 0401 c23c 3c11 6dbc 18c2 cbbc
00000100: 7663 07be 8278 a43c 490e 62bd 36f9 28be
00000110: 5225 80be 1e0e fb3d 1d8d 213d 0b46 d63d
00000120: f5ae 693d c847 433d 94e3 3bbc 897c 2c3d
00000130: 4012 e5bc e8d4 07be 36b2 5cbc cb91 61bd
00000140: f163 a43c ec0b e1bb fc3d c73c 6b31 2bbd
00000150: 98c2 3d3d bb9e 1a3c 85f8 9abc ead7 993d
00000160: 82e2 493c 7f7c 463d 91f5 b5bc 11de 0cbe
00000170: 54ce 20be 401b 83bd 0c7e 08be 72d0 78be
00000180: fa16 313d 0b1e e5bd 4e3c ebbc df7a 583d
00000190: 2244 813d d4b5 b3bd 485d ab3d 9c64 febc
000001a0: bfff e93b 63cb e33d fb90 1a3c 62bd 76ba
000001b0: 0434 f2bb f35b 69bd 63d0 0e3d 8c6e 69bd
000001c0: b241 913d 1335 6e3d 5daa de3d e0bf fa3b
000001d0: 95f4 66bd e203 da3c 3978 193d 2468 eebd
000001e0: 1ca7 a7ba 3dd3 5bbd 774a 2abd 6b25 7ebc
000001f0: 12a3 c5bc 9e5d 13bd f762 5fbd b8f2 7b3e
00000200: fd26 bc3e 5e42 a13d 1e28 923e 4ff8 c43e
00000210: 2708 a83c 5a0a 123e cf86 933e 4ba2 1dbd
00000220: 3c59 94bd ebd4 5fbd 9567 81bb 7eed 12bd
00000230: 079f 29bd d6c6 923b b527 f3bc 214f 83bd
00000240: 8659 6fbd 8186 fe3d 102a 133d 8c2f b63c
00000250: 44b4 62bb 103a 173d 4af9 ca3d cd0c 613d
00000260: 5494 42bd f726 813d 484b 143e 23c4 d33d
00000270: 9d14 783d 44c4 c63d 1a5d da3b 19b4 113d
00000280: 6de9 31bd 691c 3bbc aea7 523d 6a0a e13c
00000290: b079 8fbd 5db7 a7bd 8ff5 97bd bd2f cbbd
000002a0: e470 a2bd 27b8 16bd fdde 253d af5e 80bc
000002b0: 230f bcbd 8f4d b9bd 4205 af3c a7fb a8bd
000002c0: c1a1 f7bc 91a0 603c 5bc1 80bd ecf3 fdbc
000002d0: f352 b0bc 60d7 a2bb 036c 79bc 9c5e abbd
000002e0: 055e 8ebd fa8b 41bd 806c 9f3d ec35 42bd
000002f0: 30d6 8fbd 0b65 473b 0422 07b9 3e21 b73c
00000300: 9dd7 273d 515b be3c a922 d0bd 015e 50bc
00000310: e63c f13c cb5a c5bc eb37 9cbd d085 a53d
00000320: 1a41 45bc f344 89bd a1d9 9abd a04d fb3b
00000330: 912e 303d d2cb 9e3c 463c 0f3c 60c6 aebd
00000340: 214a 47bd 2add 923d dc98 a53d 5b38 483d
00000350: ce79 20bd fe00 7bbc 016f 81bd b428 0ebd
00000360: 23ba 9abb d520 c23c f3ad 483d c961 b7bd
00000370: daca 263d 2435 93bd 9d06 e23b 4f2d 453d
00000380: 9ada 8abc aea8 8c3d d633 c5bd 34ba 9cbd
00000390: 4bc0 9d3c 5249 6ebd 2b60 76bd 6480 77bd
000003a0: aeb8 223c 5a49 abbb 8b84 22bc d847 97bd
000003b0: a5f7 a2bd 1277 51bc 59d9 0a3c dae7 4abd
000003c0: 56d2 17bd b21c 343d 38b1 7cbb 242d f0bb
000003d0: 8bd9 0cbd e96f b7bd 9eb5 babd d497 5fbd
000003e0: 7538 68bd b98b 3e3c 48d4 20bd 7716 3dbd
000003f0: 01c6 913d a566 753c ae4c 2d3d 6ef1 4abd

frontend.conv2.0.bias f4 [16]
-0.0045199106 -0.04994777 -0.009520371 -0.05000419 0.015829764 -0.071628295 -0.025479717 -0.071407236
-0.039912112 0.04166734 -0.056434527 -0.08640278 0.00064441684 0.058253683 -0.005261217 -0.09072544
00000000: c21b 94bb 0896 4cbd 55fb 1bbc 32d1 4cbd
00000010: 6cad 813c dbb1 92bd d7ba d0bc f53d 92bd
00000020: e27a 23bd 5fab 2a3d e427 67bd f1f3 b0bd
00000030: 15ee 283a 6a9b 6e3d 4966 acbb 42ce b9bd

tcn.layers.0.conv1.bias f4 [16]
-0.056557536 -0.1366216 0.011386212 0.05998036 0.083265774 -0.0013550591 0.09132235 -0.091257766
0.09471123 -0.042397387 -0.09059922 0.071146935 0.012381552 0.054960508 -0.060652655 0.07946999
00000000: e0a8 67bd 88e6 0bbe 3c8d 3a3c f7ad 753d
00000010: 3f87 aa3d 3d9c b1ba 3607 bb3d 5ae5 babd
00000020: f6f7 c13d e2a8 2dbd 158c b9bd 7cb5 913d
00000030: fedb 4a3c 451e 613d eb6e 78bd 2ac1 a23d

tcn.layers.0.conv1.weight_g f4 [16, 1, 1]
0.6220323 0.72636545 0.5714179 0.61043245 0.6102946 0.5598023 0.926956 0.7328721
0.7490001 0.63125217 0.5225097 0.5615513 0.9327116 0.61314934 0.54723614 0.60339564
00000000: 823d 1f3f 16f3 393f 7248 123f 4d45 1c3f
00000010: 443c 1c3f 344f 0f3f fd4c 6d3f 829d 3b3f
00000020: 78be 3f3f be99 213f 32c3 053f d3c1 0f3f
00000030: 30c6 6e3f 5bf7 1c3f ab17 0c3f 2378 1a3f

tcn.layers.0.conv1.weight_v f4 [16, 16, 5]
-0.07653668 -0.06800522 0.021576313 -0.07115281 -0.061482705 -0.050748754 -0.029701902 0.05559985
0.06967851 0.004830505 -0.006281504 0.07924774 -0.021123413 -0.054446027 -0.09763034 -0.012042598
0.05359027 0.04125951 0.08142155 -0.0016433833 0.09003393 -0.04126984 -0.050516468 -0.032851364
-0.10817032 -0.06053377 -0.08793307 0.010315327 0.015487924 -0.0014958119 -0.05421504 0.11019834
-0.0017836464 0.06792949 0.112301596 -0.087564856 -0.036666613 0.038044285 0.07870037 -0.038121566
0.07695704 -0.08449897 -0.072120965 0.08561745 -0.01512733 0.13062821 0.020792104 -0.037400607
0.09023135 0.08596466 0.015896762 -0.059066683 0.01114455 -0.045193534 0.09692588 0.02198938
0.017442834 0.048637766 0.013276338 -0.117173135 0.10956762 0.08091278 -0.060395643 0.077753134
0.0065729558 -0.017065976 -0.07397133 -0.016397523 -0.10584268 0.057262234 0.08015992 -0.02944825
0.09814314 -0.046735328 0.022265136 -0.06956368 -0.011644629 0.031093504 0.031675454 -0.025120456
-0.0035121124 0.11835069 0.110388905 0.06747832 -0.0026551064 0.050590295 0.042239603 0.11215668
0.07736372 0.07424085 0.003853177 -0.021835968 -0.016460575 0.08788796 0.06336473 -0.08651855
-0.00809468 -0.09115015 -0.07780057 0.020053608 -0.036250494 -0.074470684 0.013994962 -0.10373718
-0.10435656 0.024521518 0.04748274 0.04146 0.089086205 -0.016797975 -0.05717629 0.0059470222
0.07574186 -0.010876834 0.03668592 0.022596166 0.09189101 0.079231836 0.09920305 0.020947035
-0.08159523 -0.042168286 0.036082126 0.08100412 -0.023499953 0.101850264 0.04443247 0.038004898
0.0072775753 0.01628074 0.07108493 -0.024166668 0.03983976 -0.12693417 -0.0820927 0.04027387
0.07562696 0.05551935 0.040200714 -0.06873248 -0.026007678 -0.091376625 -0.10617047 -0.024951424
-0.07725977 0.0732119 -0.06468728 0.024276221 0.053983357 -0.0757269 0.063601755 0.023355218
0.07848624 0.10469211 -0.008997585 -0.06959048 0.027149165 -0.026999783 -0.028390216 0.04802707
-0.08436567 -0.027663242 0.071484834 0.048964188 -0.07009023 0.03616979 -0.08803934 -0.06552853
0.07077469 -0.027423972 -0.027439516 -0.043618966 0.0009652843 -0.08441379 -0.014825835 -0.105123736
0.032773547 -0.066461176 0.017091611 -0.014602766 -0.070294835 -0.042545136 -0.090816505 -0.05662926
0.0055540255 -0.11072774 -0.08880862 0.12243379 0.032180894 -0.04403535 -0.01624137 0.091170974
-0.076254964 -0.049323063 -0.074317835 -0.012962085 -0.008414788 -0.08644401 0.08491876 -0.072835214
0.10703362 -0.07572694 -0.010146021 0.030139027 -0.0399407 0.0570581 -0.09833181 -0.023577938
-0.11054841 -0.00079409924 0.077887885 0.09968767 0.014694716 -0.059888244 0.10784801 0.027102193
0.07376456 -0.05534336 -0.06598512 -0.09351725 0.10740454 0.0039131423 -0.09266575 -0.014044518
-0.057571568 0.009692263 0.04193067 -0.050792675 0.023547115 -0.0650008 0.016262459 -0.10031308
0.027276628 0.13075179 0.10682716 0.042865764 0.07842904 0.10490594 0.03456656 0.04620047
0.010721955 0.07452331 0.020562656 -0.17447558 -0.08662491 -0.030999724 0.057348832 -0.08296937
0.038215008 -0.0449601 0.090471275 0.12260045 0.02055127 0.14272638 0.010420637 -0.091382414
00000000: 43bf 9cbd 5246 8bbd cfc0 b03c 90b8 91bd
00000010: 4ad5 7bbd eddd 4fbd 6751 f3bc abbc 633d
00000020: 9bb3 8e3d 3649 9e3b 13d5 cdbb a44c a23d
00000030: 020b adbc cc02 5fbd 6af2 c7bd 514e 45bc
00000040: 7981 5b3d bbff 283d 57c0 a63d cb66 d7ba
00000050: b663 b83d 900a 29bd 5bea 4ebd 278f 06bd
00000060: 6788 ddbd 42f2 77bd 4116 b4bd 9e01 293c
00000070: 10c1 7d3c 1e0f c4ba 9710 5ebd abaf e13d
00000080: 3ec9 e9ba 9e1e 8b3d 61fe e53d 3455 b3bd
00000090: bb2f 16bd 53d4 1b3d a92d a13d 5c25 1cbd
000000a0: a79b 9d3d cc0d adbd 28b4 93bd 3458 af3d
000000b0: 9fd8 77bc 67c3 053e 3454 aa3c 6131 19bd
000000c0: 37cb b83d 3d0e b03d ed39 823c e8ef 71bd
000000d0: a197 363c db1c 39bd 1381 c63d 1223 b43c
000000e0: 46e4 8e3c 6538 473d ff84 593c 78f8 efbd
000000f0: fd64 e03d 99b5 a53d 6c61 77bd 093d 9f3d
00000100: f361 d73b f2cd 8bbc 487e 97bd 1954 86bc
00000110: 0cc4 d8bd ce8b 6a3d e22a a43d 753d f1bc
00000120: 45ff c83d 8b6d 3fbd 6065 b63c 6777 8ebd
00000130: 1dc9 3ebc ceb7 fe3c 1fbe 013d 6ac9 cdbc
00000140: 782b 66bb d961 f23d 9413 e23d 1332 8a3d
00000150: 4b01 2ebb c537 4f3d 6f03 2d3d 67b2 e53d
00000160: df70 9e3d 960b 983d 9585 7c3b 58e1 b2bc
00000170: 54d8 86bc 9afe b33d 5ec5 813d a330 b1bd
00000180: 8c9f 04bc eeac babd e855 9fbd 7747 a43c
00000190: 667b 14bd 1684 98bd 204b 653c 2974 d4bd
000001a0: e4b8 d5bd 5ae1 c83c 437d 423d f6d1 293d
000001b0: d472 b63d e89b 89bc af31 6abd 3ddf c23b
000001c0: 8c1e 9b3d c034 32bc fa43 163d 981b b93c
000001d0: 5b31 bc3d 4d44 a23d f82a cb3d 1e99 ab3c
000001e0: 661b a7bd a7b8 2cbd daca 133d 7de5 a53d
000001f0: f982 c0bc df96 d03d d2fe 353d 06ab 1b3d
00000200: ba78 ee3b 305f 853c fa94 913d 2df9 c5bc
00000210: 042f 233d 08fb 01be 3820 a8bd 37f6 243d
00000220: 4fe2 9a3d 4268 633d 81a9 243d 9dc3 8cbd
00000230: 0e0e d5bc ab23 bbbd e76f d9bd ee66 ccbc
00000240: 5f3a 9ebd 1ff0 953d c47a 84bd edde c63c
00000250: a71d 5d3d b416 9bbd a341 823d 7153 bf3c
00000260: 65bd a03d d168 d63d 9b6a 13bc 7485 8ebd
00000270: ed67 de3c a62e ddbc 9992 e8bc 08b8 443d
00000280: e9c7 acbd 069e e2bc a466 923d ac8e 483d
00000290: 778b 8fbd c626 143d f84d b4bd d233 86bd
000002a0: 52f2 903d 3da8 e0bc d6c8 e0bc cda9 32bd
000002b0: 220b 7d3a 23e1 acbd 0fe8 72bc 1d4b d7bd
000002c0: 8e3d 063d cc1c 88bd b503 8c3c 7140 6fbc
000002d0: bdf6 8fbd cf43 2ebd 01fe b9bd 15f4 67bd
000002e0: 8bfe b53b 3ac5 e2bd 4be1 b5bd 91be fa3d
000002f0: 1dd0 033d 695e 34bd 9f0c 85bc d9b7 ba3d
00000300: 902b 9cbd fb06 4abd f333 98bd ed5e 54bc
00000310: 2ede 09bc 8f09 b1bd e3e9 ad3d a12a 95bd
00000320: 7134 db3d ba16 9bbd 7f3b 26bc 1fe6 f63c
00000330: dc98 23bd c1b5 693d 3062 c9bd 8526 c1bc
00000340: 3467 e2bd 192b 50ba af83 9f3d 0d29 cc3d
00000350: 1bc2 703c 604d 75bd 6bdf dc3d 6b05 de3c
00000360: e011 973d b8af 62bd 3523 87bd f985 bfbd
00000370: e9f6 db3d d139 803b 8ac7 bdbd fa1a 66bc
00000380: 2ad0 6bbd 4ccc 1e3c 7fbf 2b3d fb0b 50bd
00000390: e1e5 c03c 241f 85bd d938 853c f270 cdbd
000003a0: 3c73 df3c cce3 053e 33c8 da3d 0394 2f3d
000003b0: 689f a03d edd8 d63d aa95 0d3d b43c 3d3d
000003c0: 24ab 2f3c ad9f 983d 0473 a83c baa9 32be
000003d0: 6768 b1bd 22f3 fdbc 9ce6 6a3d d8eb a9bd
000003e0: 5787 1c3d 1528 38bd 0149 b93d f215 fb3d
000003f0: 235b a83c dd26 123e 52bb 2a3c b426 bbbd

tcn.layers.0.conv2.bias f4 [16]
-0.0694497 -0.008247195 -0.02466115 -0.034589015 -0.044921346 0.046664566 -0.06521609 0.11312965
-0.016408041 0.043789607 0.060009092 -0.053323273 0.0995906 0.020024795 0.005556262 -0.11027309
00000000: a53b 8ebd 3e1f 07bc 2e06 cabc 36ad 0dbd
00000010: 72ff 37bd 5823 3f3d 0390 85bd 85b0 e73d
00000020: 286a 86bc bb5c 333d 18cc 753d 8169 5abd
00000030: 28f6 cb3d 0a0b a43c 4e11 b63b dcd6 e1bd

tcn.layers.0.conv2.weight_g f4 [16, 1, 1]
0.63693506 0.58611095 0.71805423 0.5393921 0.80197173 0.6084881 0.6790084 0.63261247
0.66303116 0.56978697 0.5825814 0.68968827 0.66241866 0.5684384 0.6459827 0.6620587
00000000: 2d0e 233f 5e0b 163f 67d2 373f 9a15 0a3f
00000010: 054e 4d3f e0c5 1b3f 7fd3 2d3f e4f2 213f
00000020: 69bc 293f 8fdd 113f 0e24 153f 698f 303f
00000030: 4594 293f 2e85 113f 1f5f 253f ae7c 293f

tcn.layers.0.conv2.weight_v f4 [16, 16, 5]
0.15746209 0.07647597 0.0816339 -0.06585574 -0.00031893066 0.10648384 0.14316946 0.039751757
0.1381544 0.13185284 -0.016018065 0.03486642 -0.04160874 -0.0632566 0.050849915 0.016872453
0.021314058 -0.03763901 -0.099176325 -0.0539869 0.09223541 -0.040823042 0.014823488 0.056150716
0.06348246 -0.073640786 -0.03911501 -0.09564896 0.05491718 -0.10786418 -0.050654434 -0.044503693
0.10288294 0.08380093 0.033106077 0.057934348 -0.13376535 -0.10938764 -0.15408787 -0.040476073
-0.0020227476 -0.019628411 -0.110938124 -0.006038867 -0.04980526 0.035887882 -0.05319427 -0.010025131
-0.04669833 0.124249615 -0.042085677 0.030249733 0.06425889 0.04153181 0.07149152 0.033113524
0.04472462 -0.008833501 0.039942104 -0.06357138 -0.04881232 0.05395121 0.025150403 -0.04577624
-0.14280419 0.004115427 0.02677528 -0.049917586 -0.023411427 0.019712761 -0.0657883 0.029988099
0.0068844906 0.00426464 0.11524621 0.07329912 -0.014545798 0.04387126 -0.06488148 -0.0033064596
0.022579277 -0.048848454 0.059200466 0.076834016 0.033918448 0.1281179 0.097570956 0.11480664
0.027591852 0.022358209 -0.008031031 0.0012042527 -0.07300277 -0.013223791 -0.08785813 -0.08228383
-0.10149631 0.074223705 -0.070684 -0.017955603 0.04249512 0.10357382 0.026880024 -0.07040624
0.029773232 -0.10622917 0.014508829 0.098263234 0.09355131 -0.027375361 -0.12144647 0.01850511
0.053896178 -0.10171844 -0.06256248 -0.049941238 0.05711647 0.05479542 0.088617556 -0.0027020583
-0.12314891 -0.05844274 -0.095145285 -0.03817588 0.027482104 -0.059698153 0.015060351 -0.063451715
-0.055510003 -0.049942013 -0.019604255 -0.03884653 0.033453606 0.08132836 0.09980681 0.047394168
0.011421074 -0.004602855 0.094549485 -0.05103448 0.053150337 -0.0981239 -0.065163404 0.02862143
-0.0024853204 0.027977377 0.098619014 0.06112146 0.11143164 -0.03511872 -0.058811914 -0.025134386
-0.02934275 -0.060361244 -0.011613857 0.08940802 -0.06873922 0.046924923 0.038612578 0.05433875
0.07365164 0.021060145 0.04097171 0.009434386 -0.0006813346 0.023943225 -0.012882308 -0.07611077
-0.06977431 -0.08658011 -0.010359432 0.03525474 -0.05610601 -0.055406332 0.021792397 -0.00038228845
0.007941072 0.008390459 0.111169 0.045464993 -0.029051643 -0.03763061 -0.04142925 -0.064201504
-0.05144837 -0.05910428 -0.019029958 -0.017331373 -0.058136858 0.06408218 0.020536179 -0.08332438
-0.17439416 -0.14277074 -0.13477546 0.036235485 0.07103946 0.05430241 0.097115666 0.080277584
0.055628918 0.14088765 0.13039996 0.122271 0.08444506 -0.02403206 0.07299012 0.08754242
0.045531962 0.060579114 0.031664737 -0.048870772 -0.025781745 -0.06612411 -0.059697915 0.05329533
0.041911155 -0.003027322 0.0059368415 0.003773103 -0.045199476 -0.12501217 -0.117303446 -0.09939017
-0.02378336 0.04226098 0.024125587 0.044041585 -0.012906443 -0.0036143227 0.06476824 -0.010286886
0.02816818 -0.10020523 -0.02646728 0.010560894 -0.055788588 -0.05944266 -0.016440924 -0.03526937
0.06984073 -0.105011255 0.0631766 -0.038615543 0.0067222747 0.046008203 -0.1266848 -0.021454655
-0.12687878 0.026190013 0.03665357 0.019352855 -0.036555946 0.049319122 -0.052474048 0.015774777
00000000: be3d 213e 6f9f 9c3d ad2f a73d 60df 86bd
00000010: 2636 a7b9 3314 da3d 049b 123e bdd2 223d
00000020: 5978 0d3e 6e04 073e 5138 83bc 17d0 0e3d
00000030: ed6d 2abd ad8c 81bd 0048 503d 1938 8a3c
00000040: d29a ae3c 5d2b 1abd f51c cbbd 5e21 5dbd
00000050: ebe5 bc3d 1036 27bd 37de 723c 4bfe 653d
00000060: 1803 823d fbd0 96bd 1037 20bd 9ae3 c3bd
00000070: d6f0 603d e5e7 dcbd 067b 4fbd 8149 36bd
00000080: 4ab4 d23d d29f ab3d 3d9a 073d 914c 6d3d
00000090: c9f9 08be a106 e0bd 36c9 1dbe 3dca 25bd
000000a0: 1390 04bb c3cb a0bc 8733 e3bd b0e1 c5bb
000000b0: 9a00 4cbd 2cff 123d 3ce2 59bd 7240 24bc
000000c0: c046 3fbd 9576 fe3d 0862 2cbd 4ace f73c
000000d0: 2a9a 833d 421d 2a3d 256a 923d 0ca2 073d
000000e0: 2a31 373d 63ba 10bc 559a 233d b631 82bd
000000f0: 6def 47bd f2fb 5c3d 3808 ce3c de7f 3bbd
00000100: 433b 12be b4da 863b d557 db3c 6276 4cbd
00000110: 52c9 bfbc a87c a13c 04bc 86bd 9aa9 f53c
00000120: 4b97 e13b 65be 8b3b 3406 ec3d d91d 963d
00000130: 8051 6ebc 5ab2 333d 95e0 84bd 30b1 58bb
00000140: 2df8 b83c 5115 48bd 307c 723d 275b 9d3d
00000150: 12ee 0a3d 5731 033e 48d3 c73d be1f eb3d
00000160: 4f08 e23c 9028 b73c 9694 03bc 04d8 9d3a
00000170: 7a82 95bd 99a8 58bc f7ee b3bd 6d84 a8bd
00000180: 4cdd cfbd 9902 983d c6c2 90bd a117 93bc
00000190: 5d0f 2e3d 831e d43d 7f33 dc3c 2631 90bd
000001a0: fee6 f33c ae8e d9bd 71b6 6d3c 3c3e c93d
000001b0: d497 bf3d 4b42 e0bc edb8 f8bd 0798 973c
000001c0: 3dc2 5c3d c251 d0bd c220 80bd 2f8f 4cbd
000001d0: f6f2 693d 2a71 603d 1f7d b53d 0415 31bb
000001e0: 7f35 fcbd a861 6fbd 88db c2bd 505e 1cbd
000001f0: 2622 e13c 0d86 74bd b1bf 763c f9f2 81bd
00000200: 755e 63bd ff8f 4cbd 1a99 a0bc 8a1d 1fbd
00000210: a606 093d 7c8f a63d 8367 cc3d 6320 423d
00000220: 751f 3b3c 8cd3 96bb 29a3 c13d 8809 51bd
00000230: 2bb4 593d 2ff5 c8bd 6474 85bd 7d77 ea3c
00000240: c2e0 22bb d030 e53c c4f8 c93d 7f5a 7a3d
00000250: 4636 e43d a6d8 0fbd c3e4 70bd a1e6 cdbc
00000260: 3560 f0bc 5a3d 77bd 0c48 3ebc 8d1b b73d
00000270: 26c7 8cbd 5934 403d 3928 1e3d 4f92 5e3d
00000280: acd6 963d 5386 ac3c f4d1 273d af92 1a3c
00000290: 979b 32ba 9524 c43c 5110 53bc f7df 9bbd
000002a0: d5e5 8ebd ea50 b1bd 9bba 29bc 4667 103d
000002b0: 6acf 65bd c0f1 62bd f885 b23c e36d c8b9
000002c0: 451b 023c 2378 093c 93ac e33d 8039 3a3d
000002d0: b6fd edbc 8e22 1abd b8b1 29bd 147c 83bd
000002e0: 87bb 52bd 5417 72bd b7e4 9bbc 86fa 8dbc
000002f0: ea20 6ebd 853d 833d 7d3b a83c f9a5 aabd
00000300: 6294 32be 7e32 12be 9402 0abe a96b 143d
00000310: 237d 913d 346c 5e3d 94e4 c63d 9368 a43d
00000320: 26db 633d da44 103e 9187 053e 3869 fa3d
00000330: 88f1 ac3d e2de c4bc d87b 953d 7149 b33d
00000340: b97f 3a3d ce21 783d e2b2 013d b82c 48bd
00000350: 3d34 d3bc 146c 87bd cd85 74bd 344c 5a3d
00000360: 08ab 2b3d 0966 46bb d689 c23b 2a46 773b
00000370: 1623 39bd 3103 00be ca3c f0bd 138d cbbd
00000380: 52d5 c2bc d919 2d3d 06a3 c53c f364 343d
00000390: 8c75 53bc 46de 6cbb 36a5 843d 548a 28bc
000003a0: f4c0 e63c 6638 cdbd e9d1 d8bc 9a07 2d3c
000003b0: 9382 64bd 267a 73bd 1eaf 86bc 9d76 10bd
000003c0: a808 8f3d 2410 d7bd bc62 813d 552b 1ebd
000003d0: 8746 dc3b 1973 3c3d a9b9 01be acc1 afbc
000003e0: 83ec 01be 708c d63c 0e22 163d e189 9e3c
000003f0: b0bb 15bd d902 4a3d 07ef 56bd 1b3a 813c

tcn.layers.1.conv1.bias f4 [16]
-0.112004116 -0.07932771 0.06545494 -0.022481916 -0.046067115 0.0042204163 -0.03137828 -0.0627842
-0.080611266 -0.061556835 -0.13670123 -0.122156486 -0.0030353356 0.069853045 0.088727035 0.0074617458
00000000: 6a62 e5bd 9176 a2bd 3d0d 863d ff2b b8bc
00000010: dfb0 3cbd 6b4b 8a3b 8386 00bd 0195 80bd
00000020: 8517 a5bd 0523 7cbd 68fb 0bbe 2e2d fabd
00000030: 7bec 46bb 1d0f 8f3d 85b6 b53d a981 f43b

tcn.layers.1.conv1.weight_g f4 [16, 1, 1]
0.57272804 0.76490575 0.5647379 0.5941783 0.6119441 0.5552868 0.57641643 0.6587507
0.7598941 0.6197872 0.60300213 0.651471 0.9771526 0.71097416 0.59221256 0.57968074
00000000: 4e9e 123f ddd0 433f aa92 103f 121c 183f
00000010: 5ea8 1c3f 4727 0e3f 0790 133f e3a3 283f
00000020: 6b88 423f 60aa 1e3f 595e 1a3f cec6 263f
00000030: ac26 7a3f 6702 363f 3e9b 173f f565 143f

tcn.layers.1.conv1.weight_v f4 [16, 16, 5]
0.024026694 0.04647178 0.029880628 0.0074501885 0.101118974 0.09783517 0.08760114 -0.0057269284
0.030797003 -0.06631508 -0.08235028 -0.024840098 -0.014463282 -0.08085559 -0.11152938 0.041629393
0.030896904 -0.08250318 0.064876564 -0.09087194 0.07652924 0.04578585 -0.054795537 0.08361337
-0.07749782 -0.049214505 0.0867636 -0.022648044 -0.04493419 0.016704688 -0.025205884 0.0582916
0.0940706 0.050741978 0.035483073 0.020023609 -0.0060833455 0.0040129484 -0.004695102 0.06866147
0.054548647 -0.020892447 0.029810943 -0.0038080122 0.029362258 0.10060356 -0.058933884 0.027157653
-0.016108887 -0.10076017 -0.11207517 -0.02800125 0.072615564 -0.081659414 0.03371255 0.06020963
-0.08485975 0.040022317 0.01149565 -0.11049742 0.0014815441 -0.10804772 0.08566195 0.030514797
0.01694879 0.077936925 0.07786699 0.10316759 0.039266873 -0.08630867 0.11128091 0.042912945
-0.022678766 -0.020672996 0.11682753 0.013939519 0.06694289 -0.005662805 0.086699314 -0.09350828
0.04968269 0.062141504 0.0105972085 0.07754341 0.002243897 0.0136103295 0.078832254 0.009325012
0.006973206 -0.07420057 -0.11715442 -0.10858407 0.08392871 0.13317129 -0.055909444 -0.07083118
0.098945536 -0.048752617 0.088689476 0.095993444 -0.071004525 -0.10042076 0.063294835 0.05645585
0.08008774 0.014883808 0.025812607 -0.09549657 -0.0016586791 0.018510595 0.08644583 -0.03346199
-0.03091761 -0.09129546 -0.08729065 0.04124416 0.02451758 0.047132287 -0.008276628 -0.014646496
-0.017966421 0.06268409 -0.06287771 0.019569885 0.04430853 0.05914631 -0.05241372 0.08098505
-0.032630853 0.0777959 0.07890299 0.0037073432 0.025481362 -0.107173204 -0.05133037 -0.06909039
-0.12282237 -0.01787717 0.09425003 0.004723774 -0.030937884 -0.19368716 0.0393202 0.15303719
0.12592377 -0.04579164 -0.10472225 -0.04672595 0.074217215 0.004317056 0.12673743 -0.049019918
-0.0661928 0.03362231 0.02327622 -0.09319876 0.08938785 -0.030163568 -0.07978059 0.027568026
-0.07687161 -0.054784402 -0.058911547 0.039293926 0.07435657 0.06555964 -0.07168108 -0.039172795
0.089988254 -0.07303905 -0.0049030366 -0.022327142 -0.10570069 -0.094908714 0.09070275 0.01936677
0.016236825 0.044464666 0.06992745 0.08053663 0.09291907 0.021132553 0.05649576 0.0547321
-0.013959275 0.007203502 -0.055203214 -0.07697955 0.10538035 -0.08167774 -0.07196299 -0.10056228
-0.07503173 0.032831974 0.06017383 -0.089903444 0.004867177 -0.08185361 0.025654286 0.08169194
-0.047270667 -0.069751434 0.05168016 -0.07120307 -0.0015078548 -0.086698085 0.07836411 0.02477651
-0.052463137 0.061760515 0.10401381 0.05216054 -0.07097101 -0.019732999 0.100063816 0.111086644
-0.011131189 0.065431565 -0.08096204 0.00047343434 0.1461996 0.042582266 -0.10423493 -0.005163178
0.038851175 0.08440612 -0.066158056 -0.014162657 -0.0035129716 -0.017988099 -0.035552654 -0.04178467
0.03655427 0.043669242 -0.03687732 0.09362402 -0.018649604 0.0050589857 0.010908099 -0.028826885
-0.0053793793 -0.025143027 0.033626135 -0.059987728 -0.039144784 -0.09314643 -0.03551244 0.046557646
0.095596395 -0.10342575 0.006156549 0.1362245 -0.050320912 0.055949442 0.0048109274 -0.09987246
00000000: a1d3 c43c 3159 3e3d 38c8 f43c b620 f43b
00000010: 7717 cf3d ce5d c83d 3a68 b33d f5a8 bbbb
00000020: ff49 fc3c 33d0 87bd 43a7 a8bd 767d cbbc
00000030: 67f7 6cbc 9e97 a5bd 8469 e4bd 9583 2a3d
00000040: 811b fd3c 6df7 a8bd 01de 843d 111b babd
00000050: 5dbb 9c3d f289 3b3d 4971 60bd 7d3d ab3d
00000060: 2db7 9ebd 2695 49bd 1db1 b13d 6488 b9bc
00000070: ea0c 38bd 45d8 883c 927c cebc 2cc3 6e3d
00000080: 16a8 c03d d2d6 4f3d b356 113d 8d08 a43c
00000090: cd56 c7bb 0d7f 833b 5fd9 99bb 639e 8c3d
000000a0: 676e 5f3d a326 abbc 1436 f43c d88f 79bb
000000b0: 1e89 f03c 3d09 ce3d a864 71bd ba79 de3c
000000c0: c9f6 83bc 595b cebd ab87 e5bd e162 e5bc
000000d0: 78b7 943d 0d3d a7bd 2c16 0a3d 5f9e 763d
000000e0: f3ca adbd 71ee 233d 4058 3c3c 794c e2bd
000000f0: 5f30 c23a 1f48 ddbd 886f af3d 2bfa f93c
00000100: 30d8 8a3c 659d 9f3d ba78 9f3d 8849 d33d
00000110: 4dd6 203d 9ac2 b0bd 3fe7 e33d 7cc5 2f3d
00000120: d2c8 b9bc 6a5a a9bc 4643 ef3d 9562 643c
00000130: 5b19 893d 0d8f b9bb 698f b13d 4581 bfbd
00000140: 1480 4b3d 1788 7e3d ea9f 2d3c 14cf 9e3d
00000150: 580e 133b dcfd 5e3c ce72 a13d efc7 183c
00000160: 7e7f e43b 78f6 97bd a8ee efbd 5361 debd
00000170: d1e2 ab3d 0e5e 083e 4d01 65bd f00f 91bd
00000180: f5a3 ca3d d3b0 47bd d4a2 b53d 3698 c43d
00000190: d26a 91bd 66a9 cdbd b9a0 813d 403e 673d
000001a0: 0b05 a43d 37db 733c f674 d33c b593 c3bd
000001b0: 0968 d9ba 88a3 973c 830a b13d 710f 09bd
000001c0: ed46 fdbc 1df9 babd 71c5 b2bd a3ef 283d
000001d0: 18d9 c83c c90d 413d b29a 07bc dbf7 6fbc
000001e0: 512e 93bc 8460 803d 07c6 80bd 0651 a03c
000001f0: dc7c 353d 6743 723d c5af 56bd 7ddb a53d
00000200: eea7 05bd 7553 9f3d e497 a13d e6f6 723b
00000210: 4abe d03c a07d dbbd cb3f 52bd 437f 8dbd
00000220: 4b8a fbbd 2573 92bc 2906 c13d e3c9 9a3b
00000230: 7271 fdbc ed55 46be 380e 213d c8b5 1c3e
00000240: 29f2 003e 0490 3bbd 9e78 d6bd b663 3fbd
00000250: 32ff 973d 1776 8d3b 75c7 013e 1cc9 48bd
00000260: 1790 87bd 8cb7 093d c5ad be3c fede bebd
00000270: fa10 b73d 9619 f7bc 0264 a3bd 57d6 e13c
00000280: dd6e 9dbd 9c65 60bd 3c4d 71bd abf2 203d
00000290: 4248 983d 2244 863d 88cd 92bd a773 20bd
000002a0: c34b b83d 7f95 95bd a7a9 a0bb 69e7 b6bc
000002b0: 9a79 d8bd 805f c2bd 5dc2 b93d 0fa7 9e3c
000002c0: 1703 853c 9520 363d 1f36 8f3d 63f0 a43d
000002d0: 5a4c be3d 2d1e ad3c 1968 673d c42e 603d
000002e0: 71b5 64bc 5b0b ec3b c41c 62bd 74a7 9dbd
000002f0: a7d1 d73d a946 a7bd 5561 93bd 99f3 cdbd
00000300: 3caa 99bd d27a 063d d578 763d 4c1f b8bd
00000310: d77c 9f3b dea2 a7bd f028 d23c 1b4e a73d
00000320: e39e 41bd d7d9 8ebd 93ae 533d ead2 91bd
00000330: 36a3 c5ba c48e b1bd 5d7d a03d 1cf8 ca3c
00000340: 96e3 56bd 98f8 7c3d 3105 d53d 4aa6 553d
00000350: 4059 91bd 19a7 a1bc 42ee cc3d 6581 e33d
00000360: 975f 36bc fc00 863d 6dcf a5bd 4837 f839
00000370: 59b5 153e be6a 2e3d 1f79 d5bd e02f a9bb
00000380: 6922 1f3d 1edd ac3d e07d 87bd 7d0a 68bc
00000390: e239 66bb c75b 93bc a99f 11bd 6726 2bbd
000003a0: eeb9 153d 85de 323d ac0c 17bd f3bd bf3d
000003b0: 0ec7 98bc d9c5 a53b e2b7 323c 5c26 ecbc
000003c0: 8145 b0bb c0f8 cdbc 8fbb 093d b1b5 75bd
000003d0: 4856 20bd 8ec3 bebd 7e75 11bd 3bb3 3e3d
000003e0: 0bc8 c33d e1d0 d3bd e0bc c93b 6f7e 0b3e
000003f0: 4d1d 4ebd 3e2b 653d fca4 9d3b ef89 ccbd

tcn.layers.1.conv2.bias f4 [16]
0.005813893 0.07617022 0.028433451 0.030129349 -0.0033003825 0.06976083 0.0063186865 0.0455473
-0.061584767 0.08093753 0.051812705 0.044674814 0.023123942 0.072329216 0.08621948 0.005949599
00000000: 7882 be3b 22ff 9b3d 45ed e83c d3d1 f63c
00000010: 3b4b 58bb c4de 8e3d fc0c cf3b ce8f 3a3d
00000020: 4f40 7cbd 93c2 a53d 8f39 543d f0fc 363d
00000030: 6c6e bd3c 5721 943d d793 b03d dbf4 c23b

tcn.layers.1.conv2.weight_g f4 [16, 1, 1]
0.5383959 0.5808096 0.59534603 0.53948593 0.7742632 0.5923302 0.6721503 0.6547437
0.6435854 0.77443093 0.5229765 0.61601216 0.5993043 0.5788727 0.722761 0.5758826
00000000: 50d4 093f f0af 143f 9968 183f c01b 0a3f
00000010: 1d36 463f f4a2 173f 0b12 2c3f 489d 273f
00000020: 03c2 243f 1b41 463f cae1 053f f9b2 1d3f
00000030: 026c 193f 0031 143f dd06 393f 0b6d 133f

tcn.layers.1.conv2.weight_v f4 [16, 16, 5]
0.087898605 0.06681528 -0.072157405 -0.05765304 -0.03177598 -0.20248625 -0.05964673 -0.029963695
-0.11175571 0.029921526 -0.07827408 0.09368075 0.0629655 -0.0399491 0.09470198 -0.077240676
0.08371379 -0.042772893 0.043775473 0.08232757 0.03382235 0.011937056 -0.021900484 -0.0085814
0.0782423 -0.03551593 -0.022908725 0.0026308207 -0.06656115 -0.0651774 0.01810542 0.09067389
0.0371681 -0.062006086 0.078725204 -0.027328726 0.025447255 0.0077376515 0.052015726 -0.02125746
-0.06662916 -0.040876787 -0.035878617 -0.056857396 0.082314 -0.033210203 0.008768953 -0.07407546
-0.0070499326 -0.015476614 -0.055958994 0.052551158 -0.086949706 0.021398267 -0.008845136 -0.06931842
0.08029793 0.04655253 0.015601989 -0.01539225 0.056047853 -0.070579626 -0.11157073 0.05739678
-0.05534364 -0.005273348 -0.102278806 -0.0010535257 0.042841733 -0.110319555 0.000876833 -0.11062285
0.04911069 0.08753792 -0.06261624 0.020936323 -0.0069851293 -0.026846264 0.07906676 -0.046787597
-0.019954078 -0.0074559287 -0.09645264 0.042078834 0.06455605 -0.12531607 0.001892957 -0.069881804
0.054386165 -0.11786632 0.08540229 -0.054477192 0.071442395 -0.06728542 0.010250997 0.013435445
0.056256168 0.039331827 0.045106765 -0.03794962 -0.06307386 0.023969002 0.11935237 0.1119212
-0.049297992 0.060717985 0.041080132 -0.022503104 0.04879116 -0.02357557 0.009429579 -0.07964724
-0.020851653 0.10266769 0.06302266 -0.10960606 -0.01928958 0.048053443 -0.058305036 -0.022571923
0.057814237 0.09753928 0.09531719 -0.0799707 -0.100990094 0.07709301 -0.014617545 0.08732995
0.081317775 -0.049983785 0.047816213 0.051825352 -0.017479653 0.115651555 0.026515385 -0.02706146
-0.08887579 0.09565226 -0.100666404 0.09886995 -0.061525855 -0.046187248 -0.022956604 0.07565293
-0.10094968 -0.114745535 0.071833 -0.08154564 -0.025391726 0.04910485 -0.046986412 0.06805426
-0.04095569 0.09100659 0.122198954 -0.002320588 -0.056761265 0.03776815 0.008197073 -0.009714995
0.08381682 -0.026508048 0.025712116 -0.046054654 -0.0455073 0.03940338 0.014801369 -0.0042205052
0.045895644 0.020056132 -0.057347894 0.10538274 0.06653644 0.041702654 0.007839455 -0.06393386
-0.073539376 -0.007493524 -0.09712636 0.025193404 -0.060330227 -0.07242062 -0.03263794 0.08098547
0.10481331 -0.099170014 -0.0860898 0.025777947 -0.035076007 -0.10591648 0.03079674 -0.0972903
0.0025145349 0.0393639 0.09615446 -0.093673244 0.091759495 0.00881767 0.09627067 0.091593534
-0.010938717 -0.010754545 -0.032396868 0.069177486 -0.063737534 0.09620856 0.068827465 0.11392971
0.09543096 0.100529976 -0.0774699 -0.048661366 -0.07059065 0.05518433 0.02773553 0.021430887
0.015080627 -0.0189568 0.020143215 -0.07826815 0.111442 -0.05639289 -0.091998585 0.0481955
0.044203874 -0.0026278074 0.12470323 -0.06515164 -0.05231699 -0.035093617 0.062166233 -0.053860348
0.10232677 -0.063050605 -0.05119746 -0.03834056 -0.082641184 0.10840236 -0.078282245 -0.08661187
-0.038946297 0.08280443 0.053162154 0.029722923 -0.046097223 -0.017218629 -0.0012266056 0.09356028
0.09326553 0.17863251 0.071026154 0.013908304 -0.120443255 0.01708636 -0.09283732 0.011268483
00000000: 2f04 b43d 73d6 883d 43c7 93bd 9825 6cbd
00000010: 8827 02bd 8e58 4fbe 2150 74bd 6c76 f5bc
00000020: 2de0 e4bd fd1d f53c 294e a0bd b1db bf3d
00000030: 0ef4 803d aba1 23bd 1df3 c13d 5c30 9ebd
00000040: 2372 ab3d a132 2fbd e94d 333d 5b9b a83d
00000050: 4e89 0a3d a493 433c a568 b3bc 0099 0cbc
00000060: 803d a03d 2779 11bd 14ab bbbc d969 2c3b
00000070: 3651 88bd bb7b 85bd d151 943c 3cb3 b93d
00000080: 943d 183d 18fa 7dbd ae3a a13d 7ee0 dfbc
00000090: c376 d03c 208c fd3b 710e 553d 2024 aebc
000000a0: de74 88bd 6b6e 27bd 75f5 12bd 4de3 68bd
000000b0: 3e94 a83d 6c07 08bd a8ab 0f3c e0b4 97bd
000000c0: 1f03 e7bb a091 7dbc 4235 65bd e23f 573d
000000d0: b012 b2bd 6b4b af3c 30eb 10bc d1f6 8dbd
000000e0: 3e73 a43d dead 3e3d 7c9f 7f3c c72f 7cbc
000000f0: 6f92 653d 0d8c 90bd 327f e4bd e318 6b3d
00000100: 03b0 62bd 0dcc acbb 8d77 d1bd 7516 8aba
00000110: d07a 2f3d 38ef e1bd 44db 653a 3c8e e2bd
00000120: 4a28 493d 1547 b33d f13c 80bd a782 ab3c
00000130: 83e3 e4bb b2ec dbbc c1ed a13d 5aa4 3fbd
00000140: bc76 a3bc dd50 f4bb f688 c5bd db5a 2c3d
00000150: f635 843d db52 00be 191d f83a 311e 8fbd
00000160: 07c4 5e3d e663 f1bd 65e7 ae3d 7a23 5fbd
00000170: 6450 923d f0cc 89bd ccf3 273c 5720 5c3c
00000180: de6c 663d 691a 213d dfc1 383d 1071 1bbd
00000190: de2c 81bd a45a c43c 046f f43d f136 e53d
000001a0: b1ec 49bd 6cb3 783d a443 283d 6e58 b8bc
000001b0: 3dd9 473d 8e21 c1bc 857e 1a3c 181e a3bd
000001c0: 16d1 aabc 7043 d23d 0612 813d 2479 e0bd
000001d0: 2e05 9ebc b0d3 443d 43d1 6ebd c1e8 b8bc
000001e0: 9fce 6c3d adc2 c73d a935 c33d aec7 a3bd
000001f0: e5d3 cebd f1e2 9d3d 6d7e 6fbc 0bda b23d
00000200: ef89 a63d ccbb 4cbd efda 433d d246 543d
00000210: 7d31 8fbc b9da ec3d cb36 d93c ffaf ddbc
00000220: 8304 b6bd 55e5 c33d 302a cebd 547c ca3d
00000230: 8902 7cbd d72e 3dbd 7d0f bcbc ecef 9a3d
00000240: b5be cebd b5ff eabd 2e1d 933d 6701 a7bd
00000250: 4f02 d0bc 2b22 493d d374 40bd 0860 8b3d
00000260: 27c1 27bd aa61 ba3d 7243 fa3d 0215 18bb
00000270: 807e 68bd c7b2 1a3d 044d 063c a42b 1fbc
00000280: 27a8 ab3d 6827 d9bc 37a2 d23c cea3 3cbd
00000290: dd65 3abd 7065 213d 7181 723c 2a4c 8abb
000002a0: 12fd 3b3d c24c a43c a0e5 6abd e8d2 d73d
000002b0: 4244 883d 67d0 2a3d 0f71 003c c1ef 82bd
000002c0: d09b 96bd 3c8c f5bb 2fea c6bd 6662 ce3c
000002d0: d41c 77bd 4351 94bd 5caf 05bd b6db a53d
000002e0: 5ca8 d63d a619 cbbd d94f b0bd 462c d33c
000002f0: dcab 0fbd bdea d8bd 7249 fc3c 2340 c7bd
00000300: e5ca 243b 0a3c 213d a1ec c43d c2d7 bfbd
00000310: 67ec bb3d fd77 103c 8f29 c53d 6495 bb3d
00000320: 4e38 33bc d533 30bc 94b2 04bd edac 8d3d
00000330: d388 82bd fe08 c53d 6af5 8c3d fb53 e93d
00000340: 4f71 c33d a9e2 cd3d 8aa8 9ebd 2451 47bd
00000350: d591 90bd f708 623d 9f35 e33c d48f af3c
00000360: bc14 773c 4b4b 9bbc 6203 a53c 0d4b a0bd
00000370: b43b e43d 3bfc 66bd c169 bcbd a568 453d
00000380: 1f0f 353d 4b37 2cbb 6864 ff3d 396e 85bd
00000390: 574a 56bd 53be 0fbd 05a2 7e3d ab9c 5cbd
000003a0: b390 d13d ad20 81bd 6eb4 51bd fe0a 1dbd
000003b0: c83f a9bd 0e02 de3d 7152 a0bd 9061 b1bd
000003c0: 2786 1fbd 5e95 a93d 8fc0 593d 7d7d f33c
000003d0: 71d0 3cbd 150e 8dbc 0ec6 a0ba 889c bf3d
000003e0: 0002 bf3d 71eb 363e 2976 913d a8df 633c
000003f0: f4aa f6bd b2f8 8b3c 7e21 bebd 719f 383c

tcn.layers.2.conv1.bias f4 [16]
-0.051641434 0.03451402 0.097746044 0.0279978 -0.034326438 -0.0818245 0.071884125 -0.05345871
-0.08695736 0.081300266 0.010451641 -0.025321275 -0.09488743 -0.013953399 -0.054303985 -0.0059793056
00000000: f885 53bd 935e 0d3d 142f c83d a45b e53c
00000010: e199 0cbd 9a93 a7bd fc37 933d 85f7 5abd
00000020: b316 b2bd c180 a63d 5c3d 2b3c 906e cfbc
00000030: 5754 c2bd cc9c 64bc db6d 5ebd 0dee c3bb

tcn.layers.2.conv1.weight_g f4 [16, 1, 1]
0.67091364 0.6118152 0.5973565 0.9336596 0.9267595 0.6131115 0.66404307 0.924354
0.56742984 0.56041366 0.51225585 0.56978625 0.5724053 0.6800248 0.58153206 0.84147197
00000000: ffc0 2b3f ec9f 1c3f 5bec 183f 5104 6f3f
00000010: 1c40 6d3f e0f4 1c3f bafe 293f 77a2 6c3f
00000020: 1543 113f 4577 0f3f 3323 033f 83dd 113f
00000030: 2789 123f 1b16 2e3f 49df 143f b56a 573f

tcn.layers.2.conv1.weight_v f4 [16, 16, 5]
0.09399321 -0.109804325 -0.021723412 -0.08484095 0.02292769 0.032072883 0.05359986 -0.020464221
0.06673093 -0.030142985 -0.032092575 0.09013778 -0.09122419 0.02540782 -0.087305345 0.036261573
-0.10339424 -0.11397706 -0.039961852 0.07996762 0.044317435 0.09782186 -0.047316127 0.058888633
-0.062852114 -0.015920576 -0.105924286 0.004886983 0.025294097 -0.10214211 0.08321379 0.004410319
0.09352674 -0.049857933 -0.0045975195 -0.039190225 0.07967385 -0.08130382 0.045361966 -0.09345838
0.079360865 -0.105884485 -0.07131515 -0.069965154 -0.03243439 0.0107684685 0.05589586 0.122420244
0.08990668 -0.04453856 0.09736442 -0.022369368 -0.07044743 0.026376894 -0.035581656 0.09553716
0.02238423 0.06256727 0.015833385 -0.08270717 0.02600978 -0.035938654 -0.011064324 -0.01608889
-0.06617138 0.03199607 0.06888679 -0.12009006 0.043926675 -0.1016438 -0.10407411 0.03700085
0.017473226 -0.038090523 0.11330493 0.00028896626 -0.06931492 0.045025624 0.0008810894 -0.02590119
-0.06989083 -0.0018816551 0.066749796 -0.048358884 0.050427362 -0.08675921 -0.019397404 -0.014682
-0.08278754 0.054511454 -0.076820314 0.060311053 0.012600527 -0.007253902 -0.06311762 -0.04314257
0.021030976 0.09922716 -0.06003629 -0.08272579 -0.043456778 -0.08452608 -0.034057494 -0.08550685
0.0734973 0.05434205 -0.08754739 0.08040284 0.0053596473 -0.091885045 -0.009722671 -0.14765026
-0.09222579 -0.100668654 -0.096998386 -0.030503025 0.017247722 0.010966359 -0.11591335 -0.11519729
-0.017174393 0.088812776 0.0326224 0.09346555 -0.058019586 0.024677815 -0.08688177 0.05802669
-0.004604861 -0.0113176815 -0.08350299 -0.11880881 -0.06448383 -0.025319228 -0.07441513 0.047568828
-0.01976895 0.0072727455 -0.10912214 0.02453708 -0.03993395 -0.07349393 -0.036471 -0.0905783
-0.072559625 0.07434999 0.08181576 -0.08436886 0.015657796 -0.06520205 0.08940615 0.07368263
0.056237195 -0.08086846 -0.049085263 -0.026386905 -0.10267594 -0.071652696 0.022721263 -0.094206885
0.03437069 0.0049078744 -0.0075367335 -0.032681692 -0.049575407 -0.07683459 -0.043609574 0.11156775
0.013675544 0.110196024 -0.0019111098 -0.032125447 0.045986075 -0.119233236 -0.09138003 0.056119435
-0.03435023 0.08037115 -0.017014334 0.0728321 -0.006682321 -0.0015517047 -0.11650179 -0.05631887
-0.008492554 0.032436587 0.0006912716 -0.045089126 -0.011990877 0.09501987 0.045098316 0.013823662
-0.09955746 -0.037060108 0.090939805 0.08972696 -0.06072374 0.03853008 -0.032787163 0.06483253
-0.02665427 -0.09037386 -0.115554675 -0.012534929 0.027203478 -0.04815482 0.07213359 0.040657528
0.056699187 0.028542537 -0.11996108 -0.04051527 0.033561215 0.03519945 -0.10707038 -0.064062014
0.068538666 -0.09195157 0.072499305 -0.035968207 0.011066805 0.041890558 0.02241343 -0.06684569
0.03322149 -0.10742988 -0.06569199 -0.026433429 -0.028277706 0.074874684 -0.044749018 0.11904238
0.076675266 0.055771675 0.1028797 -0.08446661 -0.105900384 -0.00858657 0.042922627 0.040187567
-0.026455913 -0.00075011794 0.051687595 0.09547672 0.0057267924 -0.003993836 -0.0029758664 -0.0705885
-0.010509535 0.04668355 -0.03510723 -0.025481801 -0.04883753 0.08872666 0.04751339 -0.005653276
00000000: 837f c03d 17e1 e0bd 4cf5 b1bc 18c1 adbd
00000010: dad2 bb3c db5e 033d 878b 5b3d 95a4 a7bc
00000020: 3aaa 883d 6cee f6bc 8173 03bd 289a b83d
00000030: c0d3 babd 0f24 d03c 25cd b2bd 0487 143d
00000040: 5cc0 d3bd ce6c e9bd 0aaf 23bd 10c6 a33d
00000050: 3386 353d d456 c83d 8ece 41bd 3535 713d
00000060: 9cb8 80bd de6b 82bc d5ee d8bd fc22 a03b
00000070: 9135 cf3c e22f d1bd fe6b aa3d 7084 903b
00000080: f38a bf3d d537 4cbd caa6 96bb ee85 20bd
00000090: 0b2c a33d 9e82 a6bd 78cd 393d 1b67 bfbd
000000a0: f387 a23d f7d9 d8bd ad0d 92bd e449 8fbd
000000b0: ecd9 04bd 3b6e 303c 0ff3 643d 77b7 fa3d
000000c0: fe20 b83d 116e 36bd ff66 c73d f73f b7bc
000000d0: be46 90bd 5b14 d83c 12be 11bd fda8 c33d
000000e0: 225f b73c 4523 803d 04b5 813c 6062 a9bd
000000f0: 7612 d53c 6934 13bd 2347 35bc d9cc 83bc
00000100: dc84 87bd 500e 033d 8414 8d3d c7f1 f5bd
00000110: 75ec 333d a02a d0bd cf24 d5bd 348e 173d
00000120: 0324 8f3c cf04 1cbd 6a0c e83d 6580 9739
00000130: fbf4 8dbd ca6c 383d e9f8 663a bb2e d4bc
00000140: ec22 8fbd dea1 f6ba 1eb4 883d f713 46bd
00000150: ec8c 4e3d d0ae b1bd 4ee7 9ebc c58c 70bc
00000160: 848c a9bd 6747 5f3d f853 9dbd b908 773d
00000170: 7172 4e3c 24b2 edbb d043 81bd 43b6 30bd
00000180: 2749 ac3c 9c37 cb3d 9de8 75bd 246c a9bd
00000190: bcff 31bd 021c adbd df7f 0bbd 371e afbd
000001a0: c185 963d c595 5e3d 0c4c b3bd 3faa a43d
000001b0: fb9f af3b 3a2e bcbd d64b 1fbc a131 17be
000001c0: e0e0 bcbd 5e2b cebd 17a7 c6bd 7be1 f9bc
000001d0: 184b 8d3c 3eac 333c fa63 edbd 8fec ebbd
000001e0: 50b1 8cbc 79e3 b53d 119f 053d de6a bf3d
000001f0: f2a5 6dbd 2129 ca3c 12ef b1bd 65ad 6d3d
00000200: 60e4 96bb cc6d 39bc 9e03 abbd 0952 f3bd
00000210: 1910 84bd 456a cfbc f666 98bd 88d7 423d
00000220: 7ef2 a1bc 3650 ee3b 6e7b dfbd fd01 c93c
00000230: c891 23bd fc83 96bd 9e62 15bd 1e81 b9bd
00000240: 249a 94bd cf44 983d 058f a73d 95c9 acbd
00000250: c744 803c a788 85bd 921a b73d ebe6 963d
00000260: f958 663d 5d9e a5bd a10d 49bd 5a29 d8bc
00000270: c347 d2bd a6be 92bd f121 ba3c 8aef c0bd
00000280: 48c8 0c3d 3cd2 a03b b4f6 f6bb 3ddd 05bd
00000290: 950f 4bbd 745b 9dbd f49f 32bd a27d e43d
000002a0: 640f 603c 74ae e13d 347e faba f995 03bd
000002b0: e55b 3c3d 8e30 f4bd 7425 bbbd 7edd 653d
000002c0: d4b2 0cbd a199 a43d a561 8bbc ff28 953d
000002d0: 5ff7 dabb 9262 cbba 7e98 eebd 9eae 66bd
000002e0: 5a24 0bbc 3adc 043d 7436 353a 60af 38bd
000002f0: 6275 44bc c799 c23d 03b9 383d a47c 623c
00000300: c8e4 cbbd 57cc 17bd a63e ba3d c5c2 b73d
00000310: 75b9 78bd b8d1 1d3d d54b 06bd ebc6 843d
00000320: 0e5a dabc ee15 b9bd eea7 ecbd 4e5f 4dbc
00000330: d4d9 de3c fd3d 45bd c7ba 933d 8288 263d
00000340: 683d 683d 0ad2 e93c 28ae f5bd 57f3 25bd
00000350: 7c77 093d 4c2d 103d b747 dbbd f232 83bd
00000360: 005e 8c3d 1b51 bcbd 847a 943d 6653 13bd
00000370: 8b51 353c 6f95 2b3d 5f9c b73c 65e6 88bd
00000380: 4213 083d 3204 dcbd 8689 86bd eb8a d8bc
00000390: a6a6 e7bc e657 993d bf4a 37bd 7ecc f33d
000003a0: ec07 9d3d d770 643d 98b2 d23d d4fc acbd
000003b0: 4de2 d8bd afae 0cbc a3cf 2f3d b89b 243d
000003c0: 12ba d8bc 90a3 44ba 5fb6 533d 4c89 c33d
000003d0: d1a7 bb3b bade 82bb c106 43bb b490 90bd
000003e0: 2f30 2cbc 4037 3f3d 99cc 0fbd 36bf d0bc
000003f0: dd09 48bd 53b6 b53d 679d 423d 1e3f b9bb

tcn.layers.2.conv2.bias f4 [16]
-0.027013667 -0.023230841 0.039138597 -0.05536462 -0.017370205 -0.090745986 -0.015153271 -0.108105674
0.027928919 -0.072163895 -0.033018947 -0.09044996 0.09649602 -0.02553252 0.10204814 -0.06725444
00000000: c44b ddbc 9b4e bebc cb4f 203d 03c6 62bd
00000010: f64b 8ebc 08d9 b9bd 6d45 78bc 8266 ddbd
00000020: 30cb e43c aaca 93bd e03e 07bd d43d b9bd
00000030: b59f c53d 9329 d1bc 9dfe d03d b2bc 89bd

tcn.layers.2.conv2.weight_g f4 [16, 1, 1]
0.64548445 0.5931087 0.66808295 0.59899807 0.75967544 0.5701065 0.67762 0.5799631
0.5798634 0.6120415 0.60121924 0.5786791 0.61784935 0.6327528 0.7984162 0.5738292
00000000: 783e 253f f9d5 173f 7c07 2b3f f057 193f
00000010: 177a 423f 80f2 113f 8178 2d3f 7678 143f
00000020: ee71 143f c0ae 1c3f 81e9 193f 5024 143f
00000030: 602b 1e3f 16fc 213f 0165 4c3f 78e6 123f
