model_save/down_beat_tracker_0.0463.pt (torch, 154186 bytes, 71 tensors)

frontend.conv1.0.weight f4 [16, 1, 3, 3]
0	0x3ebc7a3c	0.36812007
1	0x3efe0a22	0.49617106
2	0x3dbbd6e3	0.09171846
3	0x3eb29ab4	0.34883654
4	0x3d611127	0.054948
5	0x3e0bc8d4	0.13650829
6	0x3d7937f6	0.060844384
7	0x3eeb457d	0.45951453
8	0x3ef9bd91	0.4877744
9	0xbdfc7833	-0.12327614
10	0x3f262c88	0.649117
11	0x3ee1636d	0.44021168
12	0x3e2d26d7	0.16909347
13	0x3e31e383	0.17371945
14	0x3e89a220	0.26881504
15	0x3e1ece8d	0.1550848
16	0x3f0ae359	0.54253155
17	0x3e7ddbaf	0.24790834
18	0xbdff859d	-0.124766566
19	0x3de70761	0.11280704
20	0xbde515a5	-0.11185769
21	0xbba4cc60	-0.005029246
22	0xbdde875b	-0.10865661
23	0x3e820ca2	0.25400263
24	0xbe833aa2	-0.2563067
25	0xbe14f3f9	-0.14546193
26	0xbd956d42	-0.0729623
27	0xbe6c3205	-0.23065956
28	0x3c3e96d5	0.011632641
29	0xbeae8772	-0.34087712
30	0x3e9d7e88	0.30760598
31	0xbe8bee71	-0.27330354
32	0x3e8969ef	0.26838633
33	0x3d45be5d	0.048277248
34	0xbe00ef53	-0.12591295
35	0x3e3b32d3	0.18281107
36	0x3e371796	0.17880091
37	0x3ef6477f	0.48101422
38	0x3e71462d	0.23561926
39	0xbdb5514e	-0.08853398
40	0x3e325f20	0.174191
41	0xbce9ef7e	-0.028556582
42	0x3ec3325c	0.3812436
43	0x3f0facf8	0.56123304
44	0x3ed0000d	0.4062504
45	0xbdf636b8	-0.120221555
46	0x3e5bd8e0	0.2146945
47	0x3dd17fa8	0.102294266
48	0x3deff42a	0.117164925
49	0xbe75d2da	-0.24006215
50	0xbeb0524c	-0.34437788
51	0xbdcf1f20	-0.101133585
52	0xbe6e370c	-0.23263186
53	0x3e9777cd	0.29583588
54	0x3ea2e788	0.3181727
55	0x3ea919a4	0.33027375
56	0x3e7daede	0.24773738
57	0x3e2e63b3	0.1703022
58	0x3ec3b7b7	0.382261
59	0xbe393b76	-0.18089089
60	0x3e116793	0.14199667
61	0xbe24acec	-0.1608159
62	0x3d909959	0.07060499
63	0xbe18f08b	-0.1493551
64	0x3d82102f	0.06350743
65	0xbde3d982	-0.11125471
66	0x3e7d877d	0.24758716
67	0xbe5abbf5	-0.21360762
68	0xbe567538	-0.20943153
69	0xbde93282	-0.11386587
70	0x3ebb110f	0.36536452
71	0x3e396205	0.18103798
72	0x3ea2ccf0	0.3179698
73	0xbe8335f2	-0.25627095
74	0xbe9b4270	-0.30324125
75	0xbe8b36f1	-0.27190354
76	0xbe7e8e2b	-0.2485892
77	0x3dc5b305	0.09653286
78	0x3e228e10	0.15874505
79	0x3e9d04fa	0.3066786
80	0xbe01ba61	-0.12668754
81	0xbe662f1c	-0.22478908
82	0x3e37d2db	0.17951529
83	0xbde3cdea	-0.11123259
84	0x3e822486	0.2541849
85	0xbd0bffb2	-0.034179397
86	0x3e776211	0.24158503
87	0xbe86484a	-0.26227027
88	0xbe302252	-0.17200592
89	0x3dd0c5d5	0.101939835
90	0x3e212b0c	0.15739077
91	0xbd13d54e	-0.036092095
92	0x3e5a4e99	0.21319045
93	0x3e39d00f	0.18145774
94	0xbe8c7f5d	-0.2744092
95	0xbe5e9c24	-0.2173925
96	0x3ea1b859	0.3158596
97	0xbdb4b8b0	-0.08824289
98	0xbdae8cc1	-0.085229404
99	0xbe96ebda	-0.29476815
100	0xbe304958	-0.17215478
101	0x3dd40741	0.10352946
102	0xbca161c5	-0.01969994
103	0xbe62e3c1	-0.22157194
104	0x3d03d14f	0.032182034
105	0xbe579ad3	-0.21055155
106	0xbe8947c8	-0.26812577
107	0xbe275ed0	-0.16344762
108	0xbe9a5d9b	-0.3014954
109	0xbe6203ca	-0.22071758
110	0x3ea81be6	0.32833785
111	0x3d6663a3	0.056247365
112	0x3dd55dc2	0.104182735
113	0xbe9838f3	-0.2973095
114	0xbe6b11c7	-0.22956
115	0xbdeb6b8f	-0.114951245
116	0x3d68a1a9	0.056794796
117	0xbe8f96bf	-0.28044698
118	0xbe0832e0	-0.13300657
119	0xbe427fc5	-0.18994053
120	0x3c4cc21c	0.012497451
121	0xbde98a7d	-0.11403368
122	0xbc6b2cc6	-0.014353937
123	0xbe5d78ee	-0.21628162
124	0xbe62f7e4	-0.22164875
125	0xbe40fd78	-0.1884669
126	0xbe66bfa7	-0.22534047
127	0xbe767619	-0.24068488
128	0x3eed0b58	0.46297717
129	0xbe93cf22	-0.28868967
130	0x3e4de1d8	0.20105684
131	0x3de14112	0.10998739
132	0xbe91cf1a	-0.28478318
133	0x3e9c92a7	0.30580637
134	0x3b379ca4	0.002801695
135	0xbe0303a0	-0.12794352
136	0xbe91a91b	-0.2844933
137	0xbeb36247	-0.35035917
138	0x3e0344e6	0.12819251
139	0xbd4cc606	-0.049993537
140	0x3e142388	0.14466679
141	0xbe7ae146	-0.24499997
142	0x3e8522e8	0.26003194
143	0xbe6bd47e	-0.23030278

frontend.conv1.0.bias f4 [16]
0	0xbe5ec4fd	-0.21754833
1	0xbd90318b	-0.070406996
2	0x3e423f21	0.18969394
3	0x3eb4120f	0.35170028
4	0x3ebf4a88	0.3736155
5	0xbe78a86c	-0.24282998
6	0x3e5e6a89	0.21720327
7	0xbdcc053d	-0.099619366
8	0xbb032fb8	-0.0020017456
9	0xbe3b6ded	-0.18303652
10	0x3eb93c03	0.36178598
11	0xbe803f20	-0.2504816
12	0x3e4d80d2	0.20068672
13	0x3df81540	0.12113428
14	0x3d8933bd	0.066993214
15	0xbe506f34	-0.2035492

frontend.conv2.0.weight f4 [16, 16, 3, 3]
0	0x3c76fbeb	0.01507471
1	0xbae08140	-0.0017128363
2	0x3da48810	0.08033764
3	0xbe16f7be	-0.14742944
4	0xbbdb212d	-0.0066873045
5	0x3d4291f9	0.04750249
6	0x3b9aca67	0.0047238353
7	0x3dd677fa	0.104721025
8	0x3d921fe1	0.07134987
9	0xbdac660a	-0.084179
10	0xbd19a308	-0.037508994
11	0x3deb162b	0.114788376
12	0xbd989fc0	-0.07452345
13	0xbd02196f	-0.031762537
14	0x3dbda2e1	0.09259582
15	0x3ce2ff67	0.027709676
16	0x3ce91b61	0.028455438
17	0x3e07f395	0.13276513
18	0x3d887648	0.06663185
19	0xbda2b97e	-0.07945536
20	0xbb7e063a	-0.0038761036
21	0x3d7a6350	0.061129868
22	0x3cca1b2c	0.02467116
23	0xbd31ce1e	-0.04340946
24	0x3d82590e	0.06364642
25	0x3d62bd2c	0.05535619
26	0x3cca9015	0.024726907
27	0xbcc98b2a	-0.024602491
28	0xbd5faf02	-0.05461026
29	0xbd8f5eb5	-0.07000486
30	0xbc25a8ac	-0.010111015
31	0xbd733594	-0.059377268
32	0xbd05fb8a	-0.03271059
33	0x3dadc8de	0.08485578
34	0xbd136586	-0.035985492
35	0xbdc83701	-0.09776116
36	0xbdb104a1	-0.08643461
37	0xbd6af86e	-0.057365827
38	0x3da7736b	0.08176311
39	0xbe06e446	-0.13173017
40	0xbe06f057	-0.1317762
41	0x3d53a846	0.05167415
42	0x3d96f8db	0.07371684
43	0x3d89d67a	0.06730361
44	0x3d9bcc30	0.07607305
45	0xbca999a2	-0.02070314
46	0xbd38300a	-0.04496769
47	0xbdeb6862	-0.11494519
48	0x3c3dc917	0.011583588
49	0x3ced1f76	0.028945666
50	0x3b92c956	0.0044795675
51	0x3da57d5b	0.0808055
52	0xbd50dd10	-0.05099207
53	0xbd6da543	-0.058018934
54	0xbdd10072	-0.10205163
55	0xbd65557e	-0.055989735
56	0xbd5baa7e	-0.05362939
57	0xbe1860bb	-0.1488065
58	0xbd924b34	-0.0714325
59	0xbc7f841f	-0.015595465
60	0xbd954e15	-0.072902836
61	0x3cbe1afd	0.023206228
62	0xbc9281b6	-0.017884117
63	0xbc810632	-0.015750024
64	0xbe00e2ed	-0.12586565
65	0x3cd35257	0.025796099
66	0xbd804b59	-0.062643714
67	0xbe3a346b	-0.18184058
68	0xbe88cb57	-0.26717636
69	0x3dfb27a9	0.12263424
70	0x3d055bb7	0.03255817
71	0x3db545c9	0.08851201
72	0x3d71b9cd	0.059015084
73	0x3d440cf0	0.0478639
74	0xbc3607d1	-0.011110262
75	0x3d3d9178	0.046281308
76	0xbce566cd	-0.02800312
77	0xbe09a012	-0.13439968
78	0xbbbcaf5f	-0.0057582106
79	0xbd4fa507	-0.05069449
80	0x3cb79ff1	0.022415133
81	0xbc5439ad	-0.012953204
82	0x3ca433f0	0.020044297
83	0xbd526297	-0.051363554
84	0x3d4cbfa5	0.049987454
85	0x3c5f3116	0.013622543
86	0xbc9ea8b4	-0.019367553
87	0x3d9e31a7	0.07724314
88	0x3c30f44b	0.0108004315
89	0x3d21ca5d	0.03949963
90	0xbc60b1b3	-0.013714242
91	0xbe0e6ef6	-0.13909516
92	0xbe283077	-0.16424738
93	0xbd7b7ed9	-0.06140027
94	0xbe0f107e	-0.13971135
95	0xbe812e89	-0.25230816
96	0x3d2c172a	0.04201428
97	0xbdef42a4	-0.116826326
98	0xbd0b1ba1	-0.033961896
99	0x3d572126	0.052521847
100	0x3d8164b8	0.06318039
101	0xbdb3f5d9	-0.08787126
102	0x3db12ac8	0.08650738
103	0xbcefdaa6	-0.029279064
104	0x3bf0784e	0.00733856
105	0x3dec6f9c	0.11544725
106	0x3c55a837	0.013040594
107	0x3b094b25	0.002094933
108	0xbc015018	-0.007892631
109	0xbd65ef0f	-0.056136187
110	0x3d11c7f7	0.035591092
111	0xbd5f30c0	-0.05448985
112	0x3d95ab73	0.07308092
113	0x3d70e061	0.058807734
114	0x3de80ddc	0.113307685
115	0x3c46607a	0.012107963
116	0xbd57c903	-0.052681934
117	0x3cd75899	0.026287364
118	0x3d17ac26	0.037029408
119	0xbdeef5db	-0.11667987
120	0x3a241a1d	0.00062599947
121	0xbd59d10b	-0.053177875
122	0xbd2b86f8	-0.041876763
123	0xbc4256d5	-0.011861523
124	0xbcae4da9	-0.021277266
125	0xbd086e15	-0.033308107
126	0xbd6cba5e	-0.05779492
127	0x3e8497ca	0.25897056
128	0x3ec7e04a	0.39038306
129	0x3db531e1	0.08847404
130	0x3ea072a1	0.31337455
131	0x3ed6090b	0.41803774
132	0x3d077b9b	0.033076864
133	0x3e27f545	0.16402157
134	0x3e9c127b	0.3048285
135	0xbd2250d7	-0.039627876
136	0xbd972681	-0.07380391
137	0xbd645363	-0.055743586
138	0xbae51ac7	-0.0017479294
139	0xbd1251a5	-0.035722394
140	0xbd2c1ad5	-0.042017777
141	0x3c01d7ae	0.007924957
142	0xbce47b9f	-0.027890978
143	0xbd809bf4	-0.06279746
144	0xbd855bd6	-0.06511657
145	0x3df980a9	0.12182743
146	0x3d0eda3d	0.034876097
147	0x3c9d0938	0.019169435
148	0xbba1a2ff	-0.0049327607
149	0x3d10b083	0.035324585
150	0x3dd2a288	0.102849066
151	0x3d6118ed	0.05495541
152	0xbd569df3	-0.052396726
153	0x3d712e7b	0.058882218
154	0x3e13a375	0.14417823
155	0x3dd16dac	0.102259964
156	0x3d72a73c	0.05924152
157	0x3dc611f8	0.09671396
158	0x3ba33255	0.0049803653
159	0x3d201f9a	0.039092638
160	0xbd34e7dc	-0.04416643
161	0xbc8e207a	-0.01734947
162	0x3d57aebb	0.05265687
163	0x3cde9ab6	0.027173381
164	0xbd915f1d	-0.070982195
165	0xbda73f6e	-0.08166395
166	0xbd9965ec	-0.07490143
167	0xbdccff0c	-0.10009584
168	0xbda3a461	-0.07990337
169	0xbd1bf7c8	-0.0380781
170	0x3d1fd3df	0.039020415
171	0xbca1543a	-0.019693483
172	0xbdc6d4b8	-0.09708542
173	0xbdc3c813	-0.095596455
174	0x3ca6ae2c	0.020346723
175	0xbdac3f8d	-0.08410559
176	0xbd039159	-0.032121036
177	0x3c3c8b02	0.011507751
178	0xbd86ca1e	-0.065815195
179	0xbd0c26e3	-0.034216773
180	0xbcd8bbde	-0.02645677
181	0xbbbf5098	-0.005838465
182	0xbc7c3d10	-0.015395418
183	0xbdacfab7	-0.084462576
184	0xbd8ea8a3	-0.06965759
185	0xbd46fd5e	-0.048581474
186	0x3da550fa	0.08072086
187	0xbd4217e6	-0.047386073
188	0xbd98260c	-0.07429132
189	0x3a668834	0.00087940996
190	0xbb7ea28d	-0.0038854212
191	0x3c954bee	0.018224683
192	0x3d124f25	0.03572001
193	0x3c886ca3	0.016653365
194	0xbddb19b4	-0.10698262
195	0xbca255f2	-0.019816373
196	0x3cb09434	0.021555044
197	0xbcff51a3	-0.031166857
198	0xbda75967	-0.08171349
199	0x3da34faa	0.07974179
200	0xbc283195	-0.0102657275
201	0xbd925d2a	-0.07146676
202	0xbd9e5334	-0.077307135
203	0x3bcb4a1d	0.0062039034
204	0x3d3bea46	0.045877717
205	0x3ca18805	0.01971818
206	0x3bae3213	0.005316028
207	0xbde4ae28	-0.1116603
208	0xbd925594	-0.07145229
209	0x3d4f18df	0.05056083
210	0x3d993aa0	0.07481885
211	0x3d1bb3f3	0.03801341
212	0xbd53d68f	-0.05171829
213	0xbd218486	-0.039433025
214	0xbdbe0826	-0.09278898
215	0xbd8ced80	-0.06881237
216	0xbbdadf94	-0.0066794846
217	0x3caace4c	0.020850323
218	0x3d3fda9a	0.046839334
219	0xbdb78202	-0.08960344
220	0x3d230b50	0.03980571
221	0xbd945c10	-0.07244122
222	0x3b85344a	0.004065071
223	0x3d393542	0.045216806
224	0xbc9b44a4	-0.018953629
225	0x3d86d5cb	0.065837465
226	0xbdd6e97f	-0.104937546
227	0xbdbdefc7	-0.092742495
228	0x3c30d979	0.010794037
229	0xbd93a0aa	-0.072083786
230	0xbd9f02f4	-0.07764235
231	0xbd9d9eda	-0.07696314
232	0xbc9bc6c4	-0.019015677
233	0xbd197cb7	-0.037472453
234	0xbc57114b	-0.013126682
235	0xbd9a5f01	-0.07537652
236	0xbd9e4566	-0.077280805
237	0xbc66a003	-0.014076236
238	0x3c0bab33	0.008524704
239	0xbd445666	-0.04793396
240	0xbd135584	-0.035970226
241	0x3d391179	0.04518268
242	0xbb03f9e5	-0.0020137962
243	0xbbe04aa3	-0.006844835
244	0xbd0eecac	-0.034893677
245	0xbdb877e0	-0.09007239
246	0xbdbaa742	-0.09113933
247	0xbd63336d	-0.055468965
248	0xbd6b1c2a	-0.057399906
249	0x3c35683a	0.011072213
250	0xbd24fbee	-0.04027932
251	0xbd405bc7	-0.046962526
252	0x3d96955a	0.07352705
253	0x3c811dd3	0.015761292
254	0x3d2d1b71	0.0422625
255	0xbd41cc07	-0.047313716

frontend.conv2.0.bias f4 [16]
0	0xbbbfa9c9	-0.0058490974
1	0xbd4317a2	-0.04762996
2	0xbc89248c	-0.01674106
3	0xbd520848	-0.05127743
4	0x3bd231e2	0.006414638
5	0xbd999b3b	-0.07500311
6	0xbcd84c81	-0.026403667
7	0xbd960320	-0.07324815
8	0xbd270a0a	-0.04078106
9	0x3d374e4c	0.044752404
10	0xbd6dd278	-0.058062047
11	0xbdb0b99c	-0.08629152
12	0xbc111dad	-0.008857173
13	0x3d709b25	0.058741707
14	0xbbd5cbb0	-0.0065245256
15	0xbdc78e3e	-0.097439274

tcn.layers.0.conv1.bias f4 [16]
0	0xbd712be4	-0.058879748
1	0xbe0bd04b	-0.13653676
2	0x3c24531a	0.010029579
3	0x3d7ba34a	0.06143502
4	0x3dacbe5d	0.084347464
5	0xbb4cdddc	-0.0031260168
6	0x3db6e9b5	0.08931295
7	0xbdb51339	-0.08841557
8	0x3dbdaef6	0.09261887
9	0xbd1fb9d9	-0.038995598
10	0xbdb5a47e	-0.08869265
11	0x3d8d3d2b	0.068964325
12	0x3c8521cc	0.016251467
13	0x3d5b3f1a	0.053526975
14	0xbd746bae	-0.059673004
15	0x3da5a638	0.08088344

tcn.layers.0.conv1.weight_g f4 [16, 1, 1]
0	0x3f1f72df	0.62284654
1	0x3f3f93c2	0.74834836
2	0x3f11e319	0.5698715
3	0x3f1d5910	0.61464024
4	0x3f1d8a5c	0.61539245
5	0x3f0f7376	0.56035554
6	0x3f700ec2	0.9377252
7	0x3f41c974	0.7569802
8	0x3f46cf86	0.77660406
9	0x3f249168	0.6428437
10	0x3f066c4b	0.5250899
11	0x3f0ff8cf	0.56239027
12	0x3f769038	0.9631381
13	0x3f1cdeda	0.61277544
14	0x3f0c34b0	0.54767895
15	0x3f1ba794	0.6080258

tcn.layers.0.conv1.weight_v f4 [16, 16, 5]
0	0xbda6a370	-0.08136642
1	0xbd8fe800	-0.07026672
2	0x3c9c00e3	0.019043392
3	0xbd9594ee	-0.07303797
4	0xbd846a30	-0.06465566
5	0xbd3a42e3	-0.045473944
6	0xbccb0252	-0.02478138
7	0x3d6ba133	0.05752678
8	0x3d943544	0.07236722
9	0x3be3dfdc	0.0069541764
10	0xbbae95ef	-0.005327932
11	0x3da01fdb	0.07818576
12	0xbcb7f83a	-0.02245723
13	0xbd515f3c	-0.051116213
14	0xbdcd095f	-0.10011553
15	0xbc3aa0c1	-0.011390866
16	0x3d5ce027	0.053924706
17	0x3d297bd0	0.041377842
18	0x3da74568	0.08167535
19	0xba8eaddb	-0.0010885553
20	0x3db7d8df	0.08976912
21	0xbd20ce67	-0.03925934
22	0xbd487e19	-0.04894838
23	0xbce59184	-0.028023489
24	0xbdd73d33	-0.1050972
25	0xbd7a3c24	-0.06109251
26	0xbdb4c5c0	-0.0882678
27	0x3c311d75	0.010810246
28	0x3c7fd116	0.015613815
29	0x3983308c	0.00025022437
30	0xbd638ac6	-0.055552267
31	0x3ddcc9c1	0.10780669
32	0xbb25de1c	-0.002530939
33	0x3d877905	0.066148795
34	0x3de48238	0.1115765
35	0xbdbf56ae	-0.09342705
36	0xbd2f9b48	-0.042872697
37	0x3d030a4a	0.031992234
38	0x3d95d2f3	0.07315626
39	0xbd3004fd	-0.042973507
40	0x3d9331d0	0.07187235
41	0xbdb4bce7	-0.08825093
42	0xbd9a40c4	-0.07531884
43	0x3da7623a	0.08173032
44	0xbc99669d	-0.018725688
45	0x3e065e06	0.13121805
46	0x3ca8fef7	0.02062939
47	0xbd181298	-0.037127107
48	0x3db84a54	0.08998552
49	0x3db35137	0.08755725
50	0x3c65b4fe	0.014020203
51	0xbd760922	-0.060067303
52	0x3c1b39aa	0.009474197
53	0xbd425e66	-0.047453307
54	0x3dc1201c	0.094299525
55	0x3ca43bd2	0.020048056
56	0x3c80eff4	0.015739419
57	0x3d43582a	0.0476915
58	0x3c7b66fc	0.015344378
59	0xbdf355cc	-0.11881599
60	0x3dd89acd	0.10576401
61	0x3d9e85f7	0.077403955
62	0xbd7d3905	-0.061821956
63	0x3d996ba9	0.07491238
64	0x3b8eb770	0.0043553635
65	0xbc8895c3	-0.016672974
66	0xbd970006	-0.07373051
67	0xbc8b41f2	-0.016999219
68	0xbdd91373	-0.10599413
69	0x3d647264	0.055773154
70	0x3da03e0e	0.07824336
71	0xbcfa4689	-0.030551212
72	0x3dc7a0e0	0.09747481
73	0xbd3f49cd	-0.04670124
74	0x3cc1aefa	0.023643006
75	0xbd94525a	-0.0724227
76	0xbc7e1e58	-0.015510164
77	0x3cdc9520	0.026926577
78	0x3cedac32	0.029012773
79	0xbcea553f	-0.028605102
80	0xbb8cec33	-0.004300618
81	0x3de41230	0.111362815
82	0x3dd37850	0.10325682
83	0x3d82bbf9	0.06383509
84	0xbb88bb03	-0.004172684
85	0x3d469d80	0.048490047
86	0x3d2c1d6c	0.042020246
87	0x3de17bc8	0.110099375
88	0x3da83ae0	0.082143545
89	0x3da28789	0.079360075
90	0x3b866f77	0.004102643
91	0xbcc2411b	-0.023712685
92	0xbc8187c5	-0.01581181
93	0x3daecb66	0.08534889
94	0x3d75b35d	0.059985507
95	0xbdb3dc90	-0.08782303
96	0xbc35fc3f	-0.011107503
97	0xbdbbc8ee	-0.09169184
98	0xbd9e7750	-0.07737601
99	0x3c98bdf9	0.018645274
100	0xbd457094	-0.048203066
101	0xbdb18863	-0.08668592
102	0xbb8fb5d5	-0.0043856897
103	0xbde872f6	-0.11350052
104	0xbdede7c9	-0.11616475
105	0x3ce1e57c	0.027575247
106	0x3d422c8f	0.047405776
107	0x3d20f791	0.039298598
108	0x3d9ea170	0.077456355
109	0xbcc91756	-0.02454726
110	0xbd5c2e1d	-0.053754915
111	0x3bd03dee	0.006355039
112	0x3d94f27f	0.07272815
113	0xbc6ca4a3	-0.014443549
114	0x3cf68c6c	0.030096255
115	0x3cc0aa6b	0.023518762
116	0x3dbf5840	0.09343004
117	0x3daac87c	0.083390206
118	0x3dd7a114	0.1052877
119	0x3ced9400	0.029001236
120	0xbd9dec07	-0.07711034
121	0xbd151bbc	-0.036403403
122	0x3d262b16	0.040568434
123	0x3dafad74	0.085780054
124	0xbc8193c7	-0.015817536
125	0x3ddc47b3	0.10755863
126	0x3d423f90	0.0474239
127	0x3d1be183	0.03805686
128	0x3b69056c	0.003555621
129	0x3c322e99	0.010875368
130	0x3d8e0a0d	0.06935511
131	0xbccd7a54	-0.025082745
132	0x3d160517	0.036625948
133	0xbe022421	-0.12709095
134	0xbdab18b9	-0.08354325
135	0x3d394d5b	0.045239788
136	0x3d999cf0	0.075006366
137	0x3d5af254	0.05345376
138	0x3d15c871	0.03656811
139	0xbd917597	-0.071025066
140	0xbcfd75bf	-0.030939935
141	0xbdc491af	-0.095980994
142	0xbde1c975	-0.11024753
143	0xbd10d465	-0.035358805
144	0xbda3ff23	-0.08007648
145	0x3d8d401c	0.068969935
146	0xbd7e24c8	-0.062046796
147	0x3cd5bbdc	0.026090555
148	0x3d6be650	0.05759269
149	0xbd87184d	-0.06596432
150	0x3d723d4c	0.05914049
151	0x3cbded24	0.023184367
152	0x3d99be12	0.07506956
153	0x3dc5ab63	0.0965183
154	0xbc6e9785	-0.014562492
155	0xbd9b291b	-0.075761996
156	0x3c4f06ff	0.012635945
157	0xbd0e727e	-0.034777157
158	0xbd0378fd	-0.032097805
159	0x3d1ba60a	0.038000144
160	0xbda43bfa	-0.08019252
161	0xbccd1ee3	-0.025039142
162	0x3d9cbf2d	0.076536514
163	0x3d57b407	0.05266192
164	0xbd8c5a71	-0.06853188
165	0x3d19b8e5	0.037529845
166	0xbdb3726c	-0.087620586
167	0xbd856e23	-0.065151475
168	0x3d8d8362	0.06909825
169	0xbce2d945	-0.027691493
170	0xbcb3d9e1	-0.021954479
171	0xbd3c97b9	-0.04604313
172	0xbb84ee59	-0.0040567336
173	0xbdbf79be	-0.09349392
174	0xbc49e5e3	-0.012322876
175	0xbdd7f23d	-0.1054425
176	0x3d03bd3e	0.032162897
177	0xbd89275d	-0.06696961
178	0x3c897611	0.016779931
179	0xbc706bc5	-0.014674132
180	0xbd8eb73f	-0.06968545
181	0xbd30bb70	-0.043147504
182	0xbdb973c9	-0.090552874
183	0xbd643ea9	-0.05572382
184	0x3bf2d19a	0.0074102404
185	0xbde4e97c	-0.11177346
186	0xbdb0d1ce	-0.08633767
187	0x3e02a549	0.12758364
188	0x3d1a96da	0.03774152
189	0xbd259c17	-0.040432062
190	0xbc8a0dd5	-0.016852299
191	0x3dbba4bd	0.09162281
192	0xbd99409a	-0.07483025
193	0xbd42bdda	-0.047544338
194	0xbd94d421	-0.07267023
195	0xbc6cf0a5	-0.014461671
196	0xbc2502f8	-0.010071509
197	0xbdb0ed66	-0.0863903
198	0x3daf3d20	0.085565805
199	0xbd91b6ee	-0.07114969
200	0x3dd72d41	0.105066784
201	0xbd9f50ce	-0.07779084
202	0xbc2f913e	-0.010715781
203	0x3cf92145	0.030411372
204	0xbd219e66	-0.0394577
205	0x3d54d8ec	0.051964685
206	0xbdc96ec0	-0.09835577
207	0xbcc15dff	-0.023604391
208	0xbde2dd71	-0.11077393
209	0xbaed2240	-0.0018091872
210	0x3d9da157	0.07696789
211	0x3dcb27fd	0.099197365
212	0x3c718879	0.01474201
213	0xbd776ac4	-0.060404554
214	0x3ddbed5c	0.10738632
215	0x3ce1e1ec	0.027573548
216	0x3d946094	0.07244983
217	0xbd56e801	-0.05246735
218	0xbd8ab4f4	-0.06772795
219	0xbdbd341d	-0.092384554
220	0x3dda4957	0.1065852
221	0x3b3698c9	0.0027862063
222	0xbdbd1afe	-0.09233664
223	0xbc724515	-0.014786978
224	0xbd6688f6	-0.05628296
225	0x3c114aa3	0.008867892
226	0x3d290e20	0.041273236
227	0xbd5150c9	-0.051102433
228	0x3cbedc11	0.023298295
229	0xbd84503c	-0.06460616
230	0x3c73d36a	0.014881948
231	0xbdcad359	-0.099035926
232	0x3cf1f0f7	0.029533846
233	0x3e0981fc	0.13428491
234	0x3de143fb	0.10999294
235	0x3d2cd326	0.042193554
236	0x3d9d3d76	0.07677738
237	0x3dd42a43	0.10359623
238	0x3d0fea25	0.035135407
239	0x3d41bb87	0.04729798
240	0x3bf3b9b8	0.007437911
241	0x3d9875d0	0.07444346
242	0x3c9c75d5	0.019099155
243	0xbe28aa2f	-0.1647117
244	0xbd94206a	-0.07232745
245	0xbcb8b3d7	-0.022546692
246	0x3d789fc6	0.060699247
247	0xbd9cfeaf	-0.076657645
248	0x3d19af52	0.037520714
249	0xbd35d588	-0.044393092
250	0x3dcfc6c8	0.101453364
251	0x3e0948c5	0.13406666
252	0x3d089764	0.033347502
253	0x3e1719ad	0.14755888
254	0x3bc57835	0.0060262927
255	0xbdb2cc74	-0.087304026

tcn.layers.0.conv2.bias f4 [16]
0	0xbd898243	-0.067142986
1	0xbc2629aa	-0.010141769
2	0xbcd02849	-0.025409834
3	0xbd112bc3	-0.035442125
4	0xbd2cf96b	-0.04223005
5	0x3d4584a0	0.048222184
6	0xbd83accb	-0.06429442
7	0x3de87580	0.11350536
8	0xbc7a7d95	-0.01528873
9	0x3d406bb4	0.046977714
10	0x3d7d3b2c	0.06182401
11	0xbd538083	-0.05163623
12	0x3dc91c32	0.09819831
13	0x3cb3720b	0.021904966
14	0x3bb91526	0.005648273
15	0xbde5a44a	-0.11212976

tcn.layers.0.conv2.weight_g f4 [16, 1, 1]
0	0x3f26beee	0.65135086
1	0x3f16a07b	0.58838624
2	0x3f3ac1c1	0.72951895
3	0x3f0a0bf1	0.5392447
4	0x3f532861	0.8248349
5	0x3f1c8b69	0.61150223
6	0x3f307f53	0.6894428
7	0x3f25301e	0.64526546
8	0x3f2c328d	0.67264634
9	0x3f12655b	0.57185906
10	0x3f16175a	0.5862938
11	0x3f35c4b3	0.71003264
12	0x3f2a50f0	0.6652975
13	0x3f13de1e	0.577608
14	0x3f2722be	0.6528739
15	0x3f2b0271	0.668006

tcn.layers.0.conv2.weight_v f4 [16, 16, 5]
0	0x3e20f9bf	0.1572027
1	0x3da232f7	0.07919877
2	0x3da7500d	0.08169565
3	0xbd6e16da	-0.05812726
4	0x3ba566c7	0.0050476524
5	0x3dc6a9b7	0.09700339
6	0x3e08f2d1	0.13373877
7	0x3d17e9fc	0.03708838
8	0x3e0b3cbf	0.13597392
9	0x3e0ad7b6	0.1355885
10	0xbc8e8027	-0.017395092
11	0x3cce1682	0.025157217
12	0xbd1b9c2b	-0.03799073
13	0xbd69eea5	-0.057112355
14	0x3d686b98	0.056743234
15	0x3cac6755	0.021045366
16	0x3cab73c0	0.020929217
17	0xbd1fcc5f	-0.039013263
18	0xbdcfd14d	-0.10147343
19	0xbd49c871	-0.04926342
20	0x3dba0653	0.090832375
21	0xbcfe49d2	-0.03104106
22	0x3c864f07	0.016395105
23	0x3d5c1240	0.053728342
24	0x3d8628bf	0.065507405
25	0xbd94bee6	-0.072629735
26	0xbd1d4ff2	-0.03840632
27	0xbdbe35f6	-0.09287636
28	0x3d5c87c9	0.053840432
29	0xbdd255da	-0.10270281
30	0xbd8259fa	-0.06364818
31	0xbd45a030	-0.04824847
32	0x3dc719e7	0.09721737
33	0x3da8640e	0.08222209
34	0x3cce05d5	0.025149265
35	0x3d4156fb	0.04720209
36	0xbe0f9b03	-0.14023976
37	0xbdf2a0c1	-0.118470676
38	0xbe264a06	-0.16239175
39	0xbd52fde9	-0.05151168
40	0xbb39a46f	-0.002832677
41	0xbcc218d0	-0.023693472
42	0xbdec16e7	-0.11527806
43	0xbc75592f	-0.014974876
44	0xbd6305f9	-0.055425618
45	0x3d36bd5d	0.044614185
46	0xbd4730a3	-0.048630368
47	0xbc0c428a	-0.008560786
48	0xbd2f5804	-0.042808548
49	0x3decd2b4	0.11563626
50	0xbd37a37f	-0.044833656
51	0x3cd3b37d	0.025842423
52	0x3d6fcc05	0.058544178
53	0x3d201e00	0.03909111
54	0x3d8f5e74	0.070004374
55	0x3cfb865c	0.030703716
56	0x3d23823e	0.03991913
57	0xbc194090	-0.009353772
58	0x3d19fa98	0.0375925
59	0xbd78909d	-0.06068479
60	0xbd562e31	-0.052290145
61	0x3d3f4831	0.046699706
62	0x3c85b930	0.016323656
63	0xbd609c02	-0.05483628
64	0xbe17b228	-0.14814055
65	0x3b3e07da	0.002899638
66	0x3cb71f37	0.022353752
67	0xbd570f13	-0.05250461
68	0xbcde8cc4	-0.027166732
69	0x3c95ceb0	0.018287033
70	0xbd7815f6	-0.06056782
71	0x3d0c548d	0.03426032
72	0x3c305bb6	0.010764053
73	0x3c2264ba	0.00991171
74	0x3def6e47	0.116909556
75	0x3d9fdfa1	0.07806326
76	0xbb3ebe38	-0.0029105078
77	0x3d6e9a4a	0.05825261
78	0xbd43d28e	-0.047808222
79	0x3bd6853a	0.0065466436
80	0x3cba9746	0.02277721
81	0xbd4b6196	-0.049653612
82	0x3d60fd3a	0.054928996
83	0x3d925d08	0.071466506
84	0x3cfb7725	0.030696461
85	0x3e12b5d9	0.14327182
86	0x3de80345	0.113287486
87	0x3dfd6a95	0.123738445
88	0x3d173a90	0.036921084
89	0x3cc20d11	0.023687871
90	0xbc0f2ecb	-0.008739184
91	0xba392b0f	-0.0007063606
92	0xbd953393	-0.072852276
93	0xbc69cd0b	-0.014270077
94	0xbdb3823e	-0.08765076
95	0xbda869db	-0.08223315
96	0xbdcf7ab2	-0.10130824
97	0x3d975104	0.073884994
98	0xbd8e9a4f	-0.06963026
99	0xbc8d6c30	-0.017263502
100	0x3d30e7ae	0.043189697
101	0x3dcd1931	0.100145705
102	0x3cefc977	0.02927087
103	0xbd88d9db	-0.06682178
104	0x3cd63ae7	0.026151134
105	0xbdd50805	-0.1040192
106	0x3c84f2de	0.01622909
107	0x3dcb305b	0.099213324
108	0x3dc1decd	0.09466324
109	0xbcce2b1d	-0.025167042
110	0xbdf2d695	-0.118573345
111	0x3c92599c	0.017864995
112	0x3d5438f2	0.05181212
113	0xbdd5ba74	-0.10435954
114	0xbd856c7a	-0.06514831
115	0xbd4c4282	-0.049868114
116	0x3d618f91	0.055068556
117	0x3d6608c0	0.05616069
118	0x3db4b881	0.08824254
119	0x39033254	0.00012511882
120	0xbe01bc5b	-0.12669508
121	0xbd7ca9e4	-0.061685458
122	0xbdc4da3e	-0.09611939
123	0xbd231325	-0.03981318
124	0x3ce057bd	0.027385587
125	0xbd523e90	-0.051329195
126	0x3ca7bc49	0.020475524
127	0xbd5ab684	-0.053396717
128	0xbd4dd46d	-0.050251413
129	0xbd38308a	-0.044968165
130	0xbc931c45	-0.017957816
131	0xbd174449	-0.036930356
132	0x3d0ed10e	0.03486734
133	0x3da85c62	0.082207456
134	0x3dce486c	0.10072407
135	0x3d4292b7	0.0475032
136	0x3c513084	0.012767915
137	0xbb165d64	-0.0022943849
138	0x3dc6203c	0.09674117
139	0xbd48aee1	-0.048994903
140	0x3d543cf3	0.05181594
141	0xbdc38763	-0.09547307
142	0xbd7eb884	-0.062187687
143	0x3d04c483	0.03241397
144	0x3b595565	0.0033162471
145	0x3cd01060	0.025398433
146	0x3dbfee4d	0.09371624
147	0x3d74c7bf	0.059760805
148	0x3dde8aa9	0.10866291
149	0xbd0d06d5	-0.034430344
150	0xbd6e6a84	-0.05820705
151	0xbcd09e1b	-0.025466016
152	0xbceeb93b	-0.02914106
153	0xbd78e420	-0.060764432
154	0xbc3ff912	-0.011717098
155	0x3dba5bf2	0.090995684
156	0xbd832a5e	-0.06404565
157	0x3d420df6	0.047376595
158	0x3d1b688c	0.0379415
159	0x3d598457	0.053104725
160	0x3da1c567	0.0789898
161	0x3cab5d50	0.020918518
162	0x3d25971a	0.040427305
163	0x3b8ee990	0.004361339
164	0xbc0b171f	-0.008489399
165	0x3cd527ca	0.02601995
166	0xbc188f55	-0.009311517
167	0xbd940505	-0.0722752
168	0xbd922f9b	-0.07137986
169	0xbd99ebc1	-0.075156696
170	0xbc3a5c08	-0.011374481
171	0x3cfc4d93	0.030798709
172	0xbd76230a	-0.06009201
173	0xbd5e17ca	-0.054221906
174	0x3cbf1d5c	0.02332943
175	0x3b9c02c1	0.0047610705
176	0x3c71a4bf	0.014748751
177	0x3c959bc3	0.01826275
178	0x3de74071	0.11291588
179	0x3d2d775b	0.042350154
180	0xbd073b1e	-0.033015363
181	0xbd148c37	-0.03626653
182	0xbd12a1f9	-0.035799
183	0xbd53bb83	-0.051692497
184	0xbd37681c	-0.04477702
185	0xbd62fe05	-0.055418033
186	0xbcac89b8	-0.021061763
187	0xbc9d0671	-0.01916811
188	0xbd827062	-0.063690916
189	0x3d64194d	0.05568819
190	0x3d3006cb	0.04297523
191	0xbd9da9ba	-0.076983884
192	0xbe2bb52e	-0.16768333
193	0xbe080779	-0.132841
194	0xbdf7356b	-0.120707355
195	0x3d1a4172	0.03766007
196	0x3d94dcd8	0.07268685
197	0x3d70e504	0.058812156
198	0x3dc5a666	0.096508786
199	0x3d856b86	0.06514649
200	0x3d7856e7	0.06062975
201	0x3e224418	0.15846288
202	0x3e1776e1	0.14791442
203	0x3e05aa1a	0.1305317
204	0x3daa1396	0.08304517
205	0xbced695e	-0.028980907
206	0x3dab16e6	0.08353977
207	0x3dd655b6	0.10465567
208	0x3d841508	0.06449324
209	0x3d99a245	0.075016536
210	0x3d1c1252	0.03810341
211	0xbd1a8511	-0.03772456
212	0xbca3b161	-0.019982042
213	0xbd824463	-0.063607
214	0xbd6d2009	-0.05789188
215	0x3d4fb835	0.050712783
216	0x3d15f36c	0.0366091
217	0xbc6776d0	-0.014127448
218	0xbb8ae67c	-0.0042389017
219	0xbbbeb868	-0.005820323
220	0xbd3192a4	-0.043352738
221	0xbdf21109	-0.118196554
222	0xbdda50a8	-0.10659915
223	0xbdb01fc4	-0.08599809
224	0xbca85a04	-0.020550735
225	0x3d6436bd	0.055716265
226	0x3d201267	0.03908005
227	0x3d42b0b8	0.047531813
228	0xbc92cc81	-0.01791978
229	0xbca6c194	-0.020355977
230	0x3d810ce0	0.06301284
231	0xbc539306	-0.012913471
232	0x3ce5b982	0.028042559
233	0xbdcd9bf2	-0.1003951
234	0xbcd325e5	-0.025774905
235	0x3c36221a	0.011116529
236	0xbd63ccc8	-0.055615216
237	0xbd7c5997	-0.061608877
238	0xbc9ec6b5	-0.01938186
239	0xbd194e10	-0.03742796
240	0x3d91247f	0.07087039
241	0xbdd44d1a	-0.103662685
242	0x3d75ad89	0.05997995
243	0xbd2b1b3d	-0.041774023
244	0x3b2fc7e1	0.0026822018
245	0x3d31ae6e	0.04337924
246	0xbdf7ed17	-0.12105768
247	0xbcb7dc4d	-0.022443915
248	0xbdfc69f8	-0.123248994
249	0x3c34b2e5	0.01102898
250	0x3d12a9a1	0.035806302
251	0x3c9aab94	0.018880643
252	0xbd15d1ed	-0.036577154
253	0x3d43edfc	0.04783438
254	0xbd5b2d92	-0.053510256
255	0x3c818ac6	0.015813243

tcn.layers.1.conv1.bias f4 [16]
0	0xbde71534	-0.11283341
1	0xbda3e4cc	-0.08002624
2	0x3d87058b	0.06592854
3	0xbcb958b8	-0.022625312
4	0xbd452ceb	-0.04813854
5	0x3b8b30c1	0.0042477553
6	0xbcff641d	-0.031175667
7	0xbd8a95d4	-0.06766859
8	0xbda99cb8	-0.08281845
9	0xbd80a4f7	-0.062814645
10	0xbe0c3eb3	-0.13695793
11	0xbdfe7b09	-0.12425811
12	0xbbc4b224	-0.0060026813
13	0x3d8f8c05	0.070091285
14	0x3dab445d	0.08362649
15	0x3bd3e09c	0.0064659845

tcn.layers.1.conv1.weight_g f4 [16, 1, 1]
0	0x3f12751e	0.57209957
1	0x3f488234	0.78323674
2	0x3f0ef5a3	0.5584356
3	0x3f17834f	0.59184736
4	0x3f1d30d2	0.6140262
5	0x3f0f3cb0	0.55951977
6	0x3f13a4c4	0.5767329
7	0x3f301019	0.68774563
8	0x3f4c2278	0.79740095
9	0x3f1e5337	0.61845726
10	0x3f1c9585	0.6116565
11	0x3f27c836	0.6553987
12	0x3f7e9982	0.99452984
13	0x3f3e06a1	0.74228865
14	0x3f1a0f5a	0.60179675
15	0x3f185bed	0.5951527

tcn.layers.1.conv1.weight_v f4 [16, 16, 5]
0	0x3cc97b07	0.024594797
1	0x3d405cc0	0.046963453
2	0x3cf44ff1	0.029823275
3	0x3bdc0ab3	0.0067151426
4	0x3dcfad16	0.101404354
5	0x3dc8be2e	0.09801899
6	0x3db491d8	0.0881688
7	0xbb95a66e	-0.004566959
8	0x3d02b075	0.031906564
9	0xbd864733	-0.06556549
10	0xbda7612e	-0.081728324
11	0xbcb6be3e	-0.022307511
12	0xbc4238f9	-0.011854404
13	0xbd9e0cd2	-0.07717289
14	0xbddfd9b9	-0.10930199
15	0x3d2aac01	0.041667942
16	0x3cfce1e7	0.030869437
17	0xbda8eb48	-0.08248001
18	0x3d84d994	0.06486812
19	0xbdb9cdf0	-0.090724826
20	0x3da03d4d	0.07824192
21	0x3d41b411	0.047290865
22	0xbd5bab5d	-0.05363022
23	0x3dac7587	0.08420854
24	0xbd9e8114	-0.077394634
25	0xbd50926b	-0.050920885
26	0x3daaaad4	0.08333364
27	0xbcae4911	-0.021275075
28	0xbd326c5e	-0.04356038
29	0x3c92287d	0.017841572
30	0xbcd90bf9	-0.026494967
31	0x3d64df4c	0.055877015
32	0x3dbcfb5d	0.09227631
33	0x3d4b9026	0.049698018
34	0x3d16af6b	0.036788385
35	0x3ca4ed16	0.020132583
36	0xbbc18fdb	-0.0059070415
37	0x3b8165f2	0.0039489204
38	0xbb99c5d3	-0.004692772
39	0x3d8bc56a	0.06824763
40	0x3d61f2a6	0.05516305
41	0xbca68522	-0.020327155
42	0x3cf34135	0.02969418
43	0xbb8248f6	-0.003975983
44	0x3cf0c55d	0.029390985
45	0x3dccc23a	0.09997983
46	0xbd769e55	-0.06020959
47	0x3cdbef86	0.026847612
48	0xbc88d6a6	-0.016703915
49	0xbdd22efd	-0.102628686
50	0xbde6337a	-0.11240287
51	0xbcf18889	-0.02948405
52	0x3d91ea64	0.071247846
53	0xbdaa013c	-0.08301017
54	0x3d07fbb1	0.033199016
55	0x3d74619d	0.059663404
56	0xbdae0d39	-0.08498616
57	0x3d277dca	0.040891446
58	0x3c462d3b	0.012095745
59	0xbde2fa08	-0.11082846
60	0xbb2f9fae	-0.0026798057
61	0xbdde8559	-0.10865278
62	0x3daedf88	0.08538729
63	0x3d037b56	0.032100044
64	0x3c969ab2	0.018384311
65	0x3d9fc1bd	0.078006245
66	0x3d9f50df	0.07779097
67	0x3dd38795	0.103285946
68	0x3d22a9de	0.03971278
69	0xbdaf5e6a	-0.0856293
70	0x3de0cc40	0.109764576
71	0x3d29417d	0.04132222
72	0xbcc15b67	-0.023603154
73	0xbcaaf65c	-0.020869426
74	0x3dee0765	0.11622504
75	0x3c5799bf	0.0131592145
76	0x3d880303	0.066411994
77	0xbbc7f4e1	-0.00610219
78	0x3db0b8f7	0.08629029
79	0xbdbfdd60	-0.09368396
80	0x3d4e6237	0.050386634
81	0x3d8673d7	0.065650634
82	0x3bfb7e66	0.00767498
83	0x3d920a21	0.07130838
84	0xb9a3e5fd	-0.00031261137
85	0x3c69b7cf	0.014265015
86	0x3da47fac	0.08032164
87	0x3c6c1d62	0.014411302
88	0x3c202986	0.009775525
89	0xbd93722d	-0.07199512
90	0xbe00fcfe	-0.12596509
91	0xbde38030	-0.11108434
92	0x3dc4ef5e	0.09615968
93	0x3e108e6a	0.14116827
94	0xbd55d298	-0.05220279
95	0xbd91dcbe	-0.07122181
96	0x3dc98f29	0.09841759
97	0xbd4380eb	-0.047730368
98	0x3db4aeda	0.08822413
99	0x3dc36adc	0.09541866
100	0xbd9b4e2f	-0.07583272
101	0xbdd05c52	-0.10173859
102	0x3d8095b3	0.06278553
103	0x3d53d0de	0.051712863
104	0x3d8fc7b3	0.070205115
105	0x3ca1b59b	0.019739917
106	0x3cc72812	0.0243111
107	0xbdc7be4c	-0.09753093
108	0xbbab6436	-0.005230452
109	0x3c935ee6	0.017989587
110	0x3db409f0	0.08790958
111	0xbd03fc63	-0.032223117
112	0xbd10e71d	-0.035376657
113	0xbdbc3793	-0.091902874
114	0xbdae8a8e	-0.08522521
115	0x3d281962	0.041039832
116	0x3cdd61e5	0.027024219
117	0x3d43629f	0.047701474
118	0xbc258454	-0.01010235
119	0xbc8a230c	-0.016862415
120	0xbc988840	-0.018619657
121	0x3d86e109	0.06585891
122	0xbd72287d	-0.059120644
123	0x3c8f68b9	0.01750599
124	0x3d26977b	0.040671807
125	0x3d6d068f	0.057867583
126	0xbd63e49c	-0.05563794
127	0x3d9ce724	0.07661274
128	0xbcf30a6b	-0.029668054
129	0x3d9c7863	0.076401494
130	0x3d9df227	0.077122025
131	0x3b338ecb	0.0027398344
132	0x3cbf520b	0.02335455
133	0xbddace8e	-0.106839284
134	0xbd4f77a5	-0.05065121
135	0xbd904ead	-0.07046256
136	0xbdfe1750	-0.1240679
137	0xbc65657e	-0.014001248
138	0x3dca2add	0.09871457
139	0x3ba40ccc	0.0050064083
140	0xbd0e6ecf	-0.034773644
141	0xbe4a349d	-0.19746633
142	0x3d24618e	0.040132098
143	0x3e1db835	0.154023
144	0x3de839c2	0.113391414
145	0xbd37de24	-0.044889584
146	0xbdd4f6c0	-0.10398626
147	0xbd3c4019	-0.045959566
148	0x3d9855b0	0.074382186
149	0x3b8520a5	0.0040627294
150	0x3e03fe36	0.12889943
151	0xbd388965	-0.045052905
152	0xbd89dfd0	-0.06732142
153	0x3cf69f53	0.030105269
154	0x3cafa224	0.02143962
155	0xbdc3076f	-0.09522902
156	0x3db74ae2	0.0894983
157	0xbcd4cb74	-0.02597592
158	0xbda059df	-0.078296416
159	0x3cd59cef	0.026075808
160	0xbd9b210b	-0.07574662
161	0xbd4e6b73	-0.05039544
162	0xbd67e08f	-0.05661064
163	0x3d208034	0.039184764
164	0x3d9b084a	0.075699404
165	0x3d85e807	0.06538396
166	0xbd921fd9	-0.07134981
167	0xbd1bc12d	-0.038026024
168	0x3dbac062	0.09118725
169	0xbd9536de	-0.07285856
170	0xbb9bfc4f	-0.004760302
171	0xbcd76892	-0.02629498
172	0xbdd5c6d5	-0.10438315
173	0xbdc886f7	-0.097913675
174	0x3db1649c	0.08661768
175	0x3c98f9ce	0.018673804
176	0x3c77b77f	0.0151194325
177	0x3d348588	0.044072658
178	0x3d8d6a59	0.0690505
179	0x3da45a9d	0.080250956
180	0x3dbe99a2	0.09306647
181	0x3c8f83b5	0.017518857
182	0x3d742dc5	0.05961396
183	0x3d645f01	0.055754665
184	0xbc5c654e	-0.013451887
185	0x3bdb0ddd	0.0066850022
186	0xbd6043a9	-0.054752026
187	0xbd9caa24	-0.07649639
188	0x3dd8a466	0.105782315
189	0xbda6653c	-0.08124778
190	0xbd91af3f	-0.07113504
191	0xbdcbdfbb	-0.099547826
192	0xbd9acbd3	-0.07558408
193	0x3d019aae	0.031641655
194	0x3d7664f3	0.060154866
195	0xbdb7b6ee	-0.08970438
196	0x3bbc3fe7	0.0057449224
197	0xbda2cb31	-0.07948912
198	0x3cdcfe61	0.026976766
199	0x3daa771c	0.083234996
200	0xbd44ed1d	-0.04807769
201	0xbd924a3a	-0.07143064
202	0x3d5e194e	0.05422335
203	0xbd919a39	-0.07109494
204	0x3a23d430	0.0006249575
205	0xbdb0de7a	-0.08636184
206	0x3da2a3f0	0.07941425
207	0x3ccdbc82	0.025114302
208	0xbd49e79f	-0.049293157
209	0x3d7d8be2	0.06190098
210	0x3dd51637	0.10404628
211	0x3d59cadb	0.053171974
212	0xbd90f106	-0.070772216
213	0xbcab3243	-0.02089799
214	0x3dcd2948	0.100176394
215	0x3de3afb7	0.11117499
216	0xbc23a59f	-0.009988218
217	0x3d8dd22b	0.06924852
218	0xbd983a42	-0.07432987
219	0xba63a07f	-0.00086832786
220	0x3e11ca0a	0.14237228
221	0x3d0f2b88	0.034953624
222	0xbddb90bb	-0.107209645
223	0xbb7be2f2	-0.003843483
224	0x3d14b497	0.036305036
225	0x3daca17f	0.084292404
226	0xbd890693	-0.06690707
227	0xbc702933	-0.01465826
228	0xbb4a290d	-0.0030847222
229	0xbc8dbb53	-0.017301237
230	0xbd0f9eb3	-0.035063457
231	0xbd21ba8f	-0.039484557
232	0x3d1ebdd6	0.03875526
233	0x3d39802f	0.04528826
234	0xbd105612	-0.035238333
235	0x3dbdbff6	0.09265129
236	0xbcb34cda	-0.021887232
237	0x3ba3a6e1	0.0049942588
238	0x3c152e15	0.009105225
239	0xbcf03927	-0.029324127
240	0xbbacdbb5	-0.0052752146
241	0xbcc83c98	-0.024442956
242	0x3d0ad5a7	0.03389516
243	0xbd7cac3c	-0.061687693
244	0xbd225bd0	-0.03963834
245	0xbdbd22c0	-0.09235144
246	0xbd0c3e0d	-0.034238864
247	0x3d4312a3	0.047625195
248	0x3dc662e3	0.0968683
249	0xbdd05545	-0.10172514
250	0x3c0a404c	0.008438181
251	0x3e0c016f	0.13672422
252	0xbd5e3044	-0.05424525
253	0x3d49ecdb	0.04929815
254	0x3ae49219	0.001743856
255	0xbdcb508b	-0.09927472

tcn.layers.1.conv2.bias f4 [16]
0	0x3b834a99	0.0040066955
1	0x3d9884e1	0.0744722
2	0x3cd75e14	0.026289977
3	0x3ceb0c55	0.028692404
4	0xbb2cb790	-0.002635453
5	0x3d9114ac	0.07084021
6	0x3bffe8ee	0.00780975
7	0x3d3bae78	0.045820683
8	0xbd80caaf	-0.06288659
9	0x3da62ac5	0.081136264
10	0x3d598573	0.053105783
11	0x3d366580	0.04453039
12	0x3cc5d9c3	0.024151688
13	0x3d98acef	0.074548595
14	0x3dac5aed	0.0841578
15	0x3b4cfbbf	0.0031277982

tcn.layers.1.conv2.weight_g f4 [16, 1, 1]
0	0x3f0734a0	0.52814674
1	0x3f144c8e	0.57929313
2	0x3f17b88c	0.5926597
3	0x3f0684c1	0.52546316
4	0x3f484ddb	0.782438
5	0x3f19834b	0.5996596
6	0x3f2cd932	0.67518914
7	0x3f2dca72	0.6788703
8	0x3f257275	0.6462777
9	0x3f49426c	0.78616977
10	0x3f067f8e	0.52538383
11	0x3f1e0d7b	0.6173932
12	0x3f19ddcc	0.6010406
13	0x3f184872	0.5948554
14	0x3f4057fb	0.7513425
15	0x3f15b8e9	0.58485276

tcn.layers.1.conv2.weight_v f4 [16, 16, 5]
0	0x3dbb3c89	0.091424055
1	0x3d948ea0	0.07253766
2	0xbd896107	-0.067079596
3	0xbd5f2d51	-0.054486576
4	0xbcd93024	-0.026512213
5	0xbe48e6c7	-0.19619285
6	0xbd58bb0b	-0.052912753
7	0xbcd2d0d6	-0.025734346
8	0xbdef7316	-0.11691873
9	0x3d072f11	0.03300387
10	0xbda37d87	-0.07982927
11	0x3db26efb	0.08712574
12	0x3d6a6a5f	0.05723035
13	0xbd358883	-0.04431964
14	0x3db93c90	0.090447545
15	0xbda26787	-0.079299025
16	0x3da50709	0.080579825
17	0xbd2d722e	-0.04234522
18	0x3d3b9842	0.0457995
19	0x3da677d2	0.08128323
20	0x3d0cca9a	0.034372903
21	0x3c5ba864	0.013406847
22	0xbca69503	-0.020334726
23	0xbbb523bc	-0.0055279415
24	0x3da39da6	0.079890534
25	0xbd075213	-0.033037256
26	0xbc6e27bc	-0.014535841
27	0x3c186895	0.009302278
28	0xbd7d07a0	-0.06177485
29	0xbd82eac7	-0.063924365
30	0x3c8b4e54	0.017005123
31	0x3db6fe9b	0.08935281
32	0x3d161ddc	0.03664957
33	0xbd7a29c2	-0.06107498
34	0x3da2cc99	0.0794918
35	0xbce7bb0c	-0.028287433
36	0x3cc04561	0.023470582
37	0x3bd82bf7	0.006597038
38	0x3d38b823	0.04509748
39	0xbc8bfba1	-0.01708776
40	0xbd8019e4	-0.06254938
41	0xbd16cf69	-0.036818895
42	0xbd221aa2	-0.03957618
43	0xbd62c96f	-0.055367883
44	0x3dad7b02	0.084707275
45	0xbd10e6d8	-0.0353764
46	0x3b833162	0.0040036896
47	0xbd9c2cdd	-0.076257445
48	0xbbeeb1b8	-0.0072843693
49	0xbc73dc6f	-0.014884098
50	0xbd6b0e6a	-0.057386793
51	0x3d501df7	0.050809827
52	0xbda9ddcf	-0.0829426
53	0x3cbf4e5a	0.02335279
54	0xbc04c7c2	-0.008104267
55	0xbd937a5a	-0.07201071
56	0x3d9ea3d0	0.077460885
57	0x3d3086ab	0.04309718
58	0x3c780350	0.0151375085
59	0xbc675692	-0.014119761
60	0x3d65f6b2	0.05614347
61	0xbd958a9d	-0.07301829
62	0xbdf109dd	-0.117694594
63	0x3d4a006a	0.0493168
64	0xbd7447c9	-0.059638772
65	0xbbb9074e	-0.0056466227
66	0xbde909ae	-0.113787994
67	0xbc7b057f	-0.015321135
68	0x3d343b01	0.044001583
69	0xbdd45cb7	-0.103692465
70	0x3b45e61b	0.0030196968
71	0xbde6d66e	-0.11271368
72	0x3d445f99	0.04794273
73	0x3db00356	0.08594386
74	0xbd829651	-0.06376327
75	0x3cc41f39	0.02394067
76	0xb8adde59	-8.290698e-05
77	0xbcda432a	-0.026643354
78	0x3d9ed24b	0.07754954
79	0xbd16b245	-0.036791105
80	0xbc94ee93	-0.018180167
81	0xbbd08472	-0.006363445
82	0xbdc167e4	-0.09443644
83	0x3d319c5d	0.04336201
84	0x3d842c24	0.06453732
85	0xbe01742d	-0.12641974
86	0xbbdafa91	-0.006682702
87	0xbd9caa85	-0.076497115
88	0x3d4fde19	0.05074892
89	0xbde7ba4e	-0.11314832
90	0x3db06a8c	0.08614072
91	0xbd6102d2	-0.05493433
92	0x3d8c8c9b	0.06862756
93	0xbd8a3506	-0.06748395
94	0x3c1cc9cb	0.009569596
95	0x3c5c3369	0.0134399915
96	0x3d61ac45	0.05509593
97	0x3d1be5a6	0.038060807
98	0x3d3025cf	0.043004807
99	0xbd208e1f	-0.039198037
100	0xbd753347	-0.059863355
101	0x3cde2f7a	0.027122248
102	0x3df8f31f	0.12155747
103	0x3de7d584	0.11320022
104	0xbd4052ef	-0.04695409
105	0x3d751cb5	0.05984183
106	0x3d2aa8f8	0.041665047
107	0xbca776a8	-0.020442322
108	0x3d4c482c	0.049873516
109	0xbcc2dfd2	-0.023788366
110	0x3c27d7e1	0.010244341
111	0xbda159c9	-0.07878453
112	0xbca8aaa0	-0.020589173
113	0x3dd2974f	0.10282766
114	0x3d8163a0	0.0631783
115	0xbde763a7	-0.11298304
116	0xbcb4b57c	-0.022059195
117	0x3d39a11c	0.04531966
118	0xbd676f3e	-0.056502573
119	0xbcabdb0a	-0.02097847
120	0x3d650359	0.055911396
121	0x3dc672f0	0.09689891
122	0x3dc148e4	0.09437731
123	0xbda36681	-0.079785354
124	0xbdcddf5c	-0.10052368
125	0x3d9c0788	0.07618624
126	0xbc84771a	-0.016170073
127	0x3dae8ebb	0.085233174
128	0x3da66d32	0.08126296
129	0xbd4f62fb	-0.050631505
130	0x3d4a1109	0.049332652
131	0x3d5a49c7	0.053293016
132	0xbc748fab	-0.014926831
133	0x3def8893	0.11695971
134	0x3ce4e3c0	0.02794063
135	0xbcd8d10e	-0.026466873
136	0xbdb0ce94	-0.08633152
137	0x3dc65605	0.09684376
138	0xbdc8db15	-0.098074116
139	0x3dcf20ce	0.10113679
140	0xbd80320a	-0.06259544
141	0xbd3a9a23	-0.045557152
142	0xbcbf7802	-0.023372654
143	0x3d98c2d0	0.074590325
144	0xbdce6a4a	-0.10078867
145	0xbde1e99c	-0.110308856
146	0x3d972098	0.07379264
147	0xbda9ba05	-0.082874335
148	0xbc944862	-0.018100921
149	0x3d4a090f	0.049325045
150	0xbd463810	-0.04839331
151	0x3d896edc	0.06710598
152	0xbd2b8584	-0.041875377
153	0x3db961d8	0.09051865
154	0x3dfc8f7b	0.12332054
155	0xbbb51311	-0.0055259545
156	0xbd6dc94b	-0.058053296
157	0x3d13dc2e	0.03609865
158	0x3c0cf462	0.008603187
159	0xbbebb497	-0.007193159
160	0x3dab5055	0.083649315
161	0xbce0b293	-0.0274289
162	0x3cde9beb	0.027173957
163	0xbd377b20	-0.044795156
164	0xbd3f93a5	-0.046771664
165	0x3d19d83d	0.037559737
166	0x3ba888ac	0.0051432457
167	0xbcad5272	-0.021157477
168	0x3cef2c63	0.02919597
169	0x3b38db18	0.0028206762
170	0xbd6d6b65	-0.057963748
171	0x3ddd68ac	0.1081098
172	0x3d883a84	0.06651786
173	0x3d368e4e	0.044569306
174	0x3c05ba95	0.00816216
175	0xbd7dc0db	-0.0619515
176	0xbd953ca6	-0.072869584
177	0xbc0220b8	-0.007942371
178	0xbdcce365	-0.100043096
179	0x3cb3310b	0.021873971
180	0xbd58360f	-0.05278593
181	0xbd88646d	-0.0665978
182	0xbce5ae8d	-0.028037334
183	0x3dadabeb	0.084800564
184	0x3dddeb1b	0.108358584
185	0xbdd0fb59	-0.10204191
186	0xbdb80b21	-0.08986498
187	0x3ce97266	0.028496932
188	0xbd0ff4fc	-0.035145745
189	0xbdd8c54c	-0.105845064
190	0x3d04f5fe	0.03246116
191	0xbdc6526b	-0.09683689
192	0x3b0871f2	0.002081987
193	0x3d1cbea3	0.038267743
194	0x3dc3d5cd	0.09562264
195	0xbdc11ffa	-0.09429927
196	0x3db28376	0.087164804
197	0x3b8615dc	0.0040919613
198	0x3dc279a5	0.09495858
199	0x3dac5402	0.08414461
200	0xbc2ee832	-0.010675477
201	0xbc362690	-0.011117592
202	0xbd1543c5	-0.036441583
203	0x3d7ec241	0.062196974
204	0xbd8a17a6	-0.06742792
205	0x3dcf02ee	0.10107981
206	0x3d9290ab	0.071564995
207	0x3dec1036	0.115265295
208	0x3dc5f81d	0.096664645
209	0x3dc897b0	0.09794557
210	0xbd97238f	-0.07379829
211	0xbd3ef0a5	-0.046616215
212	0xbd8ed095	-0.069733776
213	0x3d5c878d	0.05384021
214	0x3cd79fd0	0.026321322
215	0x3c96da99	0.018414782
216	0x3c5137cf	0.012769653
217	0xbca3d579	-0.019999253
218	0x3c99cbeb	0.018773993
219	0xbd9fdbae	-0.078055725
220	0x3dee7873	0.116440676
221	0xbd36791b	-0.04454909
222	0xbdad29e1	-0.084552534
223	0x3d617d82	0.055051334
224	0x3d217be8	0.039424807
225	0x3bfb2ee5	0.0076655024
226	0x3e014032	0.12622145
227	0xbd9a158e	-0.075236425
228	0xbd23a55e	-0.03995263
229	0xbd10e057	-0.035370197
230	0x3d7ece26	0.062208317
231	0xbd5e4464	-0.05426444
232	0x3dca455b	0.0987651
233	0xbd88697f	-0.06660747
234	0xbd4a7ec6	-0.049437307
235	0xbd25929b	-0.040423017
236	0xbdad5ec1	-0.084653385
237	0x3dca2892	0.098710194
238	0xbdba7cea	-0.09105857
239	0xbdc78b04	-0.09743312
240	0xbd1e03f9	-0.038578007
241	0x3da7a118	0.08185023
242	0x3d622af2	0.055216737
243	0x3d001690	0.031271517
244	0xbd3cabff	-0.046062466
245	0xbc947822	-0.01812369
246	0xbacb81f5	-0.0015526401
247	0x3dbf7440	0.09348345
248	0x3db723c6	0.0894237
249	0x3e18436d	0.14869471
250	0x3d912c52	0.070885316
251	0x3c64d94c	0.013967823
252	0xbdfab591	-0.12241662
253	0x3c91152f	0.017710296
254	0xbdbcbf81	-0.09216214
255	0x3c382b23	0.011240753

tcn.layers.2.conv1.bias f4 [16]
0	0xbd543bf5	-0.051814992
1	0x3d0accb3	0.033886623
2	0x3dc8e104	0.09808543
3	0x3cdbbd79	0.026823746
4	0xbd0b5084	-0.034012333
5	0xbda5a8e8	-0.08088857
6	0x3d8d2522	0.06891848
7	0xbd6e1fd0	-0.058135808
8	0xbdb0947e	-0.08622073
9	0x3da7cae8	0.08192998
10	0x3c29d56a	0.010365823
11	0xbccae6ff	-0.02476835
12	0xbdc1d690	-0.09464753
13	0xbc8b3031	-0.016990753
14	0xbd5b7b3e	-0.05358433
15	0xbbeb4062	-0.007179306

tcn.layers.2.conv1.weight_g f4 [16, 1, 1]
0	0x3f2d4bf8	0.67694044
1	0x3f1ca08a	0.61182463
2	0x3f199a82	0.60001385
3	0x3f71de5e	0.9447993
4	0x3f6e39d7	0.93057007
5	0x3f1f0ec1	0.6213189
6	0x3f339522	0.70149434
7	0x3f74c067	0.9560608
8	0x3f1106e6	0.5665115
9	0x3f102c08	0.56317186
10	0x3f030065	0.51172477
11	0x3f111ba8	0.56682825
12	0x3f1272a3	0.5720617
13	0x3f3adb14	0.72990537
14	0x3f16c743	0.588978
15	0x3f6276af	0.88462347

tcn.layers.2.conv1.weight_v f4 [16, 16, 5]
0	0x3dc3a287	0.09552484
1	0xbde1ea84	-0.110310584
2	0xbcc0d6e4	-0.023539968
3	0xbdb2afcb	-0.08724936
4	0x3ca9141f	0.020639477
5	0x3d05d681	0.03267527
6	0x3d61cda6	0.055127762
7	0xbc944d61	-0.018103303
8	0x3d888929	0.06666786
9	0xbceac713	-0.02865938
10	0xbcf775f7	-0.030207617
11	0x3dbae0af	0.09124886
12	0xbdb63154	-0.08896127
13	0x3cdd1509	0.02698757
14	0xbda8fdb1	-0.08251513
15	0x3d145e3e	0.03622269
16	0xbdd1fe1b	-0.10253545
17	0xbde7bf40	-0.11315775
18	0xbd214f53	-0.03938229
19	0x3da3f6c5	0.08006052
20	0x3d34e3cc	0.044162557
21	0x3dcef084	0.101044685
22	0xbd4c1057	-0.04982027
23	0x3d6634dc	0.056202754
24	0xbd804a4a	-0.062641695
25	0xbc890a66	-0.016728591
26	0xbdd7ebd7	-0.1054303
27	0x3b9d62df	0.004803046
28	0x3cdcf993	0.026974475
29	0xbdd1af0d	-0.102384664
30	0x3da4e57e	0.08051585
31	0x3b564334	0.0032693865
32	0x3dbd34a4	0.09238556
33	0xbd4765e9	-0.048681173
34	0xbc019f67	-0.00791154
35	0xbd1d9e97	-0.03848132
36	0x3da2dabf	0.07951879
37	0xbda81991	-0.082080014
38	0x3d354655	0.044256527
39	0xbdc26b1e	-0.09493087
40	0x3da39594	0.07987514
41	0xbdd6ffdf	-0.10498022
42	0xbd951e0d	-0.07281122
43	0xbd9488b4	-0.072526366
44	0xbd069f7f	-0.03286695
45	0x3c009005	0.007846837
46	0x3d6021dd	0.054719795
47	0x3df7d28a	0.12100704
48	0x3dbde321	0.09271837
49	0xbd3ce849	-0.046119962
50	0x3dc47407	0.09592443
51	0xbcbcd3bb	-0.02305018
52	0xbd90ea5c	-0.070759505
53	0x3ccc33f2	0.024927113
54	0xbd1986c2	-0.03748203
55	0x3dc167c5	0.094436206
56	0x3cc97bab	0.024595102
57	0x3d7b9581	0.061421875
58	0x3c84839d	0.01617604
59	0xbda9a5d0	-0.08283579
60	0x3cccd8e3	0.025005763
61	0xbd0d1afb	-0.03444956
62	0xbc5b095b	-0.01336893
63	0xbc695e1a	-0.014243627
64	0xbd83811f	-0.06421112
65	0x3d03349e	0.0320326
66	0x3d8d7f70	0.069090724
67	0xbdf5ebde	-0.12007879
68	0x3d304cff	0.04304218
69	0xbdd20143	-0.10254147
70	0xbdd62685	-0.10456566
71	0x3d099c3f	0.033596274
72	0x3c7d8c3d	0.01547533
73	0xbd1ae394	-0.03781469
74	0x3de40d4b	0.11135348
75	0x3a304096	0.0006723491
76	0xbd8b5ef4	-0.0680522
77	0x3d3608a0	0.04444182
78	0x39e65052	0.00043928862
79	0xbccae0d5	-0.024765411
80	0xbd8e6b6f	-0.06954085
81	0xba91a95f	-0.0011113099
82	0x3d88d293	0.06680789
83	0xbd4688d7	-0.048470344
84	0x3d48821e	0.048952214
85	0xbdae67f3	-0.085159205
86	0xbc98125b	-0.01856344
87	0xbc5b7648	-0.0133949
88	0xbda8cc2a	-0.08242066
89	0x3d57b282	0.052660473
90	0xbd97968d	-0.07401762
91	0x3d770d29	0.060315285
92	0x3c4eea90	0.012629166
93	0xbbf95a9d	-0.007609679
94	0xbd7cdb53	-0.0617326
95	0xbd2ecd03	-0.042675983
96	0x3cae316d	0.021263802
97	0x3dcb3dab	0.099238716
98	0xbd743b78	-0.059627026
99	0xbda87e76	-0.082272455
100	0xbd28902b	-0.041153114
101	0xbdaea66b	-0.085278355
102	0xbd0c49a9	-0.034249935
103	0xbdac729c	-0.084202975
104	0x3d986944	0.07441953
105	0x3d58186c	0.052757666
106	0xbdaf7452	-0.08567108
107	0x3da2229c	0.079167575
108	0x3b986b62	0.004651473
109	0xbdbe3700	-0.09287834
110	0xbc4c2b11	-0.01246144
111	0xbe1415ec	-0.14461488
112	0xbdc06cec	-0.09395775
113	0xbdcd9151	-0.100374825
114	0xbdcbaf89	-0.0994559
115	0xbcf6952b	-0.030100426
116	0x3c8decdf	0.017324863
117	0x3c360bbe	0.011111198
118	0xbded0798	-0.11573714
119	0xbdec7f60	-0.11547732
120	0xbc87a383	-0.01655746
121	0x3db59a2d	0.08867297
122	0x3d04cfed	0.032424856
123	0x3dbfdf13	0.0936872
124	0xbd6e17ad	-0.058128048
125	0x3cc3be13	0.023894345
126	0xbdb073b7	-0.08615821
127	0x3d624f2e	0.055251293
128	0xbc13e8b0	-0.009027645
129	0xbc81a701	-0.015826704
130	0xbdae56da	-0.08512659
131	0xbdf52aaa	-0.11971028
132	0xbd873f1d	-0.06603835
133	0xbcd50b07	-0.026006235
134	0xbd997d11	-0.07494558
135	0x3d452711	0.04813296
136	0xbca8a881	-0.020588161
137	0x3be7fc49	0.0070796353
138	0xbde2aa73	-0.11067667
139	0x3cc11128	0.023567751
140	0xbd1ef587	-0.038808372
141	0xbd9603e6	-0.07324962
142	0xbd17405b	-0.03692661
143	0xbdb858de	-0.09001325
144	0xbd91dea8	-0.071225464
145	0x3d98c467	0.07459336
146	0x3da76fe9	0.08175642
147	0xbdabb800	-0.083847046
148	0x3c80906d	0.015693868
149	0xbd853520	-0.065042734
150	0x3dafbbb0	0.085807204
151	0x3d94cc91	0.072655804
152	0x3d670d59	0.056409214
153	0xbda4416c	-0.08020291
154	0xbd4c37d5	-0.049857933
155	0xbcd3a1d5	-0.025834003
156	0xbdd20fc9	-0.10256917
157	0xbd92cbc9	-0.07167775
158	0x3cbc437a	0.022981394
159	0xbdbec663	-0.09315183
160	0x3d06903f	0.032852408
161	0x3b970671	0.004608922
162	0xbc1aabd2	-0.009440379
163	0xbd099fe0	-0.033599734
164	0xbd505ede	-0.050871722
165	0xbd9f0830	-0.077652335
166	0xbd32761b	-0.043569665
167	0x3dde835a	0.10864897
168	0x3c4403cc	0.011963796
169	0x3dd76273	0.105168246
170	0xbb4788d3	-0.0030446544
171	0xbd06a4e6	-0.032872103
172	0x3d377a39	0.044794295
173	0xbdf21e0d	-0.11822138
174	0xbdb9ec0c	-0.090782255
175	0x3d6448e1	0.055733565
176	0xbd0c6bee	-0.034282617
177	0x3da3a6d2	0.07990803
178	0xbc89b786	-0.016811144
179	0x3d954eaf	0.07290398
180	0xbc20985c	-0.00980195
181	0xbb0072f1	-0.001959976
182	0xbdf11725	-0.117719926
183	0xbd691529	-0.056904946
184	0xbc04bcf7	-0.008101693
185	0x3d15f94f	0.036614712
186	0x3b462190	0.0030232407
187	0xbd2cfd2b	-0.042233627
188	0xbbfb82ce	-0.0076755052
189	0x3dca65ce	0.09882699
190	0x3d470e45	0.048597593
191	0x3c8a6552	0.016894016
192	0xbdc2ad91	-0.095057614
193	0xbd03746b	-0.032093447
194	0x3dc6fcf4	0.09716216
195	0x3db582a3	0.088628076
196	0xbd7a9b43	-0.061183225
197	0x3d1b5617	0.0379239
198	0xbd077ff2	-0.033081003
199	0x3d8370c5	0.064179935
200	0xbcefe8ac	-0.029285751
201	0xbdb9081d	-0.090347506
202	0xbdf0ca5e	-0.117573485
203	0xbc5f3483	-0.01362336
204	0x3cd83b73	0.026395535
205	0xbd35cc5b	-0.04438434
206	0x3d9190a9	0.0710767
207	0x3d233ec7	0.03985479
208	0x3d696c77	0.056988206
209	0x3cd3c712	0.02585176
210	0xbdf0a3ae	-0.117499694
211	0xbd1fa8f6	-0.038979493
212	0x3d0c484a	0.034248628
213	0x3d1275d0	0.035756886
214	0xbdd6d7df	-0.10490393
215	0xbd877474	-0.066140085
216	0x3d88d095	0.06680409
217	0xbdba7313	-0.0910398
218	0x3d8fc678	0.07020277
219	0xbd1b71d1	-0.03795034
220	0x3c347ea2	0.01101652
221	0x3d201161	0.039079074
222	0x3cb1844b	0.021669528
223	0xbd879bcf	-0.06621515
224	0x3d0978de	0.033562534
225	0xbddd2e3e	-0.107998356
226	0xbd87371d	-0.06602309
227	0xbcd64294	-0.026154794
228	0xbce73121	-0.028221669
229	0x3d99eeb8	0.07516235
230	0xbd2deadc	-0.042460307
231	0x3df5d134	0.12002793
232	0x3da09c27	0.07842284
233	0x3d6c6d3e	0.05772137
234	0x3dd72573	0.1050519
235	0xbdaf2b41	-0.08553172
236	0xbdda523c	-0.10660216
237	0xbc23cbe3	-0.009997341
238	0x3d2b47da	0.04181657
239	0x3d1fc076	0.039001904
240	0xbd0153a0	-0.03157389
241	0x3c0b0997	0.008486173
242	0x3d3fc348	0.046817094
243	0x3db78a19	0.08961887
244	0x3ca26cc7	0.01982726
245	0xbc474ae6	-0.012163853
246	0xbb31c1f4	-0.0027123662
247	0xbd8a8497	-0.06763571
248	0x3a7ce0aa	0.00096465147
249	0x3d548a42	0.051889665
250	0xbd0bddfd	-0.03414725
251	0xbc5e07e2	-0.013551684
252	0xbd4a9c81	-0.04946566
253	0x3db7955e	0.089640364
254	0x3d2f4daf	0.042798694
255	0xbbd9877d	-0.006638466

tcn.layers.2.conv2.bias f4 [16]
0	0xbce3b3ee	-0.027795758
1	0xbcc24584	-0.023714788
2	0x3d1c60d2	0.038178273
3	0xbd614fea	-0.055007853
4	0xbc823e21	-0.015898766
5	0xbdb72103	-0.08941843
6	0xbc5e0012	-0.013549821
7	0xbdddfa4c	-0.10838756
8	0x3ce21014	0.027595557
9	0xbd9294a2	-0.07157256
10	0xbd00a04d	-0.031402875
11	0xbdb8185b	-0.089890204
12	0x3dc52cf9	0.096277185
13	0xbcc9310f	-0.024559526
14	0x3dcd4159	0.1002223
15	0xbd8a30aa	-0.06747563
